data/parameters/parameters-4.pt (torch_old, 30845 bytes, 6 tensors)

rnn.weight_ih_l0 f4 [68, 89]
0	0xbd920e06	-0.07131581
1	0x3def8071	0.1169442
2	0x3d6bc0f6	0.05755707
3	0x3e0184f7	0.12648378
4	0xbaa2dc69	-0.0012425306
5	0xb91ed96c	-0.0001514905
6	0x3aa0b49f	0.001226086
7	0x3cbaf79d	0.02282315
8	0x3c0009e3	0.007814857
9	0xbc880249	-0.016602652
10	0xbc799c5b	-0.015235032
11	0x3def3f46	0.1168199
12	0x3dd221a5	0.102603234
13	0x3c42c40c	0.0118875615
14	0x3c9d028e	0.019166257
15	0xbe1c4947	-0.15262328
16	0x3e226697	0.15859447
17	0x3d62660d	0.055273104
18	0xbd8d8dd2	-0.06911816
19	0x3d8c2378	0.068427026
20	0x3da88327	0.0822814
21	0x8000350e	-1.9032e-41
22	0xbd2f25f4	-0.042760804
23	0x3de3c4a4	0.111214906
24	0x3d77309d	0.060349096
25	0x3d6b8a3b	0.057504874
26	0x3df588f1	0.1198901
27	0x3ddfd92a	0.10930093
28	0x3ded5494	0.115883976
29	0x3e01cd60	0.12676
30	0x3d94777d	0.07249353
31	0x3ce2ef36	0.027701955
32	0xbbc3ef10	-0.005979426
33	0xbb7a10f3	-0.0038157075
34	0x3c2c87ca	0.0105304215
35	0xbca94e39	-0.020667182
36	0x3db9041c	0.09033987
37	0xbb9c4cd3	-0.0047699003
38	0x3d1cc0f6	0.03826996
39	0x3ae00f2d	0.0017094366
40	0x3a0a372a	0.00052725023
41	0x3c02485d	0.007951823
42	0x3bfc8d34	0.0077072624
43	0xbb4ff65a	-0.003173253
44	0x399ac8d3	0.00029522795
45	0x3bd3ad95	0.0064599016
46	0xb8c8dd1d	-9.577929e-05
47	0xbabc086f	-0.0014345775
48	0x3a99cf1b	0.0011734696
49	0x3899d275	7.334809e-05
50	0x39e00bee	0.00042733498
51	0xba4e6c07	-0.00078743737
52	0x80002f8e	-1.706e-41
53	0x00000866	3.013e-42
54	0x80001bc5	-9.962e-42
55	0x000002ed	1.05e-42
56	0x80006793	-3.7155e-41
57	0x8000b070	-6.3294e-41
58	0x0000583f	3.1657e-41
59	0x8000727d	-4.107e-41
60	0x383d23d2	4.509447e-05
61	0x3d502872	0.05081982
62	0x3d4f9c92	0.050686426
63	0x3d13941f	0.03602993
64	0x3c55545f	0.013020604
65	0x3d17bb14	0.037043646
66	0x3cde6bad	0.027150953
67	0x3cad0547	0.02112068
68	0x3c5f434d	0.013626886
69	0x3d1c39b4	0.038140967
70	0xbbba0947	-0.0056773755
71	0x3bd44c48	0.00647882
72	0xbbd59ba1	-0.0065187966
73	0x3ab4b52e	0.0013786906
74	0x3b380501	0.0028079154
75	0x390fc2a0	0.00013710046
76	0x3b16814b	0.0022965248
77	0x38f66adc	0.00011750098
78	0xb8a07a41	-7.652166e-05
79	0x39f9e525	0.00047663707
80	0x39de389f	0.00042385326
81	0x39341586	0.00017174156
82	0x3d4e077f	0.050300118
83	0x3d50b3cd	0.05095272
84	0x3d1392d3	0.036028694
85	0x3c535660	0.012899011
86	0x3d2006f6	0.03906914
87	0x3cdd416f	0.02700874
88	0x3ca538c7	0.020168675
89	0x3d23d9ec	0.04000275
90	0x3d02a980	0.03189993
91	0x3d0d1c5f	0.034450885
92	0x3dbbb3dc	0.09165165
93	0x3a975022	0.0011544267
94	0x3b2dc75e	0.0026516537
95	0x3b3c102c	0.0028696163
96	0x3d1a3e9b	0.03765736
97	0x3c6fa73a	0.014627272
98	0xbc794741	-0.015214742
99	0x3c0781a6	0.008270657
100	0x3d972fc3	0.07382157
101	0x3d3aa826	0.045570515
102	0x3d237574	0.039906934
103	0x39af46a0	0.0003343122
104	0x3c5af9b2	0.013365196
105	0x3d3b0fd6	0.0456694
106	0x3ce32cee	0.027731385
107	0x3c44e93c	0.012018498
108	0x3d0c8a70	0.03431171
109	0x3d286d5d	0.041119922
110	0x800045e4	-2.5072e-41
111	0x3d41de30	0.047331035
112	0x3d1be2aa	0.03805796
113	0x3dffbb38	0.12486881
114	0x3de1bbeb	0.11022171
115	0x3dbe5500	0.09293556
116	0x3de2e2b2	0.11078395
117	0x3deceebd	0.11568973
118	0x3dbc5720	0.09196305
119	0x3df8b375	0.12143604
120	0x3bcd4121	0.0062638675
121	0x3b05d14a	0.0020418935
122	0x3ba438ea	0.0050116675
123	0x3badd06c	0.005304387
124	0x3b2d0a9a	0.0026404024
125	0x3c877777	0.016536457
126	0x3c688d30	0.014193818
127	0x3cd82a6a	0.026387412
128	0x3a68d09b	0.00088811823
129	0xba260b68	-0.0006334097
130	0x3b9deb40	0.0048193038
131	0x3af8f9be	0.0018995327
132	0x3b4e415d	0.0031472065
133	0x3b8f0165	0.00436418
134	0x3bc3853c	0.0059668105
135	0xb91522c5	-0.000142227
136	0x37447065	1.1708679e-05
137	0xb9589b65	-0.00020657254
138	0xb8fb3348	-0.000119781645
139	0x389addef	7.3846306e-05
140	0xb9bc5daf	-0.00035927954
141	0x80001111	-6.122e-42
142	0x0000142d	7.238e-42
143	0x00003fb2	2.285e-41
144	0x000001c7	6.38e-43
145	0x0000437d	2.421e-41
146	0x00006601	3.6592e-41
147	0x80000c85	-4.491e-42
148	0x80006c6d	-3.8896e-41
149	0xb909faee	-0.00013158817
150	0x3d008f76	0.031386815
151	0x3d05e636	0.03269025
152	0x3cda14cb	0.026621243
153	0x3cf26dcc	0.02959337
154	0x3d003590	0.03130108
155	0x3d02be7b	0.031919938
156	0x3cf5a31e	0.029985007
157	0x3ba90c14	0.0051589105
158	0x3cb2c207	0.021821035
159	0x3b454ee5	0.003010684
160	0x3b227334	0.0024787905
161	0x3c650fef	0.01398085
162	0x3be1018e	0.0068666404
163	0x3c0d7d5d	0.008635846
164	0x397cf90a	0.00024125367
165	0x3b189bf8	0.0023286324
166	0xb918f72e	-0.00014587931
167	0x3a1e84db	0.00060470187
168	0x3b803e94	0.00391371
169	0xb9b1ce7c	-0.00033913914
170	0x39486ebf	0.00019114742
171	0x3cf7062f	0.030154316
172	0x3d04102d	0.03224199
173	0x3cda16ce	0.026622202
174	0x3cf63218	0.030053183
175	0x3d029c71	0.031887475
176	0x3d00e2e6	0.031466387
177	0x3cf6c97b	0.03012537
178	0x3c4b8db8	0.012423925
179	0x3d1106b7	0.035406794
180	0x3d80c36b	0.06287273
181	0x3dd85a0c	0.1056405
182	0x3a639475	0.00086814846
183	0xb9b3cc21	-0.00034293628
184	0xb9c79518	-0.0003806732
185	0x3c7eed6c	0.0155595355
186	0xbb4e207c	-0.0031452468
187	0xbc3ec7a1	-0.011644275
188	0x3ad119ca	0.001595312
189	0x3d8a8a56	0.06764667
190	0x3d8af03c	0.06784102
191	0x3da11c3c	0.078667134
192	0xb9364522	-0.00017382627
193	0x3ccd3f26	0.025054526
194	0x3d8171e8	0.06320554
195	0x3cb03327	0.021508766
196	0x3cb02ae6	0.02150483
197	0x3d2def16	0.04246434
198	0x3d404c92	0.046948023
199	0x80004093	-2.3165e-41
200	0x3d7eab63	0.062175166
201	0x3d4080a5	0.046997685
202	0x3dc5ba86	0.09654717
203	0x3dcb484b	0.09925898
204	0x3dddac5e	0.10823892
205	0x3dccf0ab	0.10006841
206	0x3dd694fd	0.10477636
207	0x3db892bd	0.09012363
208	0x3e07d632	0.13265303
209	0x3c9ebcb1	0.019377084
210	0x3a29692a	0.0006462509
211	0x3a0c457a	0.0005350929
212	0x3c4fb2ef	0.012676938
213	0xbc06f7b6	-0.00823777
214	0x3c2fcb29	0.0107295895
215	0x3c9eab62	0.019368831
216	0x3ba5b6ad	0.005057177
217	0x3a23cf2b	0.0006248827
218	0xb748b459	-1.1962919e-05
219	0x3bc46883	0.005993904
220	0x3b2b1510	0.0026105084
221	0xba3582df	-0.00069241034
222	0xbb5d27f7	-0.0033745745
223	0xba97a064	-0.0011568186
224	0x3a298ccc	0.0006467819
225	0x3a9b3729	0.0011842
226	0x38d68530	0.00010229123
227	0xb972aa9d	-0.00023142477
228	0x39a9db23	0.00032397461
229	0xb95b155a	-0.00020893422
230	0x80006e26	-3.9514e-41
231	0x0000377d	1.9905e-41
232	0x000040bc	2.3222e-41
233	0x000024da	1.322e-41
234	0x000033e2	1.8612e-41
235	0x80004224	-2.3727e-41
236	0x00004fbf	2.8608e-41
237	0x80009818	-5.4561e-41
238	0xb92263e4	-0.00015486736
239	0x3d0c5150	0.034257233
240	0x3d326b0d	0.043559123
241	0x3cde58a5	0.027141878
242	0x3cc2a493	0.023760116
243	0x3d17d19d	0.037065137
244	0x3ccfab21	0.025350155
245	0x3d0cc786	0.034369968
246	0x3bfc60f6	0.0077019883
247	0x3a1815bd	0.0005801579
248	0x3c8357e3	0.016033119
249	0x3b65a70f	0.0035042202
250	0x3c4ae04d	0.012382579
251	0x3c892c82	0.016744856
252	0x3c6841ad	0.014175815
253	0x39e0f480	0.00042906776
254	0xb9830e48	-0.00024996907
255	0xb9cbf30a	-0.00038900255

rnn.weight_hh_l0 f4 [68, 17]
0	0xbcdaf045	-0.026725898
1	0xbe1f668b	-0.15566461
2	0xbcfa1441	-0.030527236
3	0x3ccb040e	0.024782207
4	0xbd44e795	-0.048072416
5	0x3e4c25ce	0.19936296
6	0x3c85fa4e	0.016354706
7	0x3d339bd1	0.04384977
8	0x3d8de9d0	0.06929362
9	0xbd067600	-0.032827377
10	0xbdd2de37	-0.1029629
11	0xbd6a3021	-0.057174806
12	0xbdc630a8	-0.09677249
13	0xbc36e7a8	-0.01116363
14	0xbd0d6ca2	-0.03452743
15	0x3cddd18c	0.027077459
16	0xbe4c277c	-0.19936937
17	0xbc2583d8	-0.010102235
18	0xbd9d7499	-0.07688255
19	0xbcd10ac1	-0.025517823
20	0x3c921132	0.017830465
21	0xbc096746	-0.008386439
22	0x3df6efd6	0.12057464
23	0x3bc8c79e	0.006127312
24	0x3d1d81e5	0.038453955
25	0x3d319a63	0.043360125
26	0xbc909d12	-0.017653022
27	0xbd6f3cef	-0.05840772
28	0xbcd1731f	-0.02556759
29	0xbd97a567	-0.07404595
30	0x3ca767d2	0.020435248
31	0xbc6e292d	-0.014536184
32	0x3c08c18e	0.008346928
33	0xbdf6f0e8	-0.12057668
34	0xbd4dfaf8	-0.05028817
35	0xbded700f	-0.11593639
36	0x39c8b87f	0.00038284433
37	0x3c48a819	0.012247109
38	0xbca46a8b	-0.020070335
39	0x3e1741d1	0.147712
40	0x3ca6dc39	0.020368682
41	0x3d4e4317	0.05035695
42	0x3d0e77d7	0.034782257
43	0xbc97c597	-0.018526835
44	0xbd82c571	-0.06385315
45	0xbd1a564f	-0.037679967
46	0xbd957fcd	-0.07299767
47	0xbbc347bf	-0.0059594805
48	0xbc4cf04e	-0.012508465
49	0xbb4f7b32	-0.0031659123
50	0xbe174131	-0.14770962
51	0xbd0aa3eb	-0.03384773
52	0xbde092a0	-0.109654665
53	0xbcc690ef	-0.024239032
54	0x3c89d77c	0.016826384
55	0xbc03a203	-0.008034232
56	0x3e1232bc	0.14277166
57	0x3c9de0b6	0.01927219
58	0x3d6f64dd	0.0584458
59	0x3d0ae25e	0.033907287
60	0xbcbf2d71	-0.023337098
61	0xbd798773	-0.06092019
62	0xbd1d5488	-0.038410693
63	0xbd987db2	-0.074458495
64	0x3c361c04	0.011115078
65	0xbc813d84	-0.015776403
66	0xb975048f	-0.00023366719
67	0xbe123374	-0.1427744
68	0x3aa1ef2c	0.0012354604
69	0xbddcc76f	-0.107802264
70	0xbd2245e9	-0.039617453
71	0x3d033cf5	0.032040555
72	0xbc6e384d	-0.01453979
73	0x3e0d7781	0.13815118
74	0x3c5a0852	0.013307648
75	0x3d69f869	0.057121668
76	0x3d605b87	0.054774787
77	0xbcb9f6e0	-0.022700727
78	0xbd5a6dc5	-0.05332734
79	0xbd839ee0	-0.064267874
80	0xbd9bbd25	-0.07604436
81	0x3c1b1a53	0.009466725
82	0xbc0ac500	-0.00846982
83	0x3c842764	0.016132064
84	0xbe0d783b	-0.13815396
85	0xbc95b63b	-0.01827537
86	0xbd4c0d88	-0.049817592
87	0xbc09b887	-0.008405811
88	0x3c3e3590	0.01160945
89	0xbc9bfe79	-0.01904224
90	0x3d7c84ce	0.06165009
91	0x3bb59170	0.005541019
92	0x3cda5484	0.026651628
93	0x3cc302b4	0.023805
94	0xbc464f52	-0.012103872
95	0xbd1a9934	-0.037743762
96	0xbcc8ba2e	-0.02450284
97	0xbcc9d56a	-0.024637897
98	0xbaa5efc8	-0.0012659961
99	0xbc865393	-0.016397273
100	0x3bc2025d	0.005920692
101	0xbd7c86d3	-0.061652016
102	0xbcb2e3c6	-0.021837126
103	0xbdda2598	-0.10651702
104	0xbd2037a7	-0.039115574
105	0x3d0157ca	0.031577863
106	0xbcb037d0	-0.021510988
107	0x3e0f645b	0.14003126
108	0x3c2ab40a	0.010418901
109	0x3cf4873c	0.029849641
110	0x3cc41cc0	0.02393949
111	0xbcd352f3	-0.02579639
112	0xbda36560	-0.0797832
113	0xbd200bea	-0.039073862
114	0xbda43a51	-0.080189355
115	0xbb8a6d8d	-0.0042244853
116	0xbcdf34cf	-0.02724686
117	0x39e9df52	0.0004460761
118	0xbe0f651f	-0.14003418
119	0xbc8e9698	-0.017405793
120	0xbe21e118	-0.15808523
121	0xbca8b469	-0.020593839
122	0x3d5e09ed	0.054208685
123	0xbce2fa3a	-0.027707208
124	0x3e44717d	0.19183917
125	0xbb2a0be7	-0.0025947036
126	0x3dc03116	0.093843624
127	0x3d58fbeb	0.052974623
128	0xbd115081	-0.035477165
129	0xbdd0aa8a	-0.10188778
130	0xbdc07cf6	-0.093988344
131	0xbdd77701	-0.10520745
132	0x3bf13d7d	0.0073620663
133	0x3c17104d	0.009220195
134	0x3bddd0e0	0.0067692846
135	0xbe44734f	-0.19184612
136	0xbce07ede	-0.027404245
137	0xbe0a012a	-0.13477007
138	0xbd16e9af	-0.03684395
139	0x3d26ddf2	0.040739007
140	0xbd116fe2	-0.03550709
141	0x3e2fc16f	0.17163633
142	0xbc17312d	-0.009228033
143	0x3d26c9f4	0.04071994
144	0x3cd67687	0.026179565
145	0xbd199211	-0.037492815
146	0xbdbeecde	-0.093225226
147	0xbd61a40b	-0.055088084
148	0xbda7185a	-0.081589416
149	0x3c6984bf	0.014252841
150	0xbd15ad9a	-0.036542512
151	0x3c88a742	0.016681317
152	0xbe2fc2f9	-0.1716422
153	0xbd11174c	-0.03542261
154	0xbdf2af0f	-0.11849796
155	0xbcaf4cfe	-0.021399017
156	0x3d16b803	0.03679658
157	0xbccb7ea0	-0.024840653
158	0x3e1b769e	0.15181968
159	0x3c24210d	0.010017646
160	0x3d824b9f	0.0636208
161	0x3d343778	0.04399821
162	0xba964a28	-0.0011466192
163	0xbdb3143e	-0.08744095
164	0xbd8a583e	-0.06755112
165	0xbdc71eeb	-0.09722694
166	0x3be5632f	0.007000349
167	0x3b849577	0.004046138
168	0x3b984cdc	0.004647834
169	0xbe1b776c	-0.15182275
170	0xbd59d90b	-0.053185504
171	0xbdfedf3e	-0.12444924
172	0xbbd78ec2	-0.0065782974
173	0x3d1f2571	0.038854066
174	0xbcc5c097	-0.024139686
175	0x3e243a8a	0.16037956
176	0x3b819d46	0.003955516
177	0x3d8d2211	0.06891263
178	0x3d273c54	0.040829018
179	0xbd386d97	-0.045026388
180	0xbd988f97	-0.074492626
181	0xbd8ac30f	-0.06775486
182	0xbdb42aea	-0.08797248
183	0xbbee7f88	-0.0072783865
184	0xbb1a81f3	-0.002357599
185	0x3bee9efb	0.0072821355
186	0xbe243b99	-0.1603836
187	0x3b869cb9	0.0041080383
188	0xbde32cf6	-0.1109256
189	0xbd444226	-0.047914647
190	0x3c07c634	0.008287001
191	0xbb9a96c5	-0.00471768
192	0x3e1adce7	0.1512333
193	0x3d7a5300	0.06111431
194	0x3d80a247	0.06280952
195	0x3d14c85e	0.036323898
196	0xbcd865ee	-0.026415791
197	0xbd0c85df	-0.034307357
198	0xbc09442f	-0.008378073
199	0xbdcd43ee	-0.10022722
200	0x3bb500c6	0.005523774
201	0xbcf3ea37	-0.029774768
202	0x3bfa80fc	0.0076447707
203	0xbe1add38	-0.15123451
204	0xbc0c4db5	-0.008563449
205	0xbe109506	-0.14119348
206	0xbd17acb1	-0.037029926
207	0x3d363263	0.044481646
208	0xbc410a15	-0.011782189
209	0x3e3708cb	0.17874448
210	0x3c458a2d	0.012056869
211	0x3d1f7d43	0.03893782
212	0x3c279135	0.010227491
213	0xbd605767	-0.054770853
214	0xbd9f29c5	-0.07771639
215	0xbd003d55	-0.03130849
216	0xbdc5a75d	-0.09651063
217	0xba777e19	-0.0009441092
218	0xbba7aafb	-0.005116818
219	0x3c5df794	0.013547797
220	0xbe370968	-0.17874682
221	0xbce99a31	-0.028515907
222	0xbdc7a7e4	-0.097488195
223	0xbd2a21e4	-0.041536227
224	0x3d11aa75	0.03556295
225	0xbca27e69	-0.019835668
226	0x3e01d468	0.12678683
227	0x3ca31160	0.019905746
228	0x3cc5594e	0.024090435
229	0x3c82f924	0.01598794
230	0xbcbde7f7	-0.023181899
231	0xbd37c69f	-0.044867154
232	0xbcec9538	-0.028879747
233	0xbd7ac9d3	-0.06122763
234	0xbbd05d65	-0.0063587897
235	0xbc363366	-0.011120653
236	0xba822ca9	-0.0009931523
237	0xbe01d3ef	-0.12678503
238	0xbd24b86c	-0.04021494
239	0xbe02d03c	-0.12774748
240	0xbca0ef5d	-0.019645387
241	0x3cdddb98	0.02708225
242	0xbc9f762a	-0.019465525
243	0x3e255681	0.1614628
244	0x3ccfd71e	0.02537113
245	0x3d814de3	0.06313684
246	0x3d3e9ee1	0.046538237
247	0xbc95de3f	-0.018294452
248	0xbd9df10b	-0.07711991
249	0xbd715d7c	-0.058927044
250	0xbdab5c7b	-0.083672486
251	0xbc01c096	-0.007919451
252	0xbcb45465	-0.022012899
253	0xbbbbeb4b	-0.005734836
254	0xbe2557aa	-0.16146722
255	0xbc7fd29b	-0.015614177

rnn.bias_ih_l0 f4 [68]
0	0x3e6ac54d	0.22926827
1	0x3e518f65	0.20464857
2	0x3e5db922	0.21652654
3	0x3e5a954e	0.21346018
4	0x3e7700cf	0.24121402
5	0x3e144257	0.14478432
6	0x3e7779f5	0.24167617
7	0x3e7e4958	0.24832666
8	0x3e5e779b	0.21725313
9	0x3e7d500a	0.24737564
10	0x3e4c2e95	0.19939645
11	0x3e878f1a	0.26476365
12	0x3e818d39	0.25303057
13	0x3e60eabe	0.21964547
14	0x3e6d7c91	0.2319205
15	0x3e7f8145	0.24951656
16	0x3e144487	0.14479266
17	0x3e2161ea	0.15760008
18	0x3dc8e58f	0.0980941
19	0x3e3152b4	0.17316705
20	0x3e378ae0	0.1792407
21	0x3e37ae33	0.17937545
22	0x3e07adf9	0.13249959
23	0x3e42d86a	0.19027868
24	0x3dbc6760	0.09199405
25	0x3e42d6fd	0.19027324
26	0x3e3fad4f	0.18718456
27	0x3e41c467	0.18922578
28	0x3e047b7d	0.12937732
29	0x3cdf29e2	0.027241651
30	0x3e4c7adf	0.19968747
31	0x3e3e63af	0.18592714
32	0x3e467fc9	0.19384684
33	0x3e07af46	0.13250455
34	0xbd53cfb7	-0.051711764
35	0xbd33612b	-0.04379384
36	0xbc3124a8	-0.010811962
37	0x3cfdca9d	0.030980403
38	0xbdb6448f	-0.08899795
39	0x3e3e893a	0.18607035
40	0xbc27fbc4	-0.010252897
41	0x3db0bfd7	0.086303405
42	0x3d29da44	0.04146792
43	0xbcdeaf97	-0.027183337
44	0xbe469210	-0.19391656
45	0xbd196d35	-0.037457664
46	0xbdc0b536	-0.09409563
47	0x3c1e5aa4	0.009665165
48	0xbd0fc000	-0.035095215
49	0x3cb500ed	0.022095168
50	0xbe3e8af9	-0.18607701
51	0x3ea5650d	0.32303658
52	0x3e8b7535	0.2723786
53	0x3e95e72f	0.29277942
54	0x3e9a37d5	0.3012072
55	0x3ea3ff7f	0.32030866
56	0x3e87915b	0.26478085
57	0x3ea20fb9	0.3165262
58	0x3ea280a7	0.3173878
59	0x3ea70090	0.32617617
60	0x3eab3f57	0.33446762
61	0x3e9f281c	0.3108529
62	0x3ea5c519	0.32376936
63	0x3ea073e6	0.31338423
64	0x3ea0c1a6	0.31397742
65	0x3ea5107d	0.32239142
66	0x3eac974b	0.33709177
67	0x3e879393	0.26479778

rnn.bias_hh_l0 f4 [68]
0	0x3e6ac741	0.22927572
1	0x3e518dfe	0.20464322
2	0x3e5db961	0.21652748
3	0x3e5a9439	0.21345605
4	0x3e770008	0.24121106
5	0x3e144256	0.1447843
6	0x3e77795f	0.24167393
7	0x3e7e495a	0.24832669
8	0x3e5e7797	0.21725307
9	0x3e7d5083	0.24737744
10	0x3e4c2f66	0.19939956
11	0x3e878f24	0.26476395
12	0x3e818d3f	0.25303075
13	0x3e60eab4	0.21964532
14	0x3e6d7cc1	0.23192121
15	0x3e7f8253	0.24952058
16	0x3e144486	0.14479265
17	0x3e2161ed	0.15760012
18	0x3dc8e666	0.0980957
19	0x3e31537d	0.17317005
20	0x3e37902b	0.1792609
21	0x3e37adf4	0.17937452
22	0x3e07ae09	0.13249983
23	0x3e42d882	0.19027904
24	0x3dbc6761	0.091994055
25	0x3e42d5ce	0.19026873
26	0x3e3facff	0.18718337
27	0x3e41c34b	0.18922155
28	0x3e047c2e	0.12937996
29	0x3cdf21d3	0.027237808
30	0x3e4c7a11	0.1996844
31	0x3e3e63b7	0.18592726
32	0x3e467cfa	0.19383612
33	0x3e07af45	0.13250454
34	0xbd2feb9a	-0.042949297
35	0xbd33633b	-0.043795805
36	0xbc311d85	-0.010810261
37	0x3cfdca27	0.030980183
38	0xbdb4fcbe	-0.08837269
39	0x3e3e89cf	0.18607257
40	0xbc279a43	-0.01022965
41	0x3dadcec5	0.08486704
42	0x3d2afc8c	0.041744754
43	0xbce14f1c	-0.027503543
44	0xbe46a0cf	-0.19397281
45	0xbd19d0b1	-0.03755254
46	0xbdc0abaf	-0.09407746
47	0x3c1e7c5f	0.009673207
48	0xbd0fc372	-0.0350985
49	0x3cb51103	0.022102838
50	0xbe3e8a06	-0.1860734
51	0x3ea56553	0.32303867
52	0x3e8b771d	0.27239314
53	0x3e95e71a	0.2927788
54	0x3e9a3899	0.30121306
55	0x3ea40195	0.32032457
56	0x3e87916a	0.2647813
57	0x3ea20f2c	0.316522
58	0x3ea280a3	0.31738767
59	0x3ea7008b	0.32617602
60	0x3eab3f43	0.33446702
61	0x3e9f27f7	0.31085178
62	0x3ea5c5fa	0.32377607
63	0x3ea0756a	0.3133958
64	0x3ea0c255	0.31398264
65	0x3ea50f9b	0.3223847
66	0x3eac9da5	0.33714023
67	0x3e8793b3	0.26479873

FC.weight f4 [7, 17]
0	0xbf214a09	-0.63003594
1	0xbe97d9c6	-0.29658335
2	0x3f300f0d	0.68772966
3	0x3f14744f	0.5798997
4	0x3eab729f	0.33485886
5	0xbe3c8c05	-0.18412788
6	0xbf2e2a8c	-0.6803367
7	0xbe78bc3b	-0.24290554
8	0xbf85dd06	-1.0458076
9	0xbf22b277	-0.63553566
10	0x3e6aaace	0.2291672
11	0xbea0e670	-0.3142581
12	0xbc8e6272	-0.017380927
13	0xbef26dfe	-0.47349542
14	0x3f10e896	0.566049
15	0xbe8acd1e	-0.27109617
16	0x3e3c93e5	0.18415792
17	0x3f98bc23	1.1932415
18	0x3eeebbd6	0.46627682
19	0xbec55bd0	-0.3854661
20	0x3f10337f	0.56328577
21	0xbd7ea221	-0.062166337
22	0xbe0964a4	-0.13417298
23	0xbf2fe606	-0.6871036
24	0xbf591337	-0.84794945
25	0x3e9a466d	0.30131856
26	0xbe9077ea	-0.28216487
27	0x3e271899	0.16317977
28	0xbe34b80b	-0.17648332
29	0x3ea852d7	0.32875702
30	0x3ee5959a	0.448407
31	0x3dc7f98c	0.09764394
32	0x3f5940db	0.84864587
33	0x3e097312	0.13422802
34	0xbe81c6f5	-0.25347105
35	0x3e6a89af	0.22904085
36	0x3f10e748	0.5660291
37	0xbef7b85a	-0.48382837
38	0x3ed328a6	0.4124195
39	0xbe1da314	-0.1539424
40	0x3ee650b6	0.44983453
41	0x3f80b2f0	1.0054607
42	0x3e4eeaf3	0.20206814
43	0xbef83600	-0.484787
44	0x3e55b9cc	0.20871657
45	0x3fa30f7d	1.2739102
46	0x3eb730e4	0.35779488
47	0x3f02acea	0.51045096
48	0x3de49358	0.11160916
49	0x3f2b3933	0.66884154
50	0x3e1da682	0.15395549
51	0xbe367927	-0.17819653
52	0x3eb043e6	0.34426802
53	0x3ec9663a	0.39335805
54	0xbf14fbad	-0.58196527
55	0xbf34543d	-0.7044104
56	0xbe57628f	-0.21033691
57	0xbee2c1c3	-0.44288453
58	0x3bd30cda	0.006440741
59	0x3ee8f844	0.45501912
60	0x3efcbbe5	0.49362102
61	0x3e90de8c	0.2829479
62	0xbf013cfb	-0.50483674
63	0xbf9d49c1	-1.2288133
64	0x3eb4bb8b	0.35299334
65	0x3eb8c064	0.36084282
66	0xbed26e41	-0.41099742
67	0x3e57663d	0.21035095
68	0xbe2b77f7	-0.16744982
69	0x3f068605	0.5254825
70	0xbef68f6d	-0.481563
71	0x3cf3c8bf	0.02975881
72	0x3f3c5838	0.7357211
73	0xbe2a401b	-0.16626017
74	0xbd861736	-0.06547396
75	0x3da6695b	0.08125564
76	0xbe819381	-0.2530785
77	0x3efa7370	0.48916197
78	0xbf84d892	-1.0378592
79	0x3e2f8fcf	0.17144702
80	0x3ed9604c	0.4245628
81	0x3f0fcb78	0.56169844
82	0xbf19f9f3	-0.6014702
83	0xbf70aec7	-0.9401669
84	0x3e2a405a	0.1662611
85	0x3e021ed0	0.12707067
86	0xbe99c515	-0.30033174
87	0xbf0391b7	-0.5139422
88	0xbf3fc3f4	-0.74908376
89	0xbf370a6e	-0.7150029
90	0xbe26198f	-0.16220687
91	0x3f006c5c	0.50165343
92	0xbe281400	-0.1641388
93	0xbef5ef94	-0.48034346
94	0xbf197a3e	-0.5995215
95	0x3f0f2c6d	0.55927163
96	0xbddada35	-0.10686151
97	0x3d2ff065	0.042953867
98	0xbf1c7651	-0.61118037
99	0xbf874986	-1.0569313
100	0xbea91a7f	-0.33028027
101	0x3e262838	0.1622628
102	0xbea7bcc8	-0.32761216
103	0xbea6c9b3	-0.3257576
104	0xbf2af42f	-0.66778845
105	0x3ea60d5b	0.32432064
106	0x3ee083da	0.43850595
107	0xbe50cafd	-0.20389934
108	0x3f2f86ab	0.6856486
109	0x3e528fef	0.20562719
110	0x3f41a734	0.75645757
111	0x3f663265	0.89920646
112	0x3ee1aee0	0.44078732
113	0xbf0768c5	-0.5289424
114	0x3ecace27	0.39610407
115	0xbf3b4bac	-0.7316234
116	0x3f068abc	0.5255544
117	0x3e4832f6	0.1955069
118	0x3e50a14d	0.20374031

FC.bias f4 [7]
0	0xbea7a4cf	-0.32742926
1	0xbe32b554	-0.17451984
2	0xbe5473b0	-0.20747256
3	0xbea75e14	-0.32688963
4	0xbea20941	-0.31647685
5	0xbea67440	-0.32510567
6	0xbe89ee9a	-0.2693985
