data/parameters/parameters-23.pt (torch_old, 30842 bytes, 6 tensors)

rnn.weight_ih_l0 f4 [68, 89]
000000 f2 45 88 3d a4 8f 45 3d d1 77 d5 3d 93 3d 1d 3c
       0.06653966 0.04823269 0.10423244 0.0095972
000010 c7 e4 a8 3d d1 a4 e1 3c fa 27 e2 bd d3 3c c7 bc
       0.08246761 0.02754441 -0.11042781 -0.024320995
000020 8d 27 0b 3e 6b 94 77 3d 55 a9 2e bc cc b4 6a bd
       0.13589306 0.060444277 -0.010660489 -0.057301328
000030 0a 2b ca 3d 5a 06 d0 3c 08 47 0a 3d d7 f2 5a 3d
       0.0987149 0.025393654 0.033759147 0.053454246
000040 e2 04 25 3d 7d 96 0e bc d5 66 22 3d 20 d0 d9 3b
       0.04028786 -0.008702871 0.03964885 0.006647125
000050 32 3a 98 3d 9e 19 13 bd 4e de d2 3c 8f ba 4f 3c
       0.07432975 -0.035913102 0.025740769 0.012678756
000060 f3 10 aa 3e eb 6c 8c 3e 53 74 ac 3e 8c ce 8f 3e
       0.33216056 0.27426848 0.33682498 0.2808727
000070 4d 5d 28 3e 8c cd bf 3e 4c 28 a4 3d 27 06 f4 3d
       0.16441841 0.37461507 0.080154985 0.11915236
000080 79 6b 17 3c 3c b2 88 ba fd 69 d2 bb 52 80 a2 3d
       0.009241932 -0.0010429095 -0.006421326 0.079346314
000090 42 0a 07 3d 4d 84 04 3d f7 2d a3 3c fc 2a a9 3c
       0.032968767 0.032352734 0.019919379 0.02065038
0000a0 1b b7 04 bc 2c 26 0e 3d 0b f3 0e 3e ef 84 ed 3c
       -0.008100296 0.034704372 0.13959901 0.028994052
0000b0 62 0e 1d bd 0d 0a 03 3e 06 42 50 3d 3d e8 c6 3c
       -0.038343795 0.12796803 0.050844215 0.024280662
0000c0 b8 7d 11 bd f5 08 73 3b ba ca 9e bc 0d 2e db 3c
       -0.035520285 0.0037084196 -0.019383777 0.026755357
0000d0 73 37 01 bc 00 85 5b bc 57 b3 a6 3c 72 82 92 3c
       -0.007886755 -0.013398409 0.020349188 0.017884467
0000e0 92 19 a2 3c ca 2e bf 3c 60 61 38 3c 6d e1 87 3c
       0.019787584 0.02333774 0.011253685 0.016586984
0000f0 4e 32 ac bd c0 8f 0e 3d 90 55 48 3c a7 be d7 3c
       -0.08408032 0.03480506 0.012227431 0.026336027
000100 6d b3 9e 3c cd 7f 88 3c 53 8c 9a 3d 74 69 5f 3c
       0.019372666 0.016662503 0.07546296 0.013635982
000110 cc 60 80 3d bf 06 e9 3d 47 4f 86 3d ff 7d 7b 3d
       0.062684625 0.1137824 0.0655809 0.061399456
000120 88 e3 86 3d 2d c9 42 3c 6d 48 cc 3d bb 1f 43 3d
       0.06586367 0.011888784 0.099747516 0.047637682
000130 fd 84 83 3d c0 c6 3d 3d 57 23 27 3d 17 70 91 3d
       0.0642185 0.04633212 0.040805187 0.071014576
000140 e8 2e 5c 3d 8a af ae 3d 52 f7 1c 3e 5f c3 a4 3d
       0.05375567 0.08529575 0.1532872 0.080450766
000150 37 ba 0f 3d c7 d0 18 3e 33 39 f5 3c f9 93 d6 3d
       0.035089698 0.14923392 0.029934501 0.10477442
000160 b3 39 96 bd 0e 2a a8 3d f7 79 ca 3c a0 1c ac 3d
       -0.07335224 0.08211146 0.02471636 0.08403897
000170 18 36 ed 3c 38 48 e5 3c fd e1 62 3d e2 54 40 bd
       0.028956458 0.027988538 0.0553913 -0.04695595
000180 0a 08 ed 3c 0d 06 e2 3d a4 22 2d 3d a9 b4 4f bd
       0.028934497 0.1103631 0.042269364 -0.0507094
000190 f3 f8 82 bc f9 2c 95 3d 78 7f 8a 3d 1c c1 25 bc
       -0.015987849 0.072839685 0.06762594 -0.010116842
0001a0 7c 6c be bc ac f5 04 3e b2 ad 48 3d 24 b3 5f 3d
       -0.023245089 0.12984341 0.048993774 0.0546142
0001b0 7d 18 52 3d 00 52 24 3d 8f 1c f2 3c e6 a0 2d 3e
       0.051292885 0.040117264 0.029554633 0.16955909
0001c0 4c 19 af 3c e1 aa 87 3e 06 ed 05 be 3e dc 59 3e
       0.021374367 0.26497558 -0.13078699 0.21275422
0001d0 f6 4e 84 3e 8d e1 90 3e 36 56 8a 3e db 82 47 3e
       0.25841492 0.28297082 0.270189 0.19483511
0001e0 6a b6 89 bd ef a0 a9 3d 38 b5 02 3d 17 c1 88 3b
       -0.06724246 0.08282649 0.031911105 0.0041734087
0001f0 93 26 a9 3c 65 f8 37 3d c7 7d 8b 3d f2 5f 0c 3e
       0.020648276 0.04491462 0.068110995 0.13708475
000200 29 96 79 38 46 2b 1d 3d 90 bd 83 3d 80 22 84 3d
       5.9506074e-05 0.038371347 0.064326406 0.06451893
000210 a8 75 37 3b 17 d9 84 bc 13 ca 83 3d 9f df 04 3d
       0.0027993713 -0.016216798 0.06435027 0.032439824
000220 fa 37 9a 3c 93 3a a1 bb b2 05 b0 3c 64 e3 38 bb
       0.01882552 -0.0049203127 0.02148709 -0.0028211707
000230 5f 2c 8b 3c 74 5e 2d 3c c2 2a 6d 3a 48 76 4f 3c
       0.016988931 0.010581601 0.0009047204 0.012662478
000240 0d 9a a5 bb ad 77 1f 3c ac f9 67 bb 3a 09 2c ba
       -0.0050537647 0.009733123 -0.0035396619 -0.0006562654
000250 68 b6 68 bc 6c 38 8c bb 40 3b 02 3d 34 27 28 3d
       -0.014203645 -0.004279187 0.031794786 0.041053012
000260 cd 0a 3f 3d fd 27 52 3d 3f 92 c4 3c 15 32 13 3d
       0.04664116 0.051307667 0.023995517 0.035936434
000270 41 5e 27 3d 9c df 7e 3c a4 d0 e0 3d ac ff 88 bc
       0.040861372 0.015556242 0.10977295 -0.016723476
000280 72 3e d6 3b c3 34 2c 3d 54 53 2c bc 0a 7c 0c 3d
       0.006538206 0.042042505 -0.010517914 0.03429798
000290 0d ba 85 3b 9f 1b b7 3d d8 01 fd bb 2d 64 5e 39
       0.004081017 0.08940815 -0.007721167 0.00021208888
0002a0 7f ba c0 3b fb 52 93 bb b0 c8 2d 3c 69 5d 31 3d
       0.005881607 -0.004495976 0.01060693 0.043301973
0002b0 9d 04 bc 3d 3e 1d 11 3d 6c 3a 51 3d c6 81 bd 3d
       0.091805674 0.03542828 0.051081106 0.09253268
0002c0 b7 23 ea 3d fa b8 84 3d 0d 45 29 bc 90 e3 f1 3d
       0.11432593 0.06480594 -0.010331404 0.11810982
0002d0 86 c2 eb be 53 ed 10 3e 97 15 0f 3e 09 5c 00 3e
       -0.46046847 0.14153032 0.1397308 0.12535109
0002e0 4c 15 b5 3d 1e 71 41 3d 6d 74 f9 3d 21 9c 12 be
       0.08841953 0.047227018 0.121804096 -0.14317371
0002f0 bb 9d 2b 3e d1 76 3d be 34 ec 41 3d 05 9b a2 3d
       0.16759388 -0.18502356 0.0473444 0.07939724
000300 0f 79 12 3d 59 35 e9 3d 9f d6 c1 be df 43 90 3d
       0.03575998 0.113871284 -0.37859055 0.070441954
000310 02 6d e2 bd a3 50 4f be a6 d3 1a 3e 86 da bb bd
       -0.11055948 -0.20245604 0.151198 -0.091725394
000320 c3 8a 08 bf cf 6c 6c 3e 45 af 94 3e c1 73 87 3e
       -0.53336734 0.23088382 0.2903997 0.264555
000330 52 cb d7 be 23 f8 64 3e 38 e5 40 3e 75 1a a0 3e
       -0.4214731 0.22360282 0.1883744 0.31270185
000340 bd dc b5 3d 4a 8b 06 bc 55 71 43 bc 72 1b 95 3d
       0.08879993 -0.00821192 -0.011928876 0.072806254
000350 ce 36 09 3b 97 54 aa 3d ae a7 b4 3c a3 5a bb bc
       0.0020937207 0.083169155 0.022052612 -0.022870367
000360 0a 1c 5b 3d ef e2 fd 3c e0 b8 88 3c 67 24 27 be
       0.053493537 0.030992 0.016689718 -0.1632248
000370 d6 aa 0d 3e d7 e5 4b 3c e3 2f ef 3d bc 75 36 3c
       0.138347 0.012444935 0.116790555 0.0111364685
000380 57 ad 65 3d f9 48 23 bc 6f c0 1b 3e 93 c2 10 3d
       0.056073513 -0.0099661285 0.15210126 0.03534181
000390 08 5a 21 3d 3c 68 44 3d 53 c4 6c 3d 93 60 74 3d
       0.0393925 0.04795097 0.057804417 0.059662413
0003a0 7c 9e f0 3c 8c 32 9e 3d b3 6d 10 3c 88 72 5f bc
       0.029372446 0.07724485 0.008815217 -0.013638146
0003b0 35 d7 6f 3c 95 cd 8c bb be 37 7a 3c 69 f6 af 3c
       0.014638712 -0.004296968 0.015272079 0.021479802
0003c0 dd 0f 30 bc c5 88 7f 3b 57 bb 0f bc 85 83 6f 3d
       -0.01074597 0.0038991433 -0.008772693 0.058475036
0003d0 81 57 00 3c 3c f2 c0 bb 14 88 4d 3d 73 d8 5e 3c
       0.007833363 -0.0058882516 0.050178602 0.01360141
0003e0 0b 2f 63 3e 96 24 00 3d 57 88 12 3d 0b 62 d3 3c
       0.22185914 0.03128489 0.035774555 0.025803586
0003f0 7f 1d a5 3d 6a e6 8a 3d df ff e1 3c b2 7a 2e 3e
       0.080622666 0.06782229 0.02758783 0.17038992

rnn.weight_hh_l0 f4 [68, 17]
000000 4e 2b 09 3e 0a 53 06 3c 8b b8 c0 3b 33 25 86 bd
       0.13395426 0.008198509 0.0058813742 -0.06550064
000010 ba 8d 05 bd d3 93 17 3e 2b be 3c bd 2d 8c 02 bd
       -0.032605864 0.14802484 -0.046079796 -0.031871963
000020 e0 fa c4 3c 1e 3a 02 3b 1f d8 2c 3e 3a a4 86 3d
       0.024045408 0.0019871066 0.16879319 0.065742925
000030 ba bd 6f bd 49 28 9f bd 4b 6c d4 bd 3c 14 c2 3d
       -0.058530547 -0.07771356 -0.10372218 0.09476516
000040 03 b1 8b 3d 2b c9 e4 3c 22 57 b8 3d 41 35 26 bd
       0.06820872 0.027927956 0.09000994 -0.04057813
000050 3a f2 59 bd b9 a8 c9 bc f5 7b 91 3d 5d 8e 77 bd
       -0.05320952 -0.024616586 0.07103721 -0.060438503
000060 05 c9 f0 3c 8a 17 88 bd fd 01 d7 3b b3 bb a0 3d
       0.029392729 -0.06645115 0.0065615163 0.07848301
000070 96 fa db 3c 82 00 21 3d 28 57 18 3c 54 5d 1e bd
       0.026852887 0.039307125 0.009298123 -0.038663223
000080 38 a3 c6 bb 5d 83 c1 3d c7 bb 7a bd 4d bb 96 3d
       -0.0060619377 0.09448884 -0.061214235 0.073599435
000090 9e e5 bf bd 44 9c ce bd 93 3e 0c bd 1c 53 b3 bd
       -0.09369968 -0.10088399 -0.034239363 -0.08756086
0000a0 4b 38 96 bd 5b 96 ef bc ad ba d2 bc 11 39 9e be
       -0.07334956 -0.0292465 -0.02572378 -0.30902913
0000b0 f5 e8 f7 bc 32 d1 07 3e d5 a6 87 bb e4 64 fa bc
       -0.03026245 0.13263395 -0.004139761 -0.030565687
0000c0 40 87 3c 3c a6 db ee 3d 7b 68 ae 3d e9 e9 e3 bd
       0.0115068555 0.11662988 0.08516022 -0.11128599
0000d0 b9 1a f1 bd 9b 3b 81 3d a1 c9 e7 bd f4 91 28 3e
       -0.11772675 0.06310197 -0.113177545 0.16461927
0000e0 24 89 2a bd 5d 2b b7 3d f8 bf 16 3d 4e 33 4c bc
       -0.041634694 0.08943818 0.03680417 -0.012463404
0000f0 7f 7d 84 3c b6 ac 6a be c3 e1 38 ba 07 3b 39 bd
       0.016173122 -0.22917446 -0.0007052684 -0.04522231
000100 dc fe 7d 3d 70 78 bb 3d 2a f2 5e 3d 17 79 1e bc
       0.06201063 0.09153831 0.054430164 -0.009672425
000110 5a 9e 71 bd 35 1b bd bd 14 e6 75 3d 3b 25 a9 bd
       -0.058988906 -0.09233705 0.060033873 -0.08259054
000120 a1 32 21 be 74 38 b8 bd ae cd f0 3c 6d 68 6d bd
       -0.1574197 -0.089951426 0.02939495 -0.057960916
000130 05 e8 6d bd 79 43 f1 ba 2c 4e 2b be 3b 2e ae 3d
       -0.0580826 -0.0018406949 -0.16729039 0.085049115
000140 ef 49 9d bd 7e 4f 15 bd ca 9e 1f 3e 6b b2 d2 3c
       -0.07680117 -0.036452763 0.15587917 0.025719842
000150 1b 99 6c bc 6b b9 57 bd 50 95 25 bd 49 3e 28 3d
       -0.0144408 -0.052667063 -0.0404256 0.041075025
000160 a0 16 0d 3d 38 0b 0f bc 64 f5 3a 3e 9e 1a 7e 3d
       0.034445405 -0.008730702 0.18257672 0.062037103
000170 d7 ed 53 3c 5a 07 24 bd 08 12 8b 3d 04 fc d0 3d
       0.012935123 -0.040046073 0.067905486 0.10204318
000180 a1 57 76 bd aa 78 bd 3d ac 2d 07 bd 05 5b aa ba
       -0.060142163 0.092515305 -0.03300254 -0.0012997097
000190 c5 e1 82 3c 94 38 c6 3d 54 99 05 be 90 19 16 3e
       0.015976796 0.0967876 -0.13046771 0.14658189
0001a0 6e 06 2c 3d 22 56 dd bc ef ee 15 b9 19 3d f5 3c
       0.04199832 -0.02701861 -0.00014298757 0.02993636
0001b0 99 ab d5 bd 39 20 40 3e 16 ce c7 bd 75 f3 70 bd
       -0.1043312 0.18762292 -0.09756105 -0.05882593
0001c0 3d 36 38 3d f4 94 78 3d 53 5b 9a 3d 33 56 84 3d
       0.0449736 0.060688928 0.0753695 0.06461754
0001d0 f2 cd 65 3c f2 12 25 3c 58 ac 0a 3e 01 d0 b5 bd
       0.014026152 0.010075318 0.13542306 -0.08877564
0001e0 a3 e7 99 3d b9 94 0b 3d 13 1d af bc 35 24 1f 3d
       0.07514884 0.03407738 -0.021376168 0.03885289
0001f0 98 6c 06 3d e5 87 5b bd 97 95 2d 3e 18 3c e0 3c
       0.032818407 -0.053596396 0.16951595 0.027372405
000200 4a d4 03 be be 8c 17 3d c2 77 58 3e 03 6b e7 3c
       -0.1287395 0.036999457 0.21139434 0.02824927
000210 09 10 de bd 54 cf 71 3d de 8a 7f 3d f4 61 b6 3d
       -0.10842902 0.059035614 0.062388293 0.08905402
000220 e4 16 3b 3c ea 09 b0 3d b1 ba 96 3c 8b a2 f9 bd
       0.011419032 0.08595641 0.018399568 -0.12189206
000230 f8 9c f3 bc f6 53 84 3d 5b db 83 bd fd f0 a9 3d
       -0.029737934 0.06461327 -0.06438323 0.08297918
000240 60 5d 97 bd 6e ec 97 bd 1b cd 99 3d 68 34 e8 3d
       -0.07390857 -0.07418142 0.07509824 0.11338121
000250 66 7f d9 3c 43 73 45 bd da f5 c7 bc 4a f9 a4 3c
       0.026550006 -0.048205625 -0.024409223 0.020138402
000260 79 ca cb 3d 6c fd 2d bd 02 fc ab 3c a7 23 17 3e
       0.09950728 -0.04247801 0.02099419 0.14759694
000270 27 5e 91 bd 10 12 80 bd 3f 54 98 3d b8 f7 f3 3c
       -0.07098036 -0.06253445 0.07437944 0.029781207
000280 ee 4b 1d 3d 2a be 13 bc 41 2e ae bd a2 85 15 bb
       0.03840249 -0.009017507 -0.08504916 -0.0022815247
000290 5b 48 84 3d 75 27 9e 3d 74 74 2b 3c ff 0a 8e 3d
       0.06459113 0.077223696 0.010464776 0.06935691
0002a0 28 f7 e6 3c d5 6c 96 3c ef 75 87 bd 41 6c 43 bd
       0.028194025 0.018362442 -0.06614291 -0.04771066
0002b0 d8 e3 80 bc 80 bb 1e bd 87 0d e0 3c 9b b2 65 3d
       -0.015733644 -0.038753033 0.0273502 0.056078535
0002c0 1d f3 62 bc f6 8b 28 3c 24 90 6b bb 35 2e 4f bc
       -0.013851908 0.010287276 -0.0035944069 -0.012645294
0002d0 4f f2 a9 3d d5 16 84 3d cd ee dc 3c 59 07 6e bd
       0.0829817 0.06449667 0.026969338 -0.058112476
0002e0 92 8c 2a bd 08 e4 7b 3d b9 8a 0f 3d bc 64 f3 3c
       -0.041637965 0.061496764 0.035044406 0.02971112
0002f0 c4 16 db 3d bc 1b 6f bd d3 69 b1 bc 36 92 1c be
       0.106977016 -0.05837606 -0.021656906 -0.1529015
000300 76 58 b0 3d 6d ee b0 bd ee dd b8 3b a9 83 c8 b9
       0.086106226 -0.08639226 0.0056416905 -0.00038245067
000310 f3 a6 b4 bc 7e 31 05 3e 3a 5a 38 3e f5 12 b9 3d
       -0.022052264 0.13007161 0.18003169 0.09036819
000320 fd 6f 9e bb f5 7e 82 bb d1 43 97 bd fe 94 c2 3d
       -0.0048351274 -0.0039824196 -0.07385982 0.09501074
000330 b3 b2 22 3b 8d 5f 80 bc 3b a9 ca 3d 10 b6 9f bd
       0.0024825751 -0.015670562 0.098955594 -0.077983975
000340 4e f6 4b bd 27 14 7f bc 31 5e f7 3d 46 38 d3 3d
       -0.04979544 -0.01556877 0.120785125 0.10313468
000350 49 a8 a5 bd 2b a9 0c be 9d db de bc 6a 90 6c 3c
       -0.080887385 -0.13736407 -0.02720433 0.014438728
000360 82 62 9e 3d 5f cf 61 3a 15 03 f9 3d f5 57 4d 3d
       0.077336326 0.00086139695 0.12158791 0.05013271
000370 0c 38 a3 3d f9 fe 75 bd 5c 14 af 3c c4 84 a1 bd
       0.079696745 -0.060057614 0.021372013 -0.07886651
000380 62 84 75 bc cb a5 49 3d 0f d4 4b bd 13 b4 fd bd
       -0.014985176 0.049230378 -0.04976278 -0.12387862
000390 ee f0 13 3c 26 9e 88 bd ed c7 b8 bd 84 e7 00 be
       0.00902961 -0.066707894 -0.09022508 -0.12588316
0003a0 95 2b 08 3e b9 5d b8 3d 4c d0 bb 3c e1 96 4d 3d
       0.13297875 0.09002251 0.022926472 0.050192717
0003b0 e1 ab d0 3d 92 8b c2 bd 8e 78 82 bd de 2a ba 3d
       0.10189033 -0.09499277 -0.0637065 0.090902075
0003c0 7d 9a 71 3d 4e 87 fa 3c f1 09 ab 3d 8a 50 0a 3d
       0.058985222 0.030582096 0.083515055 0.033768214
0003d0 12 b9 2b bd 7c 1e ad 3c 53 e6 00 3d e2 39 f3 3c
       -0.041924544 0.0211327 0.031469654 0.029690687
0003e0 ee 51 a3 bd bd c2 8d 3d 67 ae 6d 3e 21 03 11 bd
       -0.07974611 0.06921909 0.2321106 -0.035403375
0003f0 95 35 91 bd 4c 19 62 3d 20 49 e8 ba 77 46 b4 bd
       -0.07090298 0.055199906 -0.0017721988 -0.088025026

rnn.bias_ih_l0 f4 [68]
000000 92 da 6a 3e 86 99 82 3e 06 7b 0c 3e dd d9 02 3c
       0.2293494 0.25507754 0.13718805 0.007986513
000010 4d 2a a6 3d ed 68 db 3d ae ce 50 3e de 22 f1 3d
       0.08113537 0.107133724 0.20391342 0.117742285
000020 90 34 9e 3e 4c 24 46 3e be db 00 3e 07 37 02 3e
       0.30899477 0.19349784 0.12583825 0.12716304
000030 7c 9d 14 3e d5 fa 60 3e da 46 d4 bc 3a f0 0a 3e
       0.145132 0.21970685 -0.02591269 0.13568202
000040 6f d9 13 3e 62 30 3b 3e 89 6f 31 3e d8 04 31 3e
       0.14438413 0.18280175 0.17327704 0.17287004
000050 98 d9 52 3e 36 6d 59 3e 9e d1 7f 3e b7 20 93 3d
       0.20590818 0.21233067 0.24982306 0.07183974
000060 17 8b 01 3e 06 e3 34 3e 91 c0 2e 3e e6 cf 97 3e
       0.12650715 0.17664728 0.17065646 0.296508
000070 93 64 93 3e ab 16 14 3e 1b 00 7a 3e 3b 40 5a 3e
       0.2878767 0.14461772 0.24414103 0.21313564
000080 e3 45 61 3e ab 3b 24 3e b2 f2 cd 3d ad 85 48 3b
       0.21999316 0.16038387 0.10056056 0.0030597255
000090 96 ce 95 bd 26 03 bb bd 44 9b 89 3d 5e 21 85 3c
       -0.07314794 -0.0913146 0.06719068 0.016251262
0000a0 4b 9c 79 bd bd b7 c1 3d 14 34 c0 bc 37 66 15 3d
       -0.06094007 0.094588734 -0.023462333 0.036474433
0000b0 41 c4 b3 bb ea 1d 68 3d 83 6e b8 bc 9a 54 c4 bd
       -0.005486042 0.056669153 -0.022513634 -0.09586449
0000c0 d6 74 b2 bd e8 1b 22 bd 44 53 e5 3d e6 ab a1 3e
       -0.08713691 -0.039577395 0.11197522 0.3157646
0000d0 c9 6c 2a 3e 97 4a c1 3e 08 99 84 3e 2b 71 bf 3e
       0.1664306 0.3775222 0.25898004 0.37391028
0000e0 08 ae 84 3e c9 c8 a2 3e 6c e1 25 3e 2f 74 af 3e
       0.25914025 0.31793812 0.16199273 0.3426833
0000f0 d1 67 ad 3e ae 41 90 3e 14 66 a2 3e 72 ef 93 3e
       0.33868268 0.2817511 0.31718504 0.2889362
000100 1b 27 d4 3e 23 1a b0 3e db a1 b0 3e 23 04 eb 3d
       0.41436085 0.3439494 0.34498486 0.114753984

rnn.bias_hh_l0 f4 [68]
000000 92 da 6a 3e 85 99 82 3e 6b 7a 0c 3e 95 4d 02 3c
       0.2293494 0.2550775 0.13718574 0.007953067
000010 73 2a a6 3d ed 68 db 3d be ce 50 3e 04 81 f0 3d
       0.08113565 0.107133724 0.20391366 0.11743358
000020 8f 34 9e 3e cd 2b 46 3e be db 00 3e 0d 3a 02 3e
       0.30899474 0.19352646 0.12583825 0.12717457
000030 7d 9d 14 3e d2 fa 60 3e 08 54 d4 bc 3a f0 0a 3e
       0.14513202 0.2197068 -0.025918975 0.13568202
000040 38 d8 13 3e 62 30 3b 3e 88 6f 31 3e 82 0e 31 3e
       0.1443795 0.18280175 0.17327702 0.1729069
000050 da 4f 53 3e eb 6c 59 3e 9a d1 7f 3e 9e 1c 93 3d
       0.2063593 0.21232955 0.249823 0.07183193
000060 8e 73 01 3e 04 e3 34 3e 90 64 2d 3e e7 cf 97 3e
       0.12641737 0.17664725 0.16932893 0.29650804
000070 96 64 93 3e c8 20 14 3e 1b 00 7a 3e 1f 43 5a 3e
       0.28787678 0.1446563 0.24414103 0.21314667
000080 6b 80 61 3e ef 45 24 3e 04 15 df 3d 88 00 ad 3d
       0.22021644 0.16042303 0.1089268 0.08447367
000090 4a 59 c5 bc f0 df 43 bd 41 c3 9c bd ed 16 4c 3c
       -0.024090428 -0.047820985 -0.07654429 0.012456638
0000a0 8f f7 f7 3b c9 f6 e0 3d 70 1e e8 3c 32 ed 17 3c
       0.007567353 0.109845705 0.028334826 0.00927286
0000b0 14 93 0e 3c bb e0 41 3d 24 fc 4f 3d 21 05 03 3e
       0.008702058 0.04733346 0.05077757 0.12794925
0000c0 32 de a2 bd 0f 4d d4 3b 94 9f d5 3d e6 ab a1 3e
       -0.07952537 0.0064789127 0.10430828 0.3157646
0000d0 ca 6c 2a 3e 97 4a c1 3e b2 98 84 3e 2b 71 bf 3e
       0.16643062 0.3775222 0.25897747 0.37391028
0000e0 08 ae 84 3e c9 c8 a2 3e 6d e1 25 3e 30 74 af 3e
       0.25914025 0.31793812 0.16199274 0.34268332
0000f0 d1 67 ad 3e a9 41 90 3e 13 66 a2 3e 75 ef 93 3e
       0.33868268 0.28175095 0.317185 0.2889363
000100 1b 27 d4 3e 26 1a b0 3e db a1 b0 3e 24 04 eb 3d
       0.41436085 0.3439495 0.34498486 0.11475399

FC.weight f4 [7, 17]
000000 08 09 27 bf 98 d6 c9 3e 6e 2b 29 3f e5 c9 62 bf
       -0.65248156 0.39421535 0.66081893 -0.88589317
000010 77 39 2a 3f aa 30 54 bd e1 40 51 3e 67 83 8c be
       0.66493934 -0.051804222 0.20434906 -0.27444002
000020 14 b4 e7 bf e6 8f 98 3d 69 15 89 3e 5d 6a 1d c0
       -1.810183 0.074493214 0.26774147 -2.459617
000030 95 57 52 be b0 64 2c bf 71 55 20 3f 7a f9 ea 3e
       -0.20541222 -0.67341137 0.62630373 0.4589346
000040 20 7f 43 be 76 ce 0f bf a9 15 1a c0 4c 67 0f 3f
       -0.19091463 -0.5617441 -2.407572 0.56016994
000050 d5 3c 33 3e 8a 46 11 c0 ce 54 14 3e 6d b0 b2 3e
       0.17503674 -2.2699304 0.14485475 0.34900227
000060 14 8e 69 be 34 c4 69 3e 81 e0 9c 3e 52 e7 6c 3c
       -0.22808105 0.22828752 0.30640033 0.014459448
000070 1c 13 0a 3f 67 eb a4 be 69 ab 03 bf 43 e1 1c 3f
       0.5393541 -0.32210848 -0.51433426 0.6128122
000080 43 2a 67 3f 2f 46 8a be f0 3a 2d bf 74 8a d8 3e
       0.9029886 -0.2700667 -0.67668056 0.4229313
000090 69 a0 19 c0 18 1c e3 3e aa 7b e8 3e 4e 36 24 bf
       -2.4004157 0.4435737 0.45406848 -0.6414536
0000a0 fc 35 00 3f bd db 0a bf a6 24 d1 3e 56 f7 f2 bf
       0.50082374 -0.54241544 0.40848273 -1.8981731
0000b0 52 41 8e bd 42 2d 95 3e 3b 51 ef be 15 f0 cf be
       -0.069460526 0.2913609 -0.4674166 -0.40612856
0000c0 25 50 f0 3e 39 6e e4 3e e8 6c ef be a7 f2 fb be
       0.46936145 0.44615343 -0.46762776 -0.49208567
0000d0 d6 12 a9 3e 64 bd c5 3e ce 9c de 3e b6 ad d2 3e
       0.33022183 0.38621056 0.43479007 0.41148156
0000e0 1a 14 a0 be 20 e2 9f 3e 7c 59 07 bf f4 d2 d3 3e
       -0.31265336 0.31227207 -0.5287092 0.41371882
0000f0 d6 e0 28 3f 43 3c 73 bf fc c7 79 3e 96 67 0e 40
       0.6596807 -0.9501383 0.24392694 2.2250724
000100 14 72 95 be fc 91 11 c0 93 1d 93 3e a4 b1 f1 be
       -0.29188597 -2.2745352 0.287335 -0.47205842
000110 ee 7f c3 be 73 9f 8a 3e 30 be ba 3e 71 2b 97 3e
       -0.3818354 0.27074775 0.36473227 0.2952533
000120 9f 31 02 3f c4 ee b0 3c 3f c6 b9 3e 7b 48 27 bf
       0.50856966 0.021598227 0.36284062 -0.6534497
000130 0d 92 22 3f 4c f7 ef 3e 96 a5 f6 3e 48 97 5a 3e
       0.63504106 0.4686836 0.48173207 0.21346772
000140 22 8d c7 be 4a 4d 18 40 e6 47 96 3e 7d fa 7d 3e
       -0.38974863 2.3797174 0.2935173 0.24802585
000150 54 21 1d 40 a5 9a 07 bf 93 82 d8 3e ec 36 1c 3f
       2.4551592 -0.52970344 0.4228712 0.61021304
000160 a1 9f c7 bb 6e e3 d0 3e 62 6d 19 ba cd bd d9 3e
       -0.0060920273 0.40798515 -0.0005852786 0.4252762
000170 4d c4 27 40 a8 ba 45 3f 11 fe da 3e 00 fd a7 be
       2.6213562 0.7723794 0.42771962 -0.3281021
000180 b8 7e 48 3d fd dd 0d bf 69 c6 ae be bf cf d5 3e
       0.048948973 -0.5541685 -0.3413575 0.4176006
000190 a7 c4 07 c0 41 c3 14 bf 20 1c 23 40 c3 75 b4 3e
       -2.1213777 -0.58110434 2.5485916 0.35246095
0001a0 33 bc f8 3e 9e 22 0f 3f 3e d6 06 3f a2 4a bc 3d
       0.48581085 0.55912197 0.5267066 0.091939226
0001b0 80 47 08 c0 4c 04 14 bf a7 40 03 3f 18 b4 b4 3e
       -2.129364 -0.57819057 0.51270527 0.3529365
0001c0 32 38 89 be e9 c3 86 3e f9 70 16 bf f8 4e ab be
       -0.26800686 0.26321343 -0.5876613 -0.33458686
0001d0 d0 00 e0 3e a1 4b 8d 3e 43 60 17 bf
       0.4375062 0.27596763 -0.5913126

FC.bias f4 [7]
000000 2f 1c 48 be 71 d5 e6 3d 14 eb b6 be dd 42 ac be
       -0.19542001 0.112711795 -0.35726225 -0.33644763
000010 be e5 1a bf 3f 5f 28 bf e2 cc 18 bf
       -0.6050681 -0.65770334 -0.59687626
