data/parameters/parameters-6.pt (torch_old, 30840 bytes, 6 tensors)

rnn.weight_ih_l0 f4 [68, 89]
0.02785526 0.04548974 -0.022947568 0.032240402 0.032731898 0.12327409 0.0018874536 0.026092676
0.14957748 0.022722535 0.011665427 0.029432379 0.016758874 -0.01587933 -0.0032916116 0.0015977965
0.07133777 0.059277803 0.004492836 0.05941846 0.06519243 -5.3929e-41 0.07518109 0.052592285
0.12323959 0.16652697 0.16805753 0.14318028 0.148839 0.14808674 0.15244514 0.016902318
0.048150033 0.009891777 0.007033208 -0.0064429287 0.036634684 0.017880939 0.0070453584 -0.0007192076
0.015335628 -0.0021014297 0.0076417066 -0.000685024 0.019272188 0.001094405 -0.0005792119 -0.0037913583
-0.0012876736 0.0024448517 0.00037602277 -0.001103844 0.00013703108 5.374762e-05 -4.574e-41 8.420107e-05
1.206e-41 -1.8365e-41 0.00019953462 0.000112671645 -0.0031607244 0.036575887 0.040513165 0.030555217
0.037908137 0.034255937 0.03363881 0.049947698 0.0074026613 0.04382646 0.0030003176 0.0010970052
0.0033408904 0.0028446415 -0.0026824719 -0.00017761806 0.0032430417 0.0022928922 0.00072199747 0.0021780543
6.998605e-05 -0.0004872684 0.033390243 0.053098448 0.035477005 0.040688828 0.03749616 0.03166494
0.05006568 0.012533672 0.029657263 0.03290314 0.04069224 -0.0030576198 0.145231 -0.0010339562
-0.05118348 0.114918955 0.042858347 0.044725 0.09094746 0.078345746 -0.062426556 0.0004285346
0.036319535 0.06082793 0.00038103512 -0.0072498587 0.037321758 0.06563613 -3.87e-43 0.052148238
0.05504697 0.15396322 0.11596975 0.23985296 0.20457946 0.18963957 0.16792457 0.10798344
0.00014727212 0.06553801 0.01236814 -0.0055611148 -0.014384647 0.05327134 0.045797788 0.08457606
0.007967591 0.019674677 0.01305026 0.00091039593 0.009593452 0.013268733 -0.00656841 -0.0016365575
0.0038713089 0.0037929637 0.001687216 -0.00043988513 -0.0015188833 0.0017658968 0.00013703176 -3.3687e-41
-0.0003941074 2.2962e-41 -1.10551e-40 -0.00024158439 -0.00013565333 0.004585491 0.023196552 0.032512866
0.05657185 0.034262426 0.015315592 0.040007096 0.06412376 0.0059205163 0.017361742 0.014788599
0.0034675286 -0.0019758625 0.044604477 0.008733887 -0.00018507955 0.006493381 0.004163049 0.0035156726
0.0019348653 0.008101973 0.0036205507 0.031192148 0.03743301 0.056094088 0.037142333 0.01404227
0.05018648 0.07742704 0.09087129 -0.14565806 0.025574198 0.10925005 0.054691784 0.09931413
-0.002326564 0.034779426 0.11161577 -0.048810486 0.015444359 0.047541138 0.062589645 0.0043036775
-0.063996874 -0.030210953 0.11707534 0.075861834 -0.03659186 0.08081179 0.055680003 -1.1973e-41
0.019740732 0.080928154 0.03853633 0.08457267 0.06772103 0.11935723 0.08295128 0.059897553
0.14579347 0.044476125 0.0068822466 -0.013810834 0.047579516 0.026345387 0.06212346 0.036951784
0.03221287 -0.010056244 -0.033886123 -0.0005301878 0.021754086 -0.0011248634 0.00027301372 -0.012263861
-0.0017005943 -0.0004241232 0.0022824355 0.0022538255 -0.0031562292 -0.002128924 -0.0003938424 -0.00012313444
4.725e-42 -2.9046869e-05 -8.736e-41 -2.9148e-41 -9.362964e-05 0.00030233216 -0.004357979 0.05605007
0.03795005 -0.02863095 0.035125364 0.050114464 0.06412874 0.035990026 0.01715044 0.033481944
0.016283521 -0.0077767074 0.020947829 0.029860491 0.009218085 0.0008081458 0.006878837 0.005041558
00000000: b730 e43c 7353 3a3d 8afc bbbc 830e 043d
00000010: e211 063d 2077 fc3d 6f64 f73a 4fc0 d53c
00000020: d72a 193e 9c24 ba3c 5920 3f3c 2c1c f13c
00000030: e849 893c 5e15 82bc 14b8 57bb 276d d13a
00000040: 8919 923d 48cd 723d a438 933b c560 733d
00000050: 9c83 853d 5596 0080 8bf8 993d 026b 573d
00000060: 0a65 fc3d 0c86 2a3e 4617 2c3e da9d 123e
00000070: 4069 183e 0da4 173e 941a 1c3e bb76 8a3c
00000080: f838 453d 1f11 223c d376 e63b 341f d3bb
00000090: 400e 163d 0c7b 923c c0dc e63b 3489 3cba
000000a0: 4942 7b3c 24b8 09bb 4867 fa3b 2f93 33ba
000000b0: b5e0 9d3c 2372 8f3a 41d6 17ba 7078 78bb
000000c0: 28c7 a8ba ce39 203b ec24 c539 dcae 90ba
000000d0: 00b0 0f39 116f 6138 817f 0080 1b95 b038
000000e0: 9e21 0000 3233 0080 2b3a 5139 214a ec38
000000f0: 2824 4fbb 99d0 153d 22f1 253d ef4e fa3c
00000100: 9045 1b3d f44f 0c3d d9c8 093d f595 4c3d
00000110: 0692 f23b 6083 333d faa0 443b 63c9 8f3a
00000120: d7f2 5a3b 2a6d 3a3b 69cc 2fbb fc3e 3ab9
00000130: 3689 543b 5944 163b 6e44 3d3a b0bd 0e3b
00000140: 79c5 9238 0f78 ffb9 35c4 083d c27d 593d
00000150: 5650 113d 54a9 263d 9395 193d 19b3 013d
00000160: ac11 4d3d 085a 4d3c caf3 f23c 71c5 063d
00000170: e8ac 263d 5962 48bb 6fb7 143e d085 87ba
00000180: c5a5 51bd a15a eb3d 3c8c 2f3d 9031 373d
00000190: a942 ba3d bc73 a03d fdb2 7fbd f1ac e039
000001a0: cbc3 143d b526 793d abc5 c739 3990 edbb
000001b0: b3de 183d 3c6c 863d 1401 0080 6499 553d
000001c0: ee78 613d 89a8 1d3e 8c81 ed3d 049c 753e
000001d0: 477d 513e e030 423e 6bf4 2b3e 6c26 dd3d
000001e0: 0f6d 1a39 cb38 863d bda3 4a3c 033a b6bb
000001f0: 95ad 6bbc 0c33 5a3d 7696 3b3d 3736 ad3d
00000200: 808a 023c ca2c a13c c2d0 553c a3a7 6e3a
00000210: db2d 1d3c 1a65 593c d13b d7bb c281 d6ba
00000220: c9b5 7d3b 5f93 783b 9325 dd3a 62a0 e6b9
00000230: 4415 c7ba aa75 e73a 2fb0 0f39 e85d 0080
00000240: 33a0 ceb9 0240 0000 2c34 0180 d151 7db9
00000250: 2a3e 0eb9 e341 963b b206 be3c 362c 053d
00000260: e2b7 673d c256 0c3d 40ee 7a3c 7bde 233d
00000270: 5153 833d e400 c23b 363a 8e3c e14b 723c
00000280: 7a3f 633b 797d 01bb 2fb3 363d 9418 0f3c
00000290: ea11 42b9 6ec6 d43b 306a 883b 3367 663b
000002a0: 4e9b fd3a 23be 043c c346 6d3b ad86 ff3c
000002b0: 5b53 193d eac2 653d 8f22 183d 8d11 663c
000002c0: 5790 4d3d 1192 9e3d ba1a ba3d 6327 15be
000002d0: fb80 d13c 7dbe df3d 7e04 603d 3565 cb3d
000002e0: 4479 18bb df74 0e3d cf96 e43d 81ed 47bd
000002f0: 560a 7d3c 7fba 423d 002f 803d dd05 8d3b
00000300: cb10 83bd f67c f7bc 32c5 ef3d 735d 9b3d
00000310: 59e1 15bd a780 a53d b710 643d 6021 0080
00000320: 51b7 a13c a9bd a53d 45d8 1d3d 7034 ad3d
00000330: 53b1 8a3d 9071 f43d 5ce2 a93d 2357 753d
00000340: e24a 153e 992c 363d 7884 e13b d646 62bc
00000350: bde2 423d 48d2 d73c 2b75 7e3d c15a 173d
00000360: a4f1 033d f2c2 24bc 2dcc 0abd 4dfc 0aba
00000370: a035 b23c 2770 93ba 4823 8f39 5cee 48bc
00000380: 7ae6 deba da5c deb9 ea94 153b ebb4 133b
00000390: bdd8 4ebb 6b85 0bbb a27c ceb9 a61d 01b9
000003a0: 2c0d 0000 ada9 f3b7 86f3 0080 4151 0080
000003b0: 085b c4b8 5682 9e39 61cd 8ebb c294 653d
000003c0: 8371 1b3d 748b eabc 9ddf 0f3d d344 4d3d
000003d0: ee55 833d 476a 133d 147f 8c3c 5d24 093d
000003e0: 0565 853c c0d3 febb c89a ab3c fd9d f43c
000003f0: 7307 173c bfd9 533a de67 e13b a733 a53b

rnn.weight_hh_l0 f4 [68, 17]
-0.08217753 0.018204525 -0.059566103 -0.03898427 -0.012888493 -0.09618686 0.09662118 -0.0726641
-0.04519702 0.06999915 -0.027949044 -0.012334235 0.03355618 -0.030084386 0.014199129 -0.0012033378
0.027462225 -0.12588751 0.087670274 -0.03301595 -0.027316142 -0.007103876 -0.057398494 0.13438433
-0.077951476 -0.026957227 0.054721612 -0.04384349 -0.0077504097 0.065949224 -0.02756398 -0.0232307
0.007898974 0.0095445905 -0.07170452 0.033548832 -0.095319 -0.13365571 -0.0218266 -0.061401267
0.08610406 -0.08550765 -0.07275663 0.022070501 -0.02059763 -0.0024763783 0.026817782 -0.03356051
-0.0014120119 0.009316992 -0.044920724 -0.10987009 -0.0009958594 -0.021359725 -0.12245486 -0.008155071
-0.092380166 0.04417539 -0.11055261 -0.087814465 0.1353392 -0.04512433 0.027645309 0.050365537
0.011384782 0.026776226 -0.010433028 0.0034629228 -0.10774247 -0.03439662 -0.050867755 0.00039483327
-0.11009734 0.0014712679 0.041520577 -0.0659016 -0.040451147 0.016365083 -0.029517561 -0.039870128
0.025403695 -0.04414125 0.043407284 0.030477311 0.019710718 -0.03756077 0.03905658 -0.03242262
-0.01478776 0.018059235 -0.15241756 0.11792439 -0.06329831 -0.031058503 0.09331662 -0.045836303
-0.045248017 0.0376765 0.0044945204 -0.016301606 0.041437455 0.026397726 -0.081063725 0.03019623
-0.02825317 -0.025615009 0.009739068 -0.06533262 0.060121004 -0.06295355 -0.05148391 0.07383396
-0.03758592 0.018956231 0.02462393 -0.021873796 -0.000931377 0.014351161 2.6240092e-05 -0.080478795
0.034490984 -0.03234297 -0.03898842 -0.0028004784 -0.09093956 0.11812695 -0.07425648 -0.032697245
0.08221768 -0.033802968 0.008548655 0.053983293 -0.017153176 -0.020139217 0.05308109 -0.0012381879
-0.04546058 0.042081393 -0.015243926 -0.013726971 0.0060252193 -0.08224966 0.105400406 -0.05763168
-0.060741205 0.055888362 -0.067395255 -0.0076221046 0.020725522 -0.042688042 -0.0036567342 0.020667417
-0.027340943 -0.08435701 0.02117768 -0.0299062 -0.06781928 -0.018845629 -0.09463689 0.12941498
-0.11842626 -0.054378852 0.06967086 -0.06332097 -0.0036580532 0.032748222 -0.032289766 0.00312181
0.0194077 0.020226717 -0.068134174 0.029971072 -0.05714986 -0.046471685 -0.021157514 -0.11129787
0.088654906 -0.06111162 -0.037249923 0.03540995 -0.016143689 -0.046258174 0.04256992 -0.022873765
-0.0017498299 0.03936906 -0.0019592692 -0.061307568 0.035687655 -0.03705399 -0.104591735 -0.011545017
-0.10481637 0.12108521 -0.103037246 -0.076388635 0.06259662 -0.08084321 0.00013012912 0.031639542
-0.10574837 0.007063291 -0.01913253 -0.046927825 -0.101376384 0.07331338 -0.022403019 -0.029142013
-0.012167078 -0.09777227 0.095410176 -0.0616262 -0.021860622 0.039322343 -0.040943608 -0.0357333
0.018314773 -0.01037308 0.009562739 0.021342691 -0.0073364936 -0.022010565 0.004428501 0.014082708
-0.008627309 -0.016650762 -0.1459074 0.11642302 -0.095189184 -0.075899266 0.08263762 -0.07737744
0.032175038 0.05123717 -0.064881414 -0.007415797 -0.0051193936 -0.010676041 -0.10905564 0.061767902
-0.03676639 -0.039217908 -0.017410249 -0.086976446 0.12272523 -0.08577441 -0.028771648 0.068194166
-0.030728413 -0.015432734 0.049983125 -0.008244944 -0.020270834 0.03337005 0.013664922 -0.03782161
00000000: b14c a8bd a821 953c 96fb 73bd f8ad 1fbd
00000010: 422a 53bc 9efd c4bd 53e1 c53d ead0 94bd
00000020: 8320 39bd b75b 8f3d 65f5 e4bc 8815 4abc
00000030: 3472 093d 8873 f6bc 77a3 683c 51b9 9dba
00000040: 76f8 e03c a8e8 00be 798c b33d bc3b 07bd
00000050: 1ac6 dfbc a2c7 e8bb af1a 6bbd 0c9c 093e
00000060: 06a5 9fbd 67d5 dcbc c523 603d 3b95 33bd
00000070: 26f7 fdbb 6310 873d dbcd e1bc 4f4e bebc
00000080: b36a 013c ea60 1c3c d2d9 92bd 806a 093d
00000090: 9c36 c3bd 0bdd 08be b3cd b2bc e57f 7bbd
000000a0: 5357 b03d a31e afbd 6e01 95bd 32cd b43c
000000b0: 5cbc a8bc bc4a 22bb f7b0 db3c bf76 09bd
000000c0: 4213 b9ba 4ca6 183c cbfe 37bd 9203 e1bd
000000d0: 7f87 82ba 97fa aebc 9dc9 fabd d99c 05bc
000000e0: d031 bdbd 41f1 343d 6869 e2bd 12d8 b3bd
000000f0: 5c96 0a3e 4ad4 38bd 6a78 e23c 184c 4e3d
00000100: 3d87 3a3c d159 db3c 4bef 2abc 34f2 623b
00000110: 16a8 dcbd 78e3 0cbd b55a 50bd a001 cf39
00000120: b77a e1bd 8fd7 c03a 7b11 2a3d 6bf7 86bd
00000130: 1ab0 25bd 1110 863c d0ce f1bc dc4e 23bd
00000140: 691b d03c 75cd 34bd d6cb 313d 8eab f93c
00000150: 5f78 a13c 52d9 19bd cbf9 1f3d 95cd 04bd
00000160: 5c48 72bc f6f0 933c 5913 1cbe 5882 f13d
00000170: 8ba2 81bd 676e febc c91c bf3d d9be 3bbd
00000180: fc55 39bd ac52 1a3d c546 933b f28a 85bc
00000190: 52ba 293d 0b40 d83c bd04 a6bd 165e f73c
000001a0: 3173 e7bc 91d6 d1bc 9d90 1f3c 1ccd 85bd
000001b0: 7141 763d caed 80bd cbe0 52bd 4236 973d
000001c0: b2f3 19bd 194a 9b3c 20b8 c93c ad30 b3bc
000001d0: a727 74ba 2221 6b3c 2b1e dc37 11d2 a4bd
000001e0: 6b46 0d3d 107a 04bd 52b2 1fbd 3b88 37bb
000001f0: 853e babd 8bec f13d c813 98bd 8ced 05bd
00000200: be61 a83d fb74 0abd a80f 0c3c 961d 5d3d
00000210: d184 8cbc 00fb a4bc 8f6b 593d b14a a2ba
00000220: e034 3abd 8a5d 2c3d a9c1 79bc 17e7 60bc
00000230: 346f c53b 8272 a8bd 2bdc d73d 320f 6cbd
00000240: c5cb 78bd 32eb 643d 8606 8abd d9c2 f9bb
00000250: 92c8 a93c a8d9 2ebd d2a5 6fbb b74e a93c
00000260: 1dfa dfbc 5ec3 acbd d07c ad3c d9fd f4bc
00000270: d6e4 8abd 2662 9abc fcd0 c1bd 5c85 043e
00000280: 7889 f2bd 5cbc 5ebd 99af 8e3d 6dae 81bd
00000290: f3bb 6fbb 0023 063d 4642 04bd 4897 4c3b
000002a0: e6fc 9e3c 80b2 a53c ee89 8bbd e585 f53c
000002b0: f915 6abd 1859 3ebd 8652 adbc 23f0 e3bd
000002c0: b490 b53d 2e50 7abd 6093 18bd 060a 113d
000002d0: c53f 84bc 3679 3dbd cc5d 2e3d c361 bbbc
000002e0: 8c5a e5ba 7441 213d 1567 00bb a51d 7bbd
000002f0: 382d 123d edc5 17bd 3134 d6bd 5027 3dbc
00000300: f7a9 d6bd 86fb f73d 3105 d3bd a571 9cbd
00000310: a832 803d 2091 a5bd 4573 0839 7798 013d
00000320: 9a92 d8bd 2e73 e73b d3bb 9cbc 6437 40bd
00000330: 6c9e cfbd 5325 963d 8986 b7bc 3bbb eebc
00000340: 6d58 47bc d43c c8bd 6966 c33d c16b 7cbd
00000350: 0c15 b3bc 7710 213d 7cb4 27bd 155d 12bd
00000360: dd08 963c daf3 29bc 09ad 1c3c ded6 ae3c
00000370: f866 f0bb 804f b4bc f51c 913b 29bb 663c
00000380: 8f59 0dbc 2e67 88bc c068 15be 316f ee3d
00000390: 8cf2 c2bd 1371 9bbd ea3d a93d 1078 9ebd
000003a0: f9c9 033d 11de 513d 8ce0 84bd 3700 f3bb
000003b0: 96c0 a7bb 90ea 2ebc 9058 dfbd 5700 7d3d
000003c0: 5b98 16bd f5a2 20bd f09f 8ebc b520 b2bd
000003d0: 5e57 fb3d 7eaa afbd 85b2 ebbc 62a9 8b3d
000003e0: 27ba fbbc 94d9 7cbc 1bbb 4c3d cd15 07bc
000003f0: 050f a6bc 09af 083d d6e2 5f3c d5ea 1abd

rnn.bias_ih_l0 f4 [68]
0.24162991 0.2569492 0.23439917 0.20353225 0.15364659 0.22863044 0.20145918 0.26352406
0.2379399 0.24979764 0.21195453 0.23428558 0.2474433 0.2334949 0.27174708 0.18131138
0.25823715 0.19391084 0.17410518 0.19045193 0.21327643 0.20812942 0.084864855 0.17297632
0.18934336 0.17945698 0.20548789 0.1616604 0.16617498 0.17073807 0.15214294 0.19429085
0.24438351 0.1844164 -0.046663497 0.0846243 -0.0743435 -0.10684121 -0.09270836 -0.15017086
0.08383313 -0.09618655 0.009348758 0.085353024 -0.036732554 0.019930962 0.03982137 -0.032113377
-0.093292825 0.0023868144 0.070954666 0.3133172 0.32108414 0.31391037 0.34380072 0.35022697
0.31136143 0.2852709 0.3522544 0.3119878 0.35315558 0.31829402 0.3162542 0.33200184
0.31697738 0.3371876 0.35539728 0.348059
00000000: d56d 773e d88e 833e 5606 703e c26a 503e
00000010: 8855 1d3e 191e 6a3e 514b 4e3e a0ec 863e
00000020: 84a6 733e f4ca 7f3e 9c0a 593e 8fe8 6f3e
00000030: c761 7d3e 4919 6f3e 6f22 8b3e b1a9 393e
00000040: a937 843e 9090 463e a148 323e d505 433e
00000050: 2365 5a3e e11f 553e a0cd ad3d b420 313e
00000060: 3ae3 413e 92c3 373e 6b6b 523e 4e8a 253e
00000070: c629 2a3e f6d5 2e3e 5ccb 1b3e 2ef4 463e
00000080: ac3f 7a3e a7d7 3c3e 3922 3fbd 814f ad3d
00000090: 6841 98bd 90cf dabd e1dd bdbd 64c6 19be
000000a0: b4b0 ab3d 74fd c4bd 882b 193c 91cd ae3d
000000b0: e074 16bd 4246 a33c bc1b 233d 5189 03bd
000000c0: 4f10 bfbd 1a6c 1c3b ae50 913d 1d6b a03e
000000d0: 2465 a43e dcb8 a03e a606 b03e f350 b33e
000000e0: c46a 9f3e 070f 923e b05a b43e ddbc 9f3e
000000f0: cfd0 b43e 6ff7 a23e 12ec a13e 25fc a93e
00000100: dc4a a23e daa3 ac3e a2f6 b53e ca34 b23e

rnn.bias_hh_l0 f4 [68]
0.24162069 0.25694948 0.2343992 0.20353341 0.15364622 0.2286321 0.20145197 0.26352206
0.23794015 0.24979706 0.21195427 0.234286 0.24744126 0.23349771 0.2717408 0.18131323
0.25825793 0.19390813 0.17410715 0.19045581 0.21327634 0.20813045 0.08486075 0.17297573
0.1893439 0.17945682 0.20548603 0.1616595 0.16616404 0.17073813 0.15214048 0.19429056
0.24438351 0.18441638 -0.06794969 0.09585367 -0.09067498 -0.07362869 -0.078860596 -0.15931322
0.083449475 -0.09351146 0.008871918 0.09381673 -0.021069987 0.018314192 0.050115447 0.041497763
-0.09408108 0.015412576 0.094809785 0.31331727 0.32108977 0.313916 0.3438001 0.35022086
0.31136122 0.28526735 0.3522549 0.3119878 0.35315043 0.3182941 0.31625018 0.3319645
0.31697813 0.33718774 0.35541606 0.34806174
00000000: 6a6b 773e e28e 833e 5806 703e 106b 503e
00000010: 6f55 1d3e 891e 6a3e 6d49 4e3e 5dec 863e
00000020: 95a6 733e cdca 7f3e 8a0a 593e abe8 6f3e
00000030: 3e61 7d3e 061a 6f3e 9c21 8b3e 2daa 393e
00000040: 623a 843e da8f 463e 2549 323e d906 433e
00000050: 1d65 5a3e 2620 553e 79cb ad3d 8d20 313e
00000060: 5ee3 413e 87c3 373e ee6a 523e 118a 253e
00000070: e826 2a3e fad5 2e3e b7ca 1b3e 1bf4 463e
00000080: ac3f 7a3e a6d7 3c3e 3529 8bbd ee4e c43d
00000090: ceb3 b9bd a3ca 96bd aa81 a1bd 0123 23be
000000a0: 8fe7 aa3d f082 bfbd 855b 113c fc22 c03d
000000b0: f79a acbc a507 963c db45 4d3d 8ff9 293d
000000c0: 95ad c0bd 0785 7c3c a22b c23d 1f6b a03e
000000d0: e165 a43e 99b9 a03e 9106 b03e 2650 b33e
000000e0: bd6a 9f3e 900e 923e c15a b43e ddbc 9f3e
000000f0: 22d0 b43e 72f7 a23e 8beb a13e 40f7 a93e
00000100: f54a a23e dfa3 ac3e 18f9 b53e 2635 b23e

FC.weight f4 [7, 17]
0.24414371 -0.20564409 0.3403441 0.19165057 0.23481573 -0.25877917 -0.092090815 0.12163873
-0.3941103 -1.1100856 -1.4500433 -0.6802433 -1.0670964 -0.03501061 0.30777293 -0.4316969
-0.070498064 -1.2971746 -0.2078144 -0.9049007 -0.04466797 0.19203617 0.60115325 -0.5493262
-0.04162684 0.23871793 -0.027723955 0.3275055 0.47688037 -0.41253248 0.33786258 -0.13400446
-0.2405859 1.5276188 0.32515126 -0.49410695 -0.39860323 -1.2725838 -0.082209766 0.18360326
-0.03945952 0.33230677 0.48251486 0.11437911 0.2883506 -1.004011 0.67837286 0.54751354
0.56282693 -0.39008856 -0.30790234 0.4526428 -0.48939306 0.2508855 0.2388161 -1.3146907
0.13266152 0.6652642 -0.38924775 0.37870175 -0.26537573 0.46335632 0.32392573 -0.099269934
0.1308333 -0.98442674 -0.5579037 -0.08978522 0.3485361 -0.34834656 0.41047955 0.35267806
0.5844933 -1.0406914 -0.49868748 1.1419204 0.32070777 0.04643748 0.268259 0.4859562
0.44184905 0.31279653 -0.63238865 1.0257802 -0.054731477 0.17980671 1.6421034 0.41170305
0.4475012 0.33443984 0.5722077 0.02198095 0.0023989792 0.4948558 -0.50649035 0.40480125
0.1409578 0.5815922 -1.0157063 0.55827534 -0.2864813 -0.37483904 0.47639853 -0.41360596
0.3249818 0.15204865 0.34938687 0.18207747 -0.7203768 -0.7764213 -0.9171181 0.84574467
0.4019212 0.71613175 -0.19462179 0.15943411 0.39077964 -0.34477675 -0.4947187
00000000: cf00 7a3e 5d94 52be 9541 ae3e 0c40 443e
00000010: 8973 703e b47e 84be 1c9a bcbd ba1d f93d
00000020: d3c8 c9be 4917 8ebf 059b b9bf 6d24 2ebf
00000030: 9d96 88bf 4967 0fbd 6a94 9d3e 6007 ddbe
00000040: 4a61 90bd d109 a6bf 4ccd 54be 93a7 67bf
00000050: c3f5 36bd 21a5 443e 2ee5 193f a4a0 0cbf
00000060: e880 2abd 7972 743e 591d e3bc cdae a73e
00000070: aa29 f43e 7537 d3be 53fc ac3e 7738 09be
00000080: 265c 76be 0389 c33f 3a7a a63e 96fb fcbe
00000090: b915 ccbe 07e4 a2bf 985d a8bd 7e02 3c3e
000000a0: 4ea0 21bd 1d24 aa3e 300c f73e 983f ea3d
000000b0: b1a2 933e 6f83 80bf d8a9 2d3f d929 0c3f
000000c0: 6d15 103f b0b9 c7be 60a5 9dbe ccc0 e73e
000000d0: ba91 fabe 1074 803e 358c 743e c947 a8bf
000000e0: 6cd8 073e c14e 2a3f 7b4b c7be 32e5 c13e
000000f0: 54df 87be 0a3d ed3e 98d9 a53e 094e cbbd
00000100: 2af9 053e 6403 7cbf c7d2 0ebf 50e1 b7bd
00000110: 5373 b23e 7b5a b2be 602a d23e 3892 b43e
00000120: 5aa1 153f 6035 85bf f753 ffbe 732a 923f
00000130: cf33 a43e 3a35 3e3d 3e59 893e 40cf f83e
00000140: 0a3a e23e de26 a03e 39e4 21bf c44c 833f
00000150: 1d2e 60bd 401f 383e 7230 d23f beca d23e
00000160: e11e e53e b33b ab3e 347c 123f 6511 b43c
00000170: 3138 1d3b bd5d fd3e 5aa9 01bf 1c42 cf3e
00000180: 3e57 103e 3ae3 143f aa02 82bf 22eb 0e3f
00000190: adad 92be e7ea bfbe 82ea f33e 29c4 d3be
000001a0: 0464 a63e a4b2 1b3e d6e2 b23e 8472 3a3e
000001b0: 9d6a 38bf 8cc3 46bf 40c8 6abf b982 583f
000001c0: 9ec8 cd3e 6954 373f ef4a 47be b242 233e
000001d0: 4514 c83e 9486 b0be c54b fdbe

FC.bias f4 [7]
-0.38110924 -0.1716261 -0.4495092 -0.32954183 -0.37966084 -0.39685756 -0.29431465
00000000: c020 c3be c1be 2fbe 1226 e6be b5b9 a8be
00000010: e862 c2be ea30 cbbe 69b0 96be
