data/parameters/parameters-28.pt (torch_old, 30847 bytes, 6 tensors)

rnn.weight_ih_l0 f4 [68, 89]
00000000: 276c cc3c 72aa 183d 26b2 733c b99d 2c3d
00000010: acc8 f2bc ed4a 343e dc2f 33bd 782e 6aba
00000020: 4f88 ab3d cad8 373d 978a 25bd dc62 a23b
00000030: 529d 4b3c 9e74 f83d c388 963c 303e fd3c
00000040: ce94 cabd 5b6d 873d 84f4 813b 83aa ce3b
00000050: abf8 b63b b638 a93b 0a2e 3bbd 1c21 173d
00000060: dd02 2e3e 6771 d03d ee0d e03d 60c3 133e
00000070: 0827 4f3e d1c2 2e3e 06d3 743d 3561 8b3d
00000080: 185e 41bd 7c01 c3bb 35bb 193d 4107 0a3b
00000090: 52b7 573d e2ee a5bc a3f4 003d 8590 1c3d
000000a0: 6f0e 833c ece3 5a3c f1a6 913c 0d63 903d
000000b0: f0d0 053d cbd8 05bc 231a 8f3c ff97 96bb
000000c0: 9bba 8e3d 35c1 653c 8538 f33c cf09 d9bb
000000d0: ff6c 8c3c 1f33 783c d73e 94bb 39f3 a73b
000000e0: d70c 693a 2da5 7b3b de76 693c 42e8 04bc
000000f0: 4d41 813a 7e80 143c 3173 163d a894 2c3d
00000100: ba7c 413d e903 b53c 84a4 293d 3a08 453d
00000110: 7cd0 603d a8aa 2e3d 8d63 163d 5f98 93bc
00000120: b92b 91bc 76e8 c03d 5498 25bc 708e a43c
00000130: 2fe9 163d a77a c73c b5cd 4a3c 64ad b03c
00000140: 3708 403d 9e6c 0c3c 1cde b03d 85ba 493d
00000150: f7ce 413d aa46 833d 7d7e 763d f301 273d
00000160: f2b6 403d 122f 8b3d 7518 b83c 88ee e83d
00000170: ad54 3d3d 6646 fa3c 1501 8f3c d6fc 9aba
00000180: 8d14 1d3d 03ef 823d f2e4 eebb 8248 973d
00000190: 6b13 073c bfba 1d3d 1225 a33d 5a39 1e3d
000001a0: 32f1 59bc e702 d93d 5c21 83bd 1f69 a73c
000001b0: e1c7 ff3c c32c 913c 5e0e 03bc 2141 bcbc
000001c0: 945e 453d 51f6 7f3e 994b b03e b97f 3a3e
000001d0: 37d1 943e e7fc 693d b06e 8e3e ab18 a33e
000001e0: a324 3a3d 3b18 453d 7ddc 203d 989d aa3c
000001f0: 2741 503d 40e2 ad3d f071 ba3c c991 ad3d
00000200: 70cc 9d3c 3f2a 7f3d f994 f03c 52a9 513d
00000210: 5d47 463d a613 083d 6812 b8bc ae3f 973c
00000220: 13f5 8d3c de8c e33c 2c3c 80bc 528e 74bb
00000230: 8696 853b e8f4 223c 8d2c b23c 53bc 443c
00000240: fca9 38bb 14b6 143c d8d8 793c db01 d93c
00000250: 6bcf 2b3c 162a 6fbd c1bf 5a3c d10e 5f3d
00000260: 161c 2e3d 4b67 6a3d ec9d b13c 177b 3b3d
00000270: 3b38 3d3d 600f 773d 44d8 423d 7995 1c3d
00000280: d9a2 033d 7a3a a83d df49 ea3c fe5a 753c
00000290: e7ee 1e3d 746e f43c 7701 a33c 1061 ee3c
000002a0: 7a73 873d 367b e53c 18bc b73c 8b14 8c3d
000002b0: 72bb 9e3d 0e1e c13d fcae f73d 1f32 8b3c
000002c0: 780d 9c3d 1b7b 9a3d 1f69 0f3e 933f 1f3d
000002d0: 7869 40bd 5f86 91bc 4f78 b13c f47b 433d
000002e0: 5cff ee3c 0217 a73d 6467 65bc 3355 5d3e
000002f0: b7d9 49bd 1b8e 66bd 5c22 1d3d a773 63bb
00000300: a6a3 78bb c2b3 133d fd84 f43d 68d3 be3d
00000310: 37af e03d 4681 c53d 3894 093d ca58 273d
00000320: 1442 b13d 9f83 ee3d 7d1b b23e 08b8 693e
00000330: 0f82 183e 491b 883e 6ce5 473e 5ff1 773e
00000340: b1ef 8d3e e601 a8ba ce0e 87bd bbd8 9bbd
00000350: 9b84 1dbc 9d85 603d 2f27 163e fce5 193e
00000360: b0ee 123e aae0 aabb 71c3 16bc 81a0 083e
00000370: c474 2f3d c45d 2f3d 9557 4abc 9d51 ec3c
00000380: e98d 803d 30a0 e83c 9591 71bd ad13 323d
00000390: 82bf d93c 388e 2ebc 76d2 c33c 11de 383c
000003a0: 5e46 593c 6196 80bb 8deb 983b 2fd6 a1bb
000003b0: 91ac 6b3c fbf0 703c a531 f6bd 968a 0f3c
000003c0: 06a8 fb3c 1c6b 3e3d ce2c 603c a275 25bc
000003d0: 543d 8d3c fff5 283d 0bb2 443d d9d8 5c3d
000003e0: 7c89 9d3d 9ea3 2dbc 97e6 493d 0017 9d3c
000003f0: 4419 123d b5b6 1fbc eff1 3f3b 8a3e 803d
0.024953915 0.037271924 0.014874017 0.042142604 -0.029636703 0.17606707 -0.043746814 -0.0008933316
0.08375608 0.04488448 -0.040415373 0.0049556326 0.012427645 0.12131618 0.01837576 0.030913442
-0.098916635 0.06612655 0.003965916 0.0063069477 0.0055838428 0.005164231 -0.045698203 0.03689681
0.1699328 0.1017788 0.10940157 0.14429998 0.20229733 0.17066504 0.05977156 0.0680565
-0.047208875 -0.0059511047 0.03753205 0.0021061453 0.052665062 -0.02025551 0.031483304 0.038223762
0.015998093 0.013360005 0.0177798 0.070501424 0.03266996 -0.008169363 0.017468518 -0.004595756
0.06969186 0.014023115 0.029690037 -0.0066234837 0.017141817 0.015148907 -0.0045240927 0.00512543
0.0008890158 0.0038398013 0.014249532 -0.008112015 0.000986138 0.009063838 0.03673095 0.042133957
0.04723809 0.022096591 0.04141666 0.04810355 0.054886326 0.04264322 0.036716033 -0.018016992
-0.017721044 0.094193384 -0.010107119 0.02008745 0.036843475 0.024350477 0.012378146 0.021567054
0.046882834 0.008570818 0.08636114 0.049250145 0.047316518 0.064099625 0.060179222 0.040773343
0.04704947 0.06796087 0.0224726 0.11373621 0.04622333 0.030551147 0.01745657 -0.0011824619
0.038349677 0.06393244 -0.007290476 0.07386877 0.008244376 0.038508173 0.07966055 0.038628913
-0.013302134 0.10596257 -0.06402847 0.020435868 0.03122324 0.01772154 -0.007999031 -0.022980275
0.0481859 0.24996306 0.34432676 0.18212785 0.29065868 0.057125952 0.27818823 0.31854758
0.045445096 0.04811881 0.039272774 0.0208271 0.050843384 0.084904194 0.022759408 0.08475072
0.019262522 0.06229615 0.02936791 0.051186867 0.0484079 0.033221863 -0.022469714 0.018462982
0.017328775 0.027777132 -0.015653692 -0.0037316275 0.0040767817 0.0099460855 0.02174976 0.012007791
-0.002817749 0.009076614 0.0152494535 0.026490143 0.010486464 -0.058389746 0.013351382 0.05445749
0.042507254 0.057227414 0.021681748 0.045771684 0.046196204 0.060317397 0.04756953 0.038228486
0.032137726 0.082142785 0.028599678 0.0149753075 0.038802054 0.029837824 0.01989816 0.029099017
0.06613822 0.028012853 0.022428557 0.06839856 0.07750596 0.094295606 0.120939225 0.016991673
0.076197565 0.07543012 0.14004944 0.03887899 -0.046975583 -0.017764268 0.021663813 0.047725633
0.0291745 0.08158685 -0.014001701 0.21614532 -0.049279895 -0.056287866 0.038362846 -0.0034706385
-0.003793934 0.036060102 0.11939428 0.09317666 0.109709196 0.096437976 0.033588618 0.04085616
0.086551815 0.116461985 0.34786597 0.22824109 0.14893363 0.26583317 0.19521111 0.2421317
0.27721933 -0.0012817949 -0.06594621 -0.076096974 -0.009614135 0.054814924 0.14663385 0.15029138
0.14348865 -0.0052147703 -0.00920187 0.13342477 0.042835966 0.04281403 -0.012349983 0.02884751
0.06277067 0.028396696 -0.05897673 0.043475796 0.026580576 -0.010654025 0.023904067 0.0112834135
0.013261406 -0.0039241766 0.0046667517 -0.0049388628 0.014384405 0.014705892 -0.12021188 0.008761069
0.030719768 0.046488866 0.013682557 -0.010098847 0.017241158 0.041250225 0.048021358 0.05391774
0.07692239 -0.010598091 0.049292173 0.019176006 0.035668626 -0.009748151 0.002928849 0.062619284

rnn.weight_hh_l0 f4 [68, 17]
00000000: eb32 b5bd 8dda d23d 006b 953d 02f9 bdbd
00000010: 1bb3 ed3c 55e2 b1bd c13b 58bc 1621 83bd
00000020: ef8e 0c3d ef21 773d d4ed 523d 9145 463d
00000030: 9abc cbbd 7724 a23b 6e70 903d bc5e c2bc
00000040: 5b18 13bc 2016 bdbd 8b9c a63d fcbf 613d
00000050: efdf b6bd 819b 063e 23b5 3dbd 17c5 da3b
00000060: a66d ee3c d71f 883d d023 9c3c fae0 a5bd
00000070: 69a0 183d 6030 edbd 3917 513d 1fb0 813d
00000080: ec6b 32bd a68f 0e3d 7f78 ddbc 5f75 aa3a
00000090: 21ea 043d ac03 f5bd 19d6 043e 8b9b dc3d
000000a0: 2bf5 e93d b17b 2abd a784 983c 7b91 d0bb
000000b0: ad90 213d a40e 01bc 6927 31bc fe80 0b3d
000000c0: b135 0b3e fde7 e53d 7b28 f03d aec3 e5bd
000000d0: 9be2 583c f4bc 743c 0e85 e5bd d65f 023e
000000e0: c9e8 f53c b2fe 2c3d 90bb 3c3b 6bc8 3a3d
000000f0: b5a9 62bd ce0a 04bd aaee a53c 1208 3abd
00000100: c07a c73d a0aa e73d 6f93 fc3c 799e 873d
00000110: 6b39 a9bd 48bc 61bc 0e1c ac3d 4b8d babd
00000120: 4e53 ac3d 20d6 27bc 28e9 5ebd b7c9 ad3c
00000130: 2bed 843d 2d4f 233c c219 2b3c 42dd 123d
00000140: b0ec 5dbd fe4c 7dbb 0f24 303d 907d b63c
00000150: 087d a23d 9180 ecbd 71fe 343d a410 323c
00000160: 1d9f 9abc 705a ee3d 1087 b53c 106d ec3d
00000170: 1d6b 08be 30e5 d939 4298 69bb 9429 973d
00000180: 0dea c83d 3bc7 c0bd 1528 f53d 15dd f63d
00000190: 3d0e ec3c 17d2 8e3d bc4c 13bb e401 e6bc
000001a0: f7a7 543d 5043 7ebb 7d1b 243c e4f6 983d
000001b0: df85 f7bd a049 f4bc cb30 b73d b3ef c0bc
000001c0: 794e 0c3d ae6b bf3d 7e3f dcbc 8652 393e
000001d0: 87a6 003e 02ac b43d bf20 4bbc fab6 94bd
000001e0: ed62 1ebd 8822 70bb 0a8f 243d 0bcf c73c
000001f0: 3225 c73d 675a 13bd 40ac 30bc 86b6 f8bc
00000200: 518b 3bbb 9da0 db3c 2386 253a aa71 77bc
00000210: 8e70 62bd 03e3 54bd 0082 3bbd 448a ab3d
00000220: 572d 613b 2406 953c f076 8abd ed0a 3dbc
00000230: e814 11be ca1c 1b3d b871 ec3c e07b da3b
00000240: 4e7b 013d 5d3a 6c3d 3a09 863b 00f9 f2bc
00000250: 7b30 afbc cecb 50bd 167e 7bbb 0748 253c
00000260: 553e 863a 9213 41bd 854b 0abd 59e8 003d
00000270: c2d6 03be aa17 6abb 3ded 98bd 4df7 6abd
00000280: 1dac ec3c 9cb2 863d 4e1c 2d3e 8cca a03c
00000290: ded9 21bd cfee b0bd 08a6 ddbb 898c 9c3c
000002a0: d405 12bd 1e74 bbbb 83b9 21bc 6d24 3bbd
000002b0: 7cd1 923d 7742 afbd a611 2ebc e13d 2dbe
000002c0: b5f6 dabc 2cd1 69bd 1b84 843d a1bc d23d
000002d0: f917 1a3c 1901 a43d c2a5 6fbe a73f c63d
000002e0: 07a1 9d3d 0b15 ce3c 8d9a 7e3d 675c 0abe
000002f0: 0671 7d3d 62f4 bb3d 8472 63bc 8ae3 6f3d
00000300: d1bd 4c3b 14ec 19bc 34f4 773c 3b8b e33d
00000310: f1d1 09bd 6c0c d8bc 8589 8a3d 39e2 e9bd
00000320: 7249 133d 8cd4 1e3e 8a76 1e3d 3c70 ac3d
00000330: 7520 1abe 3b8a a23d e70f 873a f0d5 8c3b
00000340: d938 c73c 1006 a4bd 08af b1bc 82ad 563d
00000350: 6907 683b b332 2dbe 3ecb a4bd 399e ee3c
00000360: f7bf bdbd 16db d9bd 2a82 a03c 7dbf b4bc
00000370: 574a 1bbe 83e4 7ebd 1989 b43c 2f41 ff3d
00000380: 6a65 20be 9cf9 c13d 8fa8 65bd 695f b83d
00000390: 66c3 c9bc 5d7a 653c 8af1 f23c 0d55 363d
000003a0: cd42 82bd 4707 b83c 891a 863d c5f2 1a3d
000003b0: 69ca 933d 1cf3 933c 202a 4a3c eef2 6bbd
000003c0: d358 3c3d 947e 35be 2ad2 463d 25ff b4bd
000003d0: 4c66 3b3d 4fde 88bd a0cf bfbd 8253 303d
000003e0: d0d6 e8bd ead8 4a3d cb4f d93d 2867 a3bc
000003f0: 5f10 0e3e d24d 45bd cb3e 12be 3e88 69bd
-0.088476025 0.102955915 0.07295799 -0.0927601 0.029016068 -0.086857475 -0.01319784 -0.06402795
0.034316 0.060335096 0.05149634 0.048406187 -0.09948082 0.0049481946 0.07052694 -0.023726813
-0.008977975 -0.09232736 0.08135327 0.05511473 -0.08929431 0.13145258 -0.046315324 0.006676327
0.029105019 0.06646698 0.019060045 -0.080995515 0.037262354 -0.115814924 0.051047537 0.063324206
-0.043559954 0.034804963 -0.027034996 0.001300495 0.032449845 -0.11963591 0.12972297 0.10771855
0.11423715 -0.041621868 0.018617941 -0.006364999 0.039444614 -0.007877026 -0.010812619 0.034058563
0.135947 0.11225889 0.11726471 -0.112189636 0.013237621 0.014937628 -0.11207019 0.12731871
0.030018227 0.042235084 0.002879832 0.04560129 -0.055337626 -0.032236867 0.020255405 -0.045417853
0.097402096 0.11311841 0.03083202 0.06622023 -0.08262905 -0.0137778 0.084037885 -0.09108981
0.084143266 -0.0102439225 -0.054421574 0.02121435 0.06490549 0.009967607 0.010443153 0.03585554
-0.0541808 -0.0038650627 0.04300314 0.02227667 0.07934004 -0.115479596 0.044187967 0.010868225
-0.0188747 0.11638343 0.02215913 0.115442395 -0.1332211 0.00041560223 -0.0035643731 0.07380977
0.09810267 -0.09413 0.11970536 0.12053887 0.028815383 0.06973665 -0.0022476157 -0.028077073
0.051917996 -0.0038797446 0.010016319 0.07468966 -0.12086081 -0.029820263 0.089448534 -0.023551797
0.034254525 0.0934671 -0.026885744 0.18097886 0.12563525 0.088218704 -0.012397944 -0.072614625
-0.03866856 -0.0036641676 0.040175475 0.024390718 0.09723891 -0.035974886 -0.010783255 -0.030360471
-0.0028616975 0.026809985 0.00063142384 -0.015102783 -0.05528312 -0.051974308 -0.045778275 0.083759815
0.00343593 0.018191405 -0.06760967 -0.011538249 -0.14168131 0.037869252 0.02886282 0.006667599
0.031611733 0.057672847 0.0040904554 -0.029659748 -0.021385422 -0.050975613 -0.0038374714 0.010087973
0.0010241965 -0.047137804 -0.033763427 0.031471584 -0.12874892 -0.0035719671 -0.074671246 -0.05736475
0.028890664 0.06577036 0.16905329 0.019627832 -0.039514415 -0.08639299 -0.0067641772 0.019109981
-0.03565009 -0.0057206294 -0.00987089 -0.045689035 0.07168862 -0.08557599 -0.010624325 -0.16918136
-0.026728967 -0.057084247 0.064705096 0.10289884 0.00940513 0.08008022 -0.23403075 0.096801095
0.07696729 0.025156518 0.06215911 -0.13511811 0.061875366 0.09177472 -0.013882283 0.058566608
0.003124107 -0.009394664 0.015133906 0.111105405 -0.03364748 -0.02637311 0.06764511 -0.11420102
0.035958715 0.15510768 0.038687266 0.084198445 -0.15051444 0.079365216 0.0010304422 0.0042979643
0.0243191 -0.08008969 -0.021689907 0.052411564 0.0035404807 -0.16913871 -0.08046578 0.02912818
-0.0926513 -0.106374905 0.019593317 -0.022063965 -0.15165077 -0.062229645 0.02203803 0.12463605
-0.15663686 0.09471437 -0.056068953 0.09002573 -0.024629306 0.014006224 0.02965619 0.044514704
-0.063603975 0.022464408 0.0654803 0.03782918 0.07216341 0.01806026 0.012339145 -0.057604723
0.045983147 -0.17724067 0.04854027 -0.088377275 0.045751855 -0.06683027 -0.09365773 0.04304839
-0.11369097 0.04952327 0.106109224 -0.01994665 0.13873433 -0.04816992 -0.14281766 -0.057014696

rnn.bias_ih_l0 f4 [68]
00000000: 52a2 673e 0bb7 973e 5132 593e be50 7e3e
00000010: 7cd7 7d3e b22a 523e a8d4 013e 8da9 eb3d
00000020: d8cb bb3c 6755 313e ef06 1d3e 01bc 1f3e
00000030: b66d 8c3d 998b 573e 83ad b33d ec11 233e
00000040: d8ea 3b3e f4d2 133e ee73 fb3d a63f 043e
00000050: b0c1 5d3e 505a 4c3e 308b 7d3e 9ac0 193e
00000060: 25b0 683e d4d7 9fbb 07cd f63d decf 823e
00000070: 6d87 2e3e fe16 993e 8b3b 2c3e 95a1 0b3e
00000080: 26f1 0d3e c275 9b3e 4e23 cabd f386 a83d
00000090: 9455 533d 3ba6 fcbd 24c3 093e 85d7 a53b
000000a0: 359a 363c fcac c4bd 1782 a23d 592b c0bc
000000b0: 0942 443d a1a9 98bc 0044 8abc e064 d73d
000000c0: fa1f 883c 4574 bc3c 7d4c 52bd dc3b 833e
000000d0: 2588 9d3e 3350 6b3e c467 343e b3a5 163e
000000e0: 3dd1 cf3e 961d bd3e 7f63 673e 6581 fe3d
000000f0: 0109 c83e 6f68 a23e e472 a53e 394e 853e
00000100: 0fbf 403e abcc a53e 8701 c83e aff7 b43e
0.22620514 0.29631838 0.212106 0.24835488 0.24789232 0.205241 0.12678778 0.115069486
0.022924349 0.17317735 0.15334676 0.15599062 0.06856863 0.21049346 0.08773329 0.15924805
0.18351305 0.14435941 0.12277971 0.12914905 0.21655917 0.19956326 0.24760127 0.15014878
0.22723444 -0.0048780236 0.120508246 0.25549215 0.17043848 0.29900354 0.16819589 0.13635857
0.13861522 0.3036328 -0.09870015 0.082288645 0.051595286 -0.123363934 0.13453346 0.0050610923
0.011145164 -0.09603307 0.07934969 -0.02345817 0.04791454 -0.018635573 -0.016878128 0.10517287
0.01661681 0.02300466 -0.051342476 0.25631607 0.30767933 0.22979812 0.17617708 0.14711647
0.40589324 0.36936635 0.22596548 0.12427024 0.3906937 0.31720302 0.32314217 0.26036242
0.18822883 0.32382712 0.39063665 0.35345218

rnn.bias_hh_l0 f4 [68]
00000000: 52a2 673e 0bb7 973e 4f32 593e de50 7e3e
00000010: 79d7 7d3e b62a 523e a7d4 013e 8fa9 eb3d
00000020: 79cc bb3c 6755 313e 2507 1d3e febb 1f3e
00000030: e767 8c3d 998b 573e 83ad b33d ec11 233e
00000040: ccea 3b3e f1d2 133e f373 fb3d 4c3f 043e
00000050: d17f 5f3e a07d 4c3e 348b 7d3e c0c0 193e
00000060: 25b0 683e 9ed7 9fbb c2c9 f63d d52d 833e
00000070: 6d87 2e3e 2d81 993e 8533 2c3e 95a1 0b3e
00000080: b60f 0e3e c375 9b3e 2b8a 173b 1709 823d
00000090: 3939 9d3d fa94 d0bd 4bd4 3e3d 0076 30bc
000000a0: 847a 24bc 5797 913d 192b ccbc dbf5 8d3c
000000b0: ea84 9fbd 3e43 d63c 5612 5dbd 3c4b d13d
000000c0: 8ae8 db3c 1134 7fbc b103 d8b9 d33b 833e
000000d0: 2588 9d3e 3350 6b3e 866a 343e 95a5 163e
000000e0: 3fd1 cf3e 981d bd3e 8163 673e 5581 fe3d
000000f0: 0109 c83e 6e68 a23e e472 a53e 2f4e 853e
00000100: 0dbf 403e bbcc a53e 8801 c83e aff7 b43e
0.22620514 0.29631838 0.21210597 0.24835536 0.24789228 0.20524105 0.12678777 0.1150695
0.022924649 0.17317735 0.15334757 0.15599057 0.06855755 0.21049346 0.08773329 0.15924805
0.18351287 0.14435937 0.12277975 0.12914771 0.21826102 0.19969797 0.24760133 0.15014935
0.22723444 -0.0048779985 0.12050201 0.25620905 0.17043848 0.29981366 0.16816528 0.13635857
0.13873181 0.30363283 0.0023123126 0.0634939 0.0767693 -0.10184665 0.046589177 -0.010770321
-0.010038976 0.07108944 -0.024922894 0.017329147 -0.07789023 0.02615511 -0.053972565 0.10219428
0.026844282 -0.015576378 -0.0004120148 0.2563158 0.30767933 0.22979812 0.1761876 0.14711602
0.4058933 0.3693664 0.22596551 0.12427012 0.3906937 0.317203 0.32314217 0.26036212
0.1882288 0.3238276 0.39063668 0.35345218

FC.weight f4 [7, 17]
00000000: 6636 cb3e 20c4 0cbf 9765 08bf 07a8 0b3f
00000010: 6f1b 1b40 930f 14c0 a2b4 053f b483 343c
00000020: 3e3d 943e b9bb 11bf cc37 e73e e820 13bf
00000030: 311b d03e c853 03bf d400 cb3e a49e f83e
00000040: ed02 ba3e 706b 283f 244b 15bf f7ee 21bf
00000050: 8137 1ec0 23ca ecbe 668a e53e 732d 013f
00000060: 3d27 4a3d 5e03 4dbe ef5f 0e40 f1bb c83e
00000070: bf0d 17bf 984f 203f 02a6 05bf d345 9b3e
00000080: 8379 b83e a1a6 cc3e 84ce 003f 76a6 c6be
00000090: e99f 1540 d8c4 293f 11ca 11bf da11 fd3e
000000a0: 92a9 ee3e fe9d 81be 2eff d6bc a826 dabe
000000b0: 4253 d73e acaf 22bf b329 b73e 86bb 05bf
000000c0: f310 c33e 29c4 14c0 f816 c43e 704f f63e
000000d0: 24aa 0bbf c1df 1fbf 07cb 1a3f 4569 0cbf
000000e0: 61d1 d13e 2812 0fc0 a61a ffbd b3e6 31be
000000f0: 3b74 ebbe 7cab bc3e bcdf d4be 3b4c bc3e
00000100: a7c4 1840 e1e0 ee3e cd39 b53e 5d8c c83e
00000110: 04d4 6a3e ef7f 2340 fd42 97be 43e2 c33e
00000120: 06a1 a7be e377 2a3f a201 083f 24c4 823f
00000130: 869e 94be abba 16bf f4ea eabf 3f13 41be
00000140: 44fb 7a3e 770a a9be 5081 db3e 8a88 023f
00000150: 2a0c d23e 5c71 a9bf dd12 12bf 7caf 8fbe
00000160: e101 2b3e d5e5 c6be 520a b63e a4e6 ef3e
00000170: 56e2 9abd 1c3c 3abe 2f41 16bf 2d56 693e
00000180: c30c 1dbe 4794 80bf c46e 43be 1ae0 313f
00000190: 658f 263f 90b4 34c0 9881 633e 91e8 f2be
000001a0: 7a98 babe 2a37 fd3e 133d cdbe f926 133f
000001b0: 6100 083f b2b2 3dbe 75de 3d3e b562 e9be
000001c0: 26c4 cb3e 9bb4 f63f e053 873c 43e3 07bf
000001d0: a9bf 21c0 8bf9 ff3e bed4 123f
0.3968994 -0.54986763 -0.53280014 0.54553264 2.4235494 -2.3134506 0.5222875 0.011017729
0.28952974 -0.5692707 0.45159757 -0.57472086 0.40645745 -0.51299715 0.3964907 0.48558533
0.36330357 0.65788937 -0.5831778 -0.63255256 -2.4721377 -0.46247968 0.44832152 0.50459975
0.049353827 -0.20020816 2.2246053 0.39205888 -0.5900535 0.6262145 -0.5220643 0.3032671
0.36030206 0.39970878 0.5031512 -0.38798875 2.3378851 0.66315985 -0.56948954 0.49427682
0.46613747 -0.2531585 -0.026244726 -0.42607617 0.42055708 -0.63549304 0.35774 -0.52239263
0.3809887 -2.3244727 0.38298774 0.4810748 -0.5455649 -0.62450796 0.60466045 -0.5484813
0.40980056 -2.2354832 -0.12456255 -0.17373161 -0.45987114 0.36849582 -0.41576946 0.3677691
2.3870027 0.46655944 0.3539566 0.3916959 0.2293244 2.5546834 -0.29543296 0.38258561
-0.3274004 0.6658918 0.5312749 1.0216107 -0.29027194 -0.5887858 -1.8352952 -0.18854998
0.24509913 -0.33015797 0.42872095 0.5098959 0.41024905 -1.323772 -0.57060033 -0.2806357
0.16699935 -0.38847223 0.3555475 0.46855652 -0.075627014 -0.18186992 -0.5869321 0.2278678
-0.153369 -1.0045251 -0.19085222 0.69482577 0.6506255 -2.8235207 0.22217405 -0.4744306
-0.36444455 0.4945615 -0.40085658 0.5748134 0.5312558 -0.18525198 0.18541892 -0.4558312
0.39798087 1.9273866 0.016519487 -0.5308115 -2.527323 0.49995074 0.5735587

FC.bias f4 [7]
00000000: eeeb 4abf 7dc9 0ebf 3b8c 15bf 10d0 d9be
00000010: acb2 cdbe 01cf 42be dd46 903d
-0.7926625 -0.55776197 -0.584171 -0.42541552 -0.40175378 -0.19024278 0.07044766
