data/parameters/parameters-24.pt (torch_old, 30842 bytes, 6 tensors)

rnn.weight_ih_l0 f4 [68, 89]
000000 7a 68 50 3c 83 83 3d be 65 52 6c 3c f1 f7 3d 3e
       0.012720222 -0.18507199 0.014423941 0.18551613
000010 d7 a2 fc 3d 22 46 86 bd 9f 44 bb 3d dd 12 28 3c
       0.12335747 -0.065563455 0.09143948 0.010258404
000020 a6 01 61 be c4 5e 8b be 4d 32 85 bd 30 34 68 3e
       -0.21973285 -0.27220738 -0.06503735 0.22676158
000030 0f f2 d4 3d a8 70 c8 3e 43 d2 90 bd 6f 9f d8 bc
       0.103977315 0.3914845 -0.07071354 -0.026443211
000040 64 1c 15 3e 16 4e c7 be 30 3a 8f bb b7 e6 84 bd
       0.14561611 -0.38926762 -0.00437095 -0.06489318
000050 08 9b a2 be 1b ad 10 3e 85 72 df 3e 27 08 a1 be
       -0.31758904 0.14128534 0.4364206 -0.31451532
000060 b1 ea 47 3d b0 29 b5 3d f1 f7 cb bc cd d3 b7 3d
       0.048807804 0.08845842 -0.024898501 0.08975945
000070 87 f3 0d be 56 14 1b 3e 48 88 19 3e ef 5f d0 bd
       -0.1386243 0.15144476 0.14993393 -0.10174548
000080 23 1c 9a bc 3a 44 17 bd cc 99 00 3e 2d 46 88 bd
       -0.018812245 -0.0369303 0.12558669 -0.0665401
000090 a6 4e ca 3c 05 ed 29 3e c6 22 68 3d 6c de f2 bc
       0.024695706 0.16594322 0.056673788 -0.029647075
0000a0 68 61 88 3d 4e b6 55 bd 1e fd ad 3d 6d 2a d2 3d
       0.06659204 -0.052175812 0.08495544 0.10261998
0000b0 8a d5 37 3d 60 ae 45 bc 63 5a 52 bd 2f 1b 03 3d
       0.04488138 -0.0120655 -0.05135573 0.032008346
0000c0 a5 6a 76 3b ae 73 d5 3d f4 d3 cf 3d 4b 95 b5 bb
       0.0037600186 0.10422455 0.10147849 -0.0055414787
0000d0 a8 8a 2b bd 24 73 60 3c 8e b8 0f bc 50 3f aa bc
       -0.04188028 0.013699327 -0.008772029 -0.020782143
0000e0 fb 68 19 3c 52 df a2 bc f0 d5 e0 bc ce 78 04 bd
       0.009363408 -0.019881878 -0.027445763 -0.03234177
0000f0 2b 8e d7 3e 2e cb e5 3c 99 19 24 3c 46 2a 64 3c
       0.42100653 0.028050985 0.010015869 0.013926094
000100 4e e3 d4 3c 5e 1a c5 ba 20 60 19 bd 0f ef 49 3c
       0.025987294 -0.0015037765 -0.037445188 0.012325062
000110 d3 34 c2 3d b2 84 ad 3c 04 c6 97 3d 5d ad d0 3d
       0.09482732 0.021181438 0.07410815 0.101893164
000120 b7 e3 80 3d 51 a0 e6 bc 1e ea 36 3e 68 60 0f bd
       0.06293433 -0.028152617 0.17862746 -0.03500405
000130 bb f3 2a 3b 90 89 0b 3d f0 3d c5 3c 57 66 e2 bb
       0.0026085216 0.034066737 0.024077386 -0.0069091725
000140 ef af d3 bc 0d 94 1e 3e 8c 4d e7 bd 11 d2 18 3d
       -0.025840728 0.15486164 -0.11294088 0.03730971
000150 87 21 0f 3e c3 71 bd bd 3b 60 20 3c 3f 2e c3 3d
       0.13977633 -0.09250214 0.009788568 0.09530305
000160 4c e8 6f 3e de 94 84 3d 64 cf 5a 3d b1 da b2 3d
       0.23428458 0.06473707 0.05342044 0.08733118
000170 ff 8b d0 3d 88 59 11 3e 48 87 9a bc 9a 51 aa be
       0.10182952 0.1419431 -0.018863335 -0.33265382
000180 bb 0f d2 bd 23 85 0d 3e bc 11 10 bd 74 0f aa 3d
       -0.102569066 0.13820319 -0.035173163 0.08303729
000190 31 87 dd bd 5a 5e 71 3d 1d e2 93 3d bb 36 ec 3c
       -0.10816801 0.05892787 0.07220862 0.028834691
0001a0 9f a8 19 3e 07 35 6f 3d 19 f2 f5 bd d5 04 57 3e
       0.1500573 0.05840018 -0.12009067 0.20997937
0001b0 fc 6c e5 3d 49 e6 4c be 62 75 2f 3b 79 27 1d 3e
       0.11202428 -0.20009722 0.0026772846 0.15347089
0001c0 bf bd cb bd e7 76 b4 3d 65 fb 25 bd 9d 79 50 bc
       -0.099483006 0.08811741 -0.04052295 -0.012724307
0001d0 ba cd 99 3e d5 57 55 3e 57 7a 91 bd 97 46 4a 3d
       0.3003977 0.20834287 -0.071034126 0.049383726
0001e0 24 c4 18 bc 35 30 87 bd 07 63 1c 3d 49 a9 75 3d
       -0.009324107 -0.06600992 0.038180377 0.059975896
0001f0 59 87 7b 3d 03 e2 3a 3d d5 88 92 bd 98 41 73 bd
       0.061408374 0.045625698 -0.07155005 -0.059388727
000200 9b e9 b3 3d 0c 36 26 3e 4e d5 f7 bd 7d 73 b0 3d
       0.08784791 0.16231555 -0.121012315 0.08615778
000210 5f 9d 8e 3c 54 f9 03 3e f5 2a 7f be 22 a7 78 bd
       0.017409025 0.1288808 -0.2491873 -0.060706265
000220 07 d8 13 bd 1b 7a 81 bd 76 a1 65 bd c6 2d e7 3c
       -0.03609469 -0.06322118 -0.056062184 0.028220069
000230 df 55 41 bb ec 23 b3 3d e7 9f 3b 3c ca 39 d2 3b
       -0.0029500646 0.08747086 0.011451698 0.0064155804
000240 f9 fd 88 bc 85 7f 43 bc 79 f5 8f ba 1d 14 08 3d
       -0.016722666 -0.0119322585 -0.0010983191 0.033222307
000250 a1 44 d6 3c c3 b9 d4 bd 48 5b ff bc 5e b2 68 3c
       0.026155772 -0.10386994 -0.031171456 0.014202682
000260 aa ee 8e 3d 90 1d 94 3d ab ff 14 3d 81 79 81 3d
       0.06979115 0.07232201 0.036376636 0.06322003
000270 ad 12 c0 bc 8a d1 7c bd 9a 8c 09 3d bc f7 56 bd
       -0.023446405 -0.06172327 0.033581354 -0.05248235
000280 66 26 8a bc cf 29 94 3c 51 6b 2c bd b4 c5 02 3d
       -0.016864013 0.018086342 -0.042094532 0.031926826
000290 3e 98 ba bc 85 40 12 3c 56 e9 de bb 1e 68 41 bc
       -0.022777673 0.0089265155 -0.006802718 -0.011804609
0002a0 cb 7d 76 bc 67 af ad bc b0 20 01 3d dd cd 84 b9
       -0.01504464 -0.021201802 0.031525314 -0.00025330382
0002b0 9c 5c b6 3b 87 15 3e bd 07 d2 db bd ac da 4d 3d
       0.005565239 -0.04640725 -0.10733419 0.05025737
0002c0 6c 44 92 3d b4 92 22 3e 43 bf b9 3c fa 08 0a 3d
       0.07141957 0.15876275 0.022674209 0.033699967
0002d0 22 63 ba be e6 b8 15 3e f0 e0 a9 3c 4b 01 70 3d
       -0.36403757 0.14621314 0.020737141 0.058594983
0002e0 29 ca 0b 3e f6 20 29 3b 95 55 4d 3d d0 8e fa bd
       0.13651337 0.0025807 0.050130446 -0.122342706
0002f0 5d 8a 0b 3d 3c 4e 19 be 1c f7 ce 3d e1 07 13 3e
       0.0340675 -0.1497125 0.10105726 0.14358474
000300 30 53 29 3d 0f 29 24 3c d6 27 2f be aa 5c ef 3d
       0.0413391 0.010019555 -0.1710504 0.11687596
000310 39 29 49 be e8 93 da bd 7e 6a 98 3e c6 9b dc bd
       -0.19644631 -0.10672742 0.29768747 -0.10771899
000320 16 6e e8 be fc 23 64 3e 8f 91 94 3e fa cb 48 3e
       -0.4539649 0.22279352 0.29017302 0.19609061
000330 f6 d7 02 bf 0b d2 9d 3e e1 d0 64 3e 8a d3 ce 3e
       -0.5111078 0.30824313 0.22345306 0.40395766
000340 f0 6f 62 3e d0 dd 41 bd 54 00 a3 bd 60 d7 ac 3d
       0.22113013 -0.047330678 -0.07959047 0.08439517
000350 b9 e8 13 3d 2b 79 e0 3d 7f 2a 47 3d 0e 18 9a bc
       0.036110613 0.10960611 0.04862451 -0.018810298
000360 f8 da b8 bd 99 10 ab 3c 94 3d e7 bd 56 51 06 bd
       -0.0902614 0.020881938 -0.11291042 -0.03279241
000370 1e e9 0b 3e 9a 8f 9d 3d 28 fc 44 3e 25 a6 05 3d
       0.13663146 0.076934054 0.19236815 0.03262915
000380 3e 91 c0 3d a3 67 11 bd f2 1d 91 3e 85 e6 b4 bc
       0.09402703 -0.035499226 0.2834316 -0.022082577
000390 cb 69 29 3d 10 86 a1 3c a7 38 86 3d 6b 20 5c 3d
       0.041360658 0.019717246 0.06553774 0.053741854
0003a0 9c 07 29 3d 0d b0 ab 3d 8f 8b 6e 3c 2d 1f 1b bc
       0.041267022 0.083831884 0.014559641 -0.009467882
0003b0 c8 19 91 3c ba 98 1b bd 2c 5d 79 bd b0 9e 48 bc
       0.017712489 -0.03798745 -0.06087987 -0.012244865
0003c0 de d6 87 bd 32 d8 11 3d 9f 51 06 bd 35 e5 ce 3c
       -0.066327795 0.03560657 -0.032792684 0.025255779
0003d0 60 12 3e bc 77 6b fd bc c3 85 4b 3d 65 ee 80 bb
       -0.011601061 -0.030935032 0.049688112 -0.003934669
0003e0 b0 2c 65 3e 29 d1 cc 3d 86 f1 b7 3c 1d cf 8f 3d
       0.22380328 0.10000832 0.022454035 0.070219256
0003f0 98 3e 89 3d 44 5c 98 3d 7b b1 b0 bb 41 ab 3c 3e
       0.06701392 0.07439473 -0.005392251 0.18424703

rnn.weight_hh_l0 f4 [68, 17]
000000 2d f4 e4 bd 2b 6f 7d bd df b8 7a bd 48 10 fc 3c
       -0.11179385 -0.061873596 -0.061211463 0.030769482
000010 95 e0 d5 3d c1 d4 99 3c 66 f4 5b 3d e9 cc 60 bd
       0.10443226 0.018778207 0.053699873 -0.054882918
000020 b8 cc 1e be 4a 5d f3 bb 6a d9 52 3c 65 1f 0d be
       -0.15507782 -0.0074268924 0.012869218 -0.13781507
000030 99 79 59 3e 6b b9 93 3c 9c e8 77 3d 20 95 d7 bd
       0.21237792 0.01803275 0.060524568 -0.1052649
000040 4a 35 39 3d 0b 23 2c be 37 85 1e be 6b ed 76 3d
       0.045216836 -0.16810243 -0.15480505 0.060285013
000050 ae 27 51 bd 01 03 3e bd 02 77 c8 3d 60 ae 11 be
       -0.051063232 -0.046389583 0.09788324 -0.14226675
000060 4d 76 3f 3d b5 5b 22 3e 9e 1f ae 3c df 6b da bd
       0.04674368 0.15855296 0.02125531 -0.10665106
000070 b2 41 31 bd 0e 0f 00 3e b3 aa bf 3c e6 8c d7 bb
       -0.043275543 0.12505743 0.023396825 -0.0065780757
000080 3a e8 e9 bc dd 44 bd bd 7e 4f b1 3b 57 aa 85 bd
       -0.028553117 -0.0924165 0.0054110875 -0.0652663
000090 27 23 81 3c 97 78 c4 bd 7b 17 93 3e fd 0d 1b bd
       0.015763832 -0.09593313 0.28728852 -0.037855137
0000a0 d9 84 a4 bd f7 d3 3d bc 9e ae 1a bc b7 d2 a0 3d
       -0.08033151 -0.011586181 -0.009441046 0.07852691
0000b0 bb 32 e8 3b 6a 5a 34 3d 73 ef db 3c 41 46 09 be
       0.0070861257 0.044031538 0.026847577 -0.13405706
0000c0 cc 7f 5c 3d 9c c1 56 bd 63 86 35 be 6e 1a 11 bc
       0.053832814 -0.052430734 -0.17727046 -0.008856399
0000d0 4c 0a 9f bd aa 5d 0c 3e f5 59 af b8 84 bd 04 be
       -0.07765636 0.13707605 -8.361406e-05 -0.1296292
0000e0 3e 4e bf bc 40 d6 8f 3c 5b 55 b2 bd d5 61 04 be
       -0.023352738 0.017558217 -0.087076865 -0.12927945
0000f0 4a 42 03 3e ec b2 9a bd 68 d7 5c 3d d3 7a 26 3d
       0.12818256 -0.07553658 0.053916365 0.040644478
000100 88 78 eb bd a7 d6 18 3d 6d 8e 8e bd 5f 88 1c bc
       -0.11497599 0.037314083 -0.06960759 -0.009553998
000110 97 27 fc bc af a6 a0 bd 2c 52 17 3d 46 44 55 3c
       -0.030780597 -0.07844292 0.0369436 0.013016766
000120 81 0d 25 3d 52 3f 4f bd 5a 68 5a 3d ad 0c 72 bd
       0.04029608 -0.050597496 0.053322174 -0.05909412
000130 fa ad 84 3c 0c 3b 21 3d c0 d3 77 bd 1c 93 53 bd
       0.01619624 0.039362952 -0.060504675 -0.051653966
000140 e5 49 b0 3d b8 5a b0 bd 41 a6 a0 3d 3c 9f 7d bd
       0.08607844 -0.08611053 0.078442104 -0.061919436
000150 45 e1 d0 bd 6c c6 04 be e0 27 5e be b8 c5 02 3a
       -0.10199217 -0.12966317 -0.21694899 0.0004988569
000160 08 db 04 bc 59 b3 85 bc 7b 72 1a 3e b5 4a 9f bd
       -0.008108862 -0.016320871 0.15082733 -0.07777921
000170 98 1b c5 bd 1d 55 e7 3d 26 47 9f 3c 8b 83 62 3d
       -0.09624404 0.11295531 0.019443106 0.05530123
000180 aa dd 95 bd 95 7f 1b 3e 48 1d 41 bd 88 a0 bd 3d
       -0.0731767 0.15185387 -0.047147065 0.092591345
000190 b9 43 37 3e bf ed 0d 3d 67 e3 18 bd ee ac 58 bd
       0.17896928 0.03465056 -0.037326243 -0.052899294
0001a0 ea ea 0f bb 76 1b af bc 69 51 a5 bc 62 b2 54 bd
       -0.0021960088 -0.0213754 -0.020180421 -0.05192793
0001b0 9b 80 ea 3d 9e 5a e5 bd dc 8c da 3c 62 de b8 3c
       0.11450311 -0.111989245 0.026678495 0.022566978
0001c0 25 fc d7 bd 47 86 de 3c 96 e1 13 3d 1f 48 42 3d
       -0.1054614 0.027163638 0.036103807 0.04743206
0001d0 97 ad 66 bd 97 13 eb bc 90 ad 54 be fa 82 1b 3d
       -0.056317892 -0.028695865 -0.20769334 0.037966706
0001e0 2e a9 61 bd 1b 54 43 3d 41 7b a2 bd 65 63 0e 3d
       -0.055092983 0.04768763 -0.07933665 0.03476276
0001f0 55 c8 fd bd e3 6e 90 3d 1e 93 d6 bd fe 5b 3d be
       -0.12391726 0.070524 -0.10477279 -0.18492123
000200 b5 59 bb 3c d7 3b 10 3d e7 7f 26 be e6 c6 cb 3d
       0.022869924 0.035213318 -0.16259728 0.09950046
000210 df de 6c bd 60 5c c3 3d 7f d2 bd bb 0d 9a 06 3d
       -0.057829734 0.095391035 -0.0057929154 0.032861758
000220 29 dc 41 bd b7 c5 0d be 73 9c f6 3c 0b 43 c9 bc
       -0.0473291 -0.13844953 0.030103898 -0.024568101
000230 bc 56 c3 3d 9d 4d 5c bc db 19 d4 bd 5b 21 94 3d
       0.09538028 -0.013446239 -0.10356494 0.072329246
000240 59 0b 13 be b0 db a2 3d 09 ab 69 bd aa 3c 95 bd
       -0.14359798 0.07952058 -0.057047877 -0.072869614
000250 7c a7 26 3e 5d c7 76 bc eb 3f ed 3d 31 0d ca bd
       0.16274828 -0.01506218 0.11584457 -0.09865797
000260 18 e2 da bd 76 37 6d 3c 81 37 3a 3d 06 6a c5 bd
       -0.10687655 0.014478555 0.04546309 -0.09639363
000270 ce 77 db 3b 66 c7 fb 3d 0d 8b 09 bc 1a 03 7d bd
       0.0066976314 0.122938916 -0.008394969 -0.061770536
000280 56 67 35 3e 3a 92 93 bc f9 67 f7 3d 22 0a 2f 3d
       0.17715201 -0.018014062 0.12080378 0.042734273
000290 d5 52 45 3d 8d e9 16 be 9c 72 bb bd cc c2 ae 3d
       0.048174698 -0.1473753 -0.091527194 0.08533248
0002a0 38 15 91 bd 42 d6 9f bd 01 16 06 bb 3b b0 14 be
       -0.07084125 -0.07804538 -0.0020459893 -0.14520352
0002b0 57 ef af 3d 43 88 1e bd 10 65 dd 3d 09 71 96 3c
       0.08590572 -0.038704168 0.10810292 0.018364446
0002c0 7f ac 8c bd db ce 39 bc 7b 93 c2 3a 92 70 d0 3d
       -0.068688385 -0.011340822 0.0014844978 0.10177721
0002d0 31 a0 d5 3d 24 5d b1 bc c6 1f 0f 3e ec d2 41 bd
       0.10430945 -0.021650858 0.13976964 -0.04732029
0002e0 25 a4 8a 3d c5 3a 81 be 50 89 66 bd 50 09 a1 3d
       0.06769589 -0.2524015 -0.056283295 0.07863104
0002f0 b4 55 5f 3c 84 04 a4 3d 07 1a 91 3c bf 23 6b bd
       0.013631273 0.08008674 0.017712606 -0.057407137
000300 0b 65 81 bd b1 f6 2a bd 53 e2 2a 3e ab 3e 96 3d
       -0.063181005 -0.04173917 0.16687898 0.07336172
000310 1d 44 65 3d 3d 7f 75 bd 53 86 c6 bc 7d 88 15 3c
       0.05597316 -0.059935797 -0.024233973 0.00912678
000320 fb 33 b4 bd a1 ca 09 3c 1b e4 64 3d 10 3c a9 3d
       -0.08798977 0.008410127 0.0558816 0.08263409
000330 e7 0a 7d bd e1 7d fc bd 91 eb c5 3d 41 cd a4 bd
       -0.061777975 -0.12328697 0.09664071 -0.080469616
000340 00 aa 44 3d 75 4b 23 be 20 b4 f3 3c 81 6e a3 bc
       0.048013687 -0.15946753 0.029748976 -0.019950153
000350 43 c9 94 bd 5c f6 9b 3d eb 7c 61 bd 81 ce 88 bd
       -0.0726495 0.07615349 -0.05505077 -0.066800125
000360 5e 2e 54 3e df 86 f8 38 85 f1 23 3d 27 73 fa bd
       0.20720813 0.00011850683 0.040025253 -0.12228995
000370 e1 22 8e bd 2b 02 21 bd 2c 0d a9 bd af b3 7a 3d
       -0.069402464 -0.03930871 -0.082544655 0.061206516
000380 d8 04 c3 bd a1 db 3f 3b 78 de dd 3c c1 90 de 3b
       -0.09522408 0.0029275196 0.02708362 0.0067921584
000390 07 9a 8f bd ed 27 95 bd 33 b7 5b 3d e2 3e f3 bd
       -0.070118 -0.07283006 0.05364151 -0.11877228
0003a0 19 56 02 bd da 86 45 3d f6 10 d2 bc 53 12 67 3d
       -0.03182039 0.048224308 -0.025642853 0.05641396
0003b0 e3 8d 9e bd cb cc 00 bc f0 67 d5 3c f6 c9 63 bd
       -0.077419065 -0.007861326 0.026050538 -0.055612527
0003c0 1c 0e f5 3d 8c dd bb bd 22 48 d2 bc 88 3e 00 bd
       0.11965582 -0.09173116 -0.025669161 -0.031309634
0003d0 5c 8f a2 bd 14 d7 30 be e4 90 14 be fb bb 83 bb
       -0.079375 -0.17269546 -0.14508396 -0.0040202118
0003e0 35 9d 00 be 06 11 0e be 6c b8 d7 3d c5 e1 5b bd
       -0.1255997 -0.13873681 0.105332226 -0.053682107
0003f0 84 83 a7 3d d9 b9 1f bd 7a 21 40 3c ec 24 01 3e
       0.081793815 -0.038995598 0.011726731 0.12611741

rnn.bias_ih_l0 f4 [68]
000000 99 11 36 3e 5b 1f bb 3d 79 e7 68 3d 65 ed 49 3e
       0.1778015 0.0913684 0.056861375 0.19719465
000010 31 28 8d 3e 8e 15 24 3e ba b5 47 3e d7 c6 a6 3e
       0.27569726 0.16023847 0.19502917 0.32573578
000020 9e 07 91 3e d9 73 95 bc 33 9b 44 3e a9 16 e1 3d
       0.28326124 -0.018243717 0.19199829 0.1099065
000030 ec c9 3d 3e 09 c2 7f 3e dc b4 30 3e b3 18 78 3e
       0.18534058 0.24976362 0.17256492 0.24228172
000040 c2 06 6b 3e c4 10 82 3e 2b 4a 17 3e f8 8c 48 3e
       0.22951797 0.25403416 0.14774387 0.19585025
000050 a0 e6 fa 3d f4 bc 37 3e c6 13 5d 3e 9f fc 60 3e
       0.122510195 0.17943174 0.21589574 0.21971367
000060 ab 97 5b 3e 87 56 1e 3e 45 78 1c 3e 9d 57 f6 3d
       0.21444575 0.15462695 0.15280254 0.1202843
000070 0f 0f 0f 3e 4a 94 8c 3e 38 c6 45 3e 55 2f 92 3e
       0.13970588 0.27456886 0.19313896 0.28551736
000080 a6 7d 22 3e 54 f5 6d 3e c6 d8 46 3d 37 36 8f bd
       0.15868244 0.23238117 0.048546575 -0.069927625
000090 88 2e 1d 3d 6e fa de bc 65 19 ca 3a 07 fb 89 3d
       0.038374454 -0.027219024 0.0015418945 0.06737333
0000a0 06 a1 a5 3d 14 d0 bd 3d 02 05 44 bd e6 56 37 3d
       0.080873534 0.092682034 -0.04785634 0.044760607
0000b0 75 a1 9c bd 0b ae 5b bd cc 15 06 3e 86 79 ef bc
       -0.07647983 -0.053632777 0.13094252 -0.029232752
0000c0 98 aa cc 3d e1 70 80 3c ee 87 75 ba 14 81 b2 3e
       0.09993476 0.015678825 -0.00093662634 0.34864104
0000d0 44 76 07 3e 4e df c0 3e bc 3d ba 3e 8b 37 b4 3e
       0.13228709 0.37670368 0.36375225 0.35198626
0000e0 d8 b6 c6 3e e9 ce c4 3e a2 52 c5 3e f5 c8 92 3e
       0.38811374 0.3843911 0.38539606 0.28668943
0000f0 88 0a 26 3e d9 ff b0 3e 6d f9 6f 3e cc 98 53 3e
       0.16214955 0.34570196 0.23434992 0.20663756
000100 5b e7 a3 3e 3e a2 d8 3e 5d 74 63 3e 43 d7 a9 3e
       0.32012448 0.4231128 0.22212358 0.33172044

rnn.bias_hh_l0 f4 [68]
000000 ca 11 36 3e 71 1f bb 3d 76 e7 68 3d 65 ed 49 3e
       0.17780223 0.09136856 0.056861363 0.19719465
000010 32 28 8d 3e 84 15 24 3e b2 b5 47 3e dd c6 a6 3e
       0.2756973 0.16023833 0.19502905 0.32573596
000020 ca 07 91 3e 77 73 95 bc 33 9b 44 3e 6b 17 e1 3d
       0.28326255 -0.018243534 0.19199829 0.10990795
000030 0d ca 3d 3e 09 c2 7f 3e 45 b5 30 3e 5e 18 78 3e
       0.18534108 0.24976362 0.17256649 0.24228045
000040 c2 06 6b 3e ca 14 82 3e 6b 4b 17 3e f3 8c 48 3e
       0.22951797 0.25406486 0.14774863 0.19585018
000050 a0 e6 fa 3d a9 bc 37 3e bd 13 5d 3e 55 fc 60 3e
       0.122510195 0.17943062 0.21589561 0.21971257
000060 72 98 5b 3e 62 55 1e 3e 3e 78 1c 3e a7 2c f6 3d
       0.21444872 0.15462258 0.15280244 0.120202355
000070 22 06 0f 3e 55 94 8c 3e c5 f0 46 3e 26 08 92 3e
       0.13967183 0.27456918 0.19427784 0.28521842
000080 73 97 22 3e b8 f4 6d 3e 4b 23 05 bd 72 d2 1c bd
       0.15878086 0.23237884 -0.03250436 -0.038286634
000090 24 e2 18 3d 53 6d 06 bd 65 f6 1f bc be fa d9 3d
       0.03732504 -0.032819103 -0.009763335 0.106435284
0000a0 e2 fa 75 bc f6 1e 21 3c af 65 1e bd af ad 4a 3d
       -0.015013428 0.009834042 -0.03867119 0.049482044
0000b0 4d 02 11 3b c9 10 71 bc 36 14 e5 3d 6c 6f 06 bc
       0.0022126616 -0.014713475 0.111854956 -0.008205276
0000c0 82 05 22 bc 2c d2 a5 bd 0a 94 97 3d 15 81 b2 3e
       -0.0098890085 -0.08096728 0.07401283 0.34864107
0000d0 b3 75 07 3e 51 df c0 3e ba 3d ba 3e 8b 37 b4 3e
       0.13228492 0.37670377 0.3637522 0.35198626
0000e0 dd b6 c6 3e ea ce c4 3e 92 52 c5 3e f7 c8 92 3e
       0.3881139 0.38439113 0.3853956 0.2866895
0000f0 8d 0a 26 3e d9 ff b0 3e 96 f9 6f 3e ce 98 53 3e
       0.16214962 0.34570196 0.23435053 0.20663759
000100 38 e7 a3 3e 3e a2 d8 3e 5b 74 63 3e 43 d7 a9 3e
       0.32012343 0.4231128 0.22212355 0.33172044

FC.weight f4 [7, 17]
000000 41 01 b1 3e 63 72 fb 3e 35 00 f7 3e d6 55 08 bf
       0.3457127 0.49110708 0.48242345 -0.53255975
000010 d8 4f b6 be 14 12 04 bf 1a 83 19 bf f2 0e 13 c0
       -0.3560779 -0.51590085 -0.5996567 -2.2977872
000020 23 f3 a8 3e df 53 2d bd f4 c8 0e bf b0 ac 0d 3f
       0.32998 -0.042316314 -0.5577538 0.55341625
000030 cb 0f e8 3e 70 b8 1b 40 b4 7b b4 be 07 99 ea 3e
       0.4532455 2.4331322 -0.35250628 0.45819876
000040 23 3e 9d 3e 00 40 85 3e e2 87 86 be c1 c2 c8 3e
       0.3071147 0.2602539 -0.26275545 0.39211085
000050 7d 6c d2 be 15 09 60 be 8d 3d e6 be 67 85 10 bf
       -0.41098395 -0.21878465 -0.44968835 -0.56453556
000060 ad ca fb 3d 50 2d 86 3e 7c a9 83 3e 61 b1 fa be
       0.12294517 0.26206446 0.25715244 -0.48963454
000070 94 72 7b bd cc 03 38 c0 83 fb f6 be 09 b8 01 40
       -0.061388567 -2.8752317 -0.48238763 2.0268576
000080 15 9b e4 3d ff c4 ae 3c 60 a2 d9 3e 3e 7f 84 3e
       0.11162392 0.02133417 0.42506695 0.25878328
000090 3a 54 1a c0 83 67 09 bf 6f f8 05 40 f1 1e 25 bf
       -2.4113908 -0.5367357 2.0932882 -0.6450034
0000a0 dc f2 ed be 2a a6 03 3f fb 74 e1 3e 36 fd 29 be
       -0.4647435 0.5142542 0.44034562 -0.16600499
0000b0 d3 a2 fa be b5 22 94 3e 56 50 b9 3e e3 2e 09 bf
       -0.4895235 0.2893273 0.36194104 -0.5358717
0000c0 05 b3 f6 be 0c c9 07 3f 40 0b 24 3f d4 93 7a 3e
       -0.48183456 0.5304115 0.64079666 0.24470454
0000d0 75 b8 72 3e 79 1e cc 3e 61 72 ff be 84 37 0c bf
       0.23703177 0.39867 -0.49891952 -0.5477221
0000e0 b8 11 2a bf c4 ce f8 be f2 6d 0e 3f 7c 9d e7 3e
       -0.66433287 -0.4859525 0.55636513 0.4523734
0000f0 2e 05 2c be c2 7a 12 40 14 ed 83 3e 67 7b 40 3e
       -0.16798851 2.2887425 0.25766814 0.18797074
000100 80 3d d3 be 72 cb 1a bf c3 85 0f c0 14 b7 e5 3e
       -0.41257858 -0.6046668 -2.2425392 0.4486624
000110 5e 61 6d 3e 66 8b a4 3e 31 07 e3 3e 7c 95 13 bf
       0.23181674 0.32137603 0.44341424 -0.5764997
000120 3f 4f f9 be 7b 64 f5 be d9 6a 1d 40 6d 03 f2 3e
       -0.48693272 -0.47928223 2.4596465 0.4726824
000130 92 01 dc 3e 89 a2 1b bd 79 47 09 bf 2a 76 89 3e
       0.42969948 -0.037996802 -0.53624684 0.26847965
000140 19 c0 f6 3e 5b 90 1d bf 53 1b e1 be f6 c4 ff 3e
       0.48193434 -0.61548394 -0.4396616 0.49954957
000150 b2 10 0e c0 37 33 92 3e 1b 82 ea 3e 49 e0 18 3f
       -2.219769 0.285547 0.45802388 0.5971723
000160 c1 89 13 40 79 ab 08 bf 27 19 10 bf 62 1d e6 be
       2.3052828 -0.53386647 -0.5628838 -0.44944292
000170 42 62 fb 3e 05 7f 18 c0 c5 92 f5 be 5c e5 d0 be
       0.49098402 -2.3827527 -0.4796354 -0.40799987
000180 93 3c c8 bc 9a 34 be 3e 1c 8a 08 bf b0 a1 19 bf
       -0.024442947 0.37149507 -0.5333574 -0.6001234
000190 f6 f3 0b 3f 1f 90 04 3f c7 5e 01 c0 c1 fb 20 bf
       0.5466913 0.5178241 -2.0214097 -0.62884146
0001a0 f1 4c 08 3f 02 67 c3 be d6 4d b5 be 94 49 22 40
       0.53242403 -0.38164526 -0.35410947 2.5357409
0001b0 f6 1a d8 be 8f 17 00 3f 8a 55 fd 3e 42 ba 8b be
       -0.4220807 0.5003595 0.49479324 -0.2729054
0001c0 03 f7 fb be cf 33 9f 3e c4 49 a0 3e 90 42 e2 be
       -0.49211892 0.31094214 0.3130628 -0.44191408
0001d0 4e d3 c7 be 30 f4 f1 3e fc d2 dc 3e
       -0.390284 0.47256613 0.43129718

FC.bias f4 [7]
000000 0a 9b af be f3 44 7e 3e f4 74 c7 be 75 a7 18 bf
       -0.34297973 0.2483099 -0.38956416 -0.5963052
000010 c2 a5 0e bf e1 14 06 bf 8d c7 1c bf
       -0.55721676 -0.5237561 -0.6124199
