data/parameters/parameters-5.pt (torch_old, 30840 bytes, 6 tensors)

rnn.weight_ih_l0 f4 [68, 89]
0	0x3c340192	0.0109867025
1	0x3d2a8f7c	0.041640744
2	0x3ba8ffb4	0.0051574353
3	0x3d3c5aa2	0.04598487
4	0x3dd2aea2	0.10287215
5	0x3b59e851	0.0033250044
6	0xba5f9821	-0.0008529444
7	0x3d60c64e	0.054876618
8	0x3c9272e4	0.01787705
9	0x3bfc2a0a	0.007695441
10	0x3d0ba5a2	0.034093507
11	0x3d208b00	0.03919506
12	0x3dafcb2b	0.08583673
13	0xbcf92525	-0.03041322
14	0x3c097568	0.008389808
15	0x3cca9da3	0.02473337
16	0x3d748fec	0.059707567
17	0x3ce36945	0.027760157
18	0x3d05645c	0.032566413
19	0x3d1f80ec	0.03894131
20	0x3d428054	0.047485664
21	0x0000c8c2	7.2018e-41
22	0x3da18c8c	0.07888135
23	0x3d297852	0.041374512
24	0x3e0e77d9	0.13912906
25	0x3ddccc3b	0.10781141
26	0x3e06c956	0.13162741
27	0x3db47653	0.08811631
28	0x3e05c267	0.1306244
29	0x3dd04827	0.10170012
30	0x3dfd7f7d	0.12377832
31	0x3be9505b	0.007120175
32	0xb9807ad4	-0.00024505577
33	0x3ba47e2b	0.005019923
34	0x3c5aacd3	0.013346869
35	0xbbb8788e	-0.0056296056
36	0x3ca30163	0.019898122
37	0x3ce9ebc2	0.0285548
38	0x3cae6cad	0.021292055
39	0x39e4dbcd	0.00043651313
40	0xbb72e2b2	-0.003706139
41	0x3a13e029	0.00056410074
42	0x3b4daf58	0.003138503
43	0x3b4b6255	0.0031033952
44	0x3bd1f1ca	0.0064069973
45	0xbbdf17cb	-0.0068082563
46	0x3b8a2aa8	0.004216511
47	0xba202d00	-0.0006110221
48	0x3a599216	0.00082996616
49	0xba210661	-0.0006142613
50	0xbaaee6d8	-0.0013343943
51	0x3a3ed26e	0.0007279281
52	0x39b88915	0.0003519735
53	0x80008cdd	-5.0532e-41
54	0x00001778	8.419e-42
55	0x80001ebe	-1.1028e-41
56	0x0000411a	2.3354e-41
57	0x80008327	-4.7049e-41
58	0x00004b54	2.7023e-41
59	0x800021c8	-1.2118e-41
60	0xb9d8b0ce	-0.0004133046
61	0x3d2f34d3	0.042774986
62	0x3d2fd728	0.0429298
63	0x3c6d9929	0.014501848
64	0x3c1b90f3	0.009495008
65	0x3cfcc295	0.030854503
66	0x3d1d8518	0.038457006
67	0x3d5c6fe2	0.053817637
68	0x3d03c5c8	0.03217104
69	0x3c2f0684	0.010682706
70	0x3c654015	0.013992329
71	0xbb5424a9	-0.0032370484
72	0x3b9731d6	0.004614095
73	0x3c938949	0.018009799
74	0x3c8d6ee3	0.017264789
75	0x3b731b8a	0.0037095272
76	0x3ad02566	0.0015880286
77	0xbaa1a320	-0.001233194
78	0xba59b3eb	-0.0008304703
79	0x3a10112a	0.00054957217
80	0x392525fa	0.00015749774
81	0xb9f15d58	-0.0004603665
82	0x3d37915a	0.044816352
83	0x3d28d2e6	0.041216753
84	0x3c833bc1	0.016019704
85	0x3c04f025	0.008113896
86	0x3ce6d395	0.028177062
87	0x3d313e96	0.043272577
88	0x3d669fda	0.05630479
89	0x3b8b5cef	0.004253022
90	0xbd25a570	-0.040440977
91	0x3ba94559	0.0051657376
92	0x3e83139e	0.25600904
93	0x3a803210	0.0009780545
94	0xbc1f922b	-0.009739439
95	0xba2c469e	-0.0006571802
96	0x3d4e1398	0.050311655
97	0x3d9d5afd	0.0768337
98	0xbd188b52	-0.03724224
99	0x3cf7e185	0.030258903
100	0x3c8927af	0.016742555
101	0x3d4332db	0.04765592
102	0x3d01456e	0.031560354
103	0x3cf07001	0.029350283
104	0x3e0f9fcd	0.14025803
105	0x3a862d5e	0.0010236909
106	0xbdf14a58	-0.11781758
107	0x3df011c1	0.11722136
108	0xbb671ced	-0.0035265044
109	0xbd9111f9	-0.07083506
110	0x80005f8d	-3.4277e-41
111	0x3e0af066	0.13568267
112	0xbdc51a68	-0.09624177
113	0x3c4ec318	0.012619756
114	0x3d88137c	0.06644341
115	0xbd2e0dea	-0.04249374
116	0x3e64612d	0.22302695
117	0x3d2d6bd7	0.042339172
118	0xba66a9ed	-0.00087991246
119	0x3d02f564	0.031972304
120	0xbbe4a208	-0.0069773234
121	0xbc5dfa4e	-0.013548447
122	0x3ac1a934	0.0014775158
123	0x3c08822b	0.008331816
124	0x3d047cf3	0.032345723
125	0x3d9b53fb	0.075843774
126	0xbcb3b444	-0.021936543
127	0x3ce0f771	0.02746174
128	0xbb93f0f5	-0.0045148083
129	0xbb873e9c	-0.0041273367
130	0x3c561c1b	0.013068224
131	0x3d06454f	0.03278094
132	0x3c200695	0.009767194
133	0x3a125ce0	0.00055832975
134	0xbbbc175a	-0.0057400884
135	0x395e31a6	0.00021190065
136	0xba89cedb	-0.0010513918
137	0x3b5ad685	0.0033392024
138	0xbb08bec4	-0.0020865658
139	0x39a99fc9	0.0003235324
140	0xba97998c	-0.0011566146
141	0x3b366cf1	0.002783593
142	0x0000471f	2.5513e-41
143	0x8000b759	-6.5773e-41
144	0x800064ba	-3.6134e-41
145	0x80002ad8	-1.537e-41
146	0x80001293	-6.663e-42
147	0x800067c5	-3.7225e-41
148	0x80007359	-4.1379e-41
149	0xba9fa0e9	-0.0012178692
150	0x3c812229	0.01576336
151	0x3d15f5cc	0.036611363
152	0x3cc5a8b1	0.02412829
153	0x3d6e60a1	0.05819762
154	0x3cb6bb47	0.022306098
155	0x3d0fdc2b	0.035122078
156	0x3cbbacc0	0.022909522
157	0xbc1d4d8c	-0.009601008
158	0x3b5225d7	0.0032066011
159	0x3beceabe	0.007230132
160	0x3d0d8b0d	0.034556437
161	0xbc2e57ce	-0.010641051
162	0xbb20ffdb	-0.0024566564
163	0xbc4fb87d	-0.012678263
164	0x3ac3ba04	0.0014932756
165	0x37d5908e	2.5458892e-05
166	0x39352288	0.00017274369
167	0x3aa01414	0.0012213015
168	0xbb601abd	-0.0034195625
169	0xbb97c009	-0.0046310467
170	0xba829019	-0.0009961157
171	0x3ca8534b	0.02054753
172	0x3d229dc6	0.039701246
173	0x3cce3e14	0.025176086
174	0x3d76a88c	0.060219333
175	0x3d013e86	0.031553768
176	0x3d0e8b1c	0.034800634
177	0x3d036a7f	0.032083984
178	0xbb30e673	-0.0026992827
179	0x3d037b01	0.032099728
180	0x3d243fd7	0.040099945
181	0x3d4aae3d	0.049482573
182	0x3dac0797	0.08399885
183	0x39b149b0	0.00033814972
184	0x3b07600e	0.0020656618
185	0x3cbca419	0.023027467
186	0x3c867bbd	0.016416425
187	0x3bcae3f6	0.006191726
188	0x3c420c1e	0.011843709
189	0x3d8e4eae	0.06948601
190	0x3d9f8a87	0.07790094
191	0xb69c719d	-4.6623886e-06
192	0x3c118602	0.008882048
193	0x3c0e0ce0	0.008670062
194	0x3d9ee31a	0.0775816
195	0x3bd76d5b	0.0065743155
196	0x3c6284b7	0.013825587
197	0x3c8969b5	0.016774038
198	0x3d91cc00	0.07118988
199	0x8000091a	-3.265e-42
200	0x3cbdf570	0.023188323
201	0x3d976072	0.07391442
202	0x3dc5f334	0.09665528
203	0x3de59b4c	0.11211261
204	0x3e0770c7	0.13226615
205	0x3e157462	0.14595178
206	0x3e0dd93d	0.13852401
207	0x3e020d65	0.12700422
208	0x3df7f0c1	0.12106467
209	0x3cca24b7	0.02467571
210	0x3b3791ed	0.0028010563
211	0x3ba529f2	0.0050404007
212	0x3b97c9f5	0.0046322295
213	0x3ae5a7de	0.0017521342
214	0x3cb65021	0.022255005
215	0x3c6e5dba	0.014548713
216	0x3d691644	0.056906
217	0xbbae8308	-0.0053256787
218	0x3b9cdebc	0.004787294
219	0x3c56cf32	0.013110923
220	0x3bd6ce69	0.0065553677
221	0xbb661939	-0.0035110249
222	0x3b32b0d0	0.0027266033
223	0x3c09d4cd	0.008412552
224	0xba05c2ef	-0.0005102595
225	0x3a2c985a	0.00065839814
226	0x39fd3fb0	0.0004830337
227	0xba041fd2	-0.0005040142
228	0xb9b6d544	-0.0003487264
229	0x398d107a	0.00026905892
230	0xb9bc4d71	-0.00035915853
231	0x8000470b	-2.5485e-41
232	0x00002bb7	1.5682e-41
233	0x00004d96	2.7833e-41
234	0x80009124	-5.2067e-41
235	0x00017771	1.34683e-40
236	0x8000408f	-2.3159e-41
237	0x8000d222	-7.5381e-41
238	0xbb10cf05	-0.002209605
239	0x3cef11b3	0.029183244
240	0x3d2b0963	0.041757
241	0x3d4606d1	0.048346344
242	0x3cd28df6	0.025702458
243	0x3caa8183	0.02081371
244	0x3d171aeb	0.036890905
245	0x3c8ed352	0.01743475
246	0x3c3bc869	0.011461356
247	0x3b5958f1	0.0033164585
248	0x3c5904cc	0.013245773
249	0x3bc6325c	0.006048484
250	0x3ccf8b37	0.025334937
251	0x3d06f903	0.03295232
252	0x3c57794e	0.01315148
253	0x39a34920	0.00031144265
254	0x3a874b74	0.0010322169
255	0x3a93520c	0.0011239662

rnn.weight_hh_l0 f4 [68, 17]
0	0xbccd3895	-0.025051394
1	0x3d48f597	0.049062338
2	0xbd60a9c9	-0.05484942
3	0x3cc2d017	0.023780866
4	0x3a912ac7	0.0011075371
5	0x3bf5bbed	0.007499209
6	0x3d26bfaa	0.04071013
7	0x3d9e4ecd	0.07729874
8	0xbe0c8aee	-0.13724872
9	0x3d6ae0b2	0.057343192
10	0x3b52dfbd	0.0032176815
11	0x3d70e736	0.05881425
12	0xbc9e8ec2	-0.019355182
13	0x3dc71ee9	0.097226925
14	0xbcc756c7	-0.02433337
15	0xbd41c214	-0.047304228
16	0x3cd0ef39	0.025504695
17	0xbd8c21a4	-0.06842354
18	0x3ded3fae	0.115844116
19	0xbd90d8ea	-0.07072623
20	0x3d220f76	0.039565526
21	0x3ca115c3	0.019663697
22	0x3d56e52e	0.052464657
23	0x3dc1d090	0.09463608
24	0x3ddd4566	0.10804252
25	0xbe43e52f	-0.19130395
26	0x3db3e645	0.08784155
27	0xbc8d71d9	-0.0172662
28	0x3d995483	0.074868225
29	0x3bf957fa	0.0076093646
30	0x3e0f7b63	0.14011912
31	0xbcb5e417	-0.022203488
32	0xbd2b19da	-0.0417727
33	0xbc8f46c8	-0.017489806
34	0xbd1e02c4	-0.038576856
35	0x3ca7addc	0.020468645
36	0xbcfa0def	-0.030524222
37	0x3cb96628	0.02263172
38	0x3d1cc70c	0.038275763
39	0x3cb33cc0	0.021879554
40	0x3ced48ce	0.02896538
41	0x3dc10f71	0.09426773
42	0xbe19555c	-0.14973968
43	0x3d92e974	0.07173434
44	0xbce1e9f4	-0.027577378
45	0x3ccdb33a	0.025109876
46	0xbae29737	-0.0017287497
47	0x3de726e2	0.11286713
48	0xbd1aa1b9	-0.037751887
49	0xbd81a3c5	-0.06330065
50	0x3c3bea6f	0.011469468
51	0xbd0a595a	-0.03377662
52	0x3c0f8ae0	0.008761138
53	0xbd091d17	-0.033475008
54	0x3d93ef70	0.072234035
55	0x3af88a46	0.0018962107
56	0x3ca36824	0.019947119
57	0x3d0b89fa	0.03406713
58	0x3dcea6c4	0.10090402
59	0xbe382182	-0.17981532
60	0x3d5993b4	0.053119376
61	0xbcbe5ef4	-0.023238637
62	0x3ca5f98c	0.020260595
63	0x3bd47701	0.006483913
64	0x3e11afc4	0.14227206
65	0xbce724e1	-0.028215827
66	0xbdd66454	-0.10468355
67	0x3a844614	0.0010091686
68	0xbd83ee79	-0.064419694
69	0x3d50dbcc	0.050990865
70	0xbd878a9b	-0.06618234
71	0x3d149e25	0.03628363
72	0x3cd616ef	0.026133982
73	0x3d00929f	0.03138983
74	0x3d0d5fa4	0.034515038
75	0x3db84eb8	0.089993894
76	0xbe1c39b4	-0.15256387
77	0x3d744bbb	0.059642535
78	0xbbf60682	-0.0075081
79	0x3d1613b6	0.03663989
80	0xbb08d4e3	-0.0020878843
81	0x3def82d2	0.11694874
82	0xbba95632	-0.005167746
83	0xbd05911c	-0.03260909
84	0x3c529264	0.012852285
85	0xbd97a9c9	-0.07405431
86	0x3d7197b9	0.058982585
87	0xbda5fb59	-0.081045814
88	0x3c5d69e0	0.013514012
89	0xbc8feb82	-0.017568354
90	0xbdbb0e20	-0.091335535
91	0x3c82d31c	0.015969805
92	0x3d6999ef	0.05703157
93	0xbe0f637f	-0.14002798
94	0x3db8a1c4	0.09015229
95	0xbce29aa8	-0.027661636
96	0x3d64455a	0.0557302
97	0xbb016527	-0.001974413
98	0x3dac69a9	0.084185906
99	0xbd2c6796	-0.042090975
100	0xbd034894	-0.032051638
101	0x3b8dad7f	0.004323661
102	0xbcecf038	-0.028923139
103	0x3d21020c	0.039308593
104	0xbd42c77f	-0.047553536
105	0x3c180c3f	0.009280263
106	0x3ca3fef9	0.020019041
107	0x3cb9e48e	0.022691991
108	0x3c5bc626	0.0134139415
109	0x3da467fe	0.080276474
110	0xbe06740a	-0.13130203
111	0x3d4cad28	0.049969822
112	0xbc407d25	-0.011748587
113	0x3d36d240	0.044634104
114	0xbc984b5f	-0.018590627
115	0x3db2fd8d	0.08739767
116	0xbd021ab6	-0.031763755
117	0xbd2999a0	-0.041406274
118	0x3c5e0888	0.013551839
119	0xbd2d816c	-0.042359754
120	0x3c9d92fc	0.019235127
121	0xbd8cc7e5	-0.06874064
122	0x3cda276e	0.02663013
123	0xbc12db1c	-0.008963373
124	0x3b41fbb2	0.0029599485
125	0x3cf34bb6	0.029699188
126	0x3d3b562e	0.045736484
127	0xbe0934fc	-0.13399118
128	0x3d105a27	0.035242226
129	0xbd10981a	-0.035301305
130	0x3d1a1c02	0.037624367
131	0xbcde91ff	-0.027169226
132	0x3ddc21db	0.10748645
133	0xbd0bf5bb	-0.034169894
134	0xbd231497	-0.039814558
135	0x3ca2eabb	0.019887319
136	0xbccc7351	-0.02495733
137	0x3c25d374	0.010121215
138	0xbce78b3e	-0.028264638
139	0x3ca30b8d	0.019902969
140	0x3c4d196a	0.012518266
141	0x3c9d2a1f	0.019185124
142	0x3d0e4800	0.034736633
143	0x3d351f4f	0.04421931
144	0xbd8f0aab	-0.06984457
145	0x3cdce5f6	0.026965123
146	0xbb418bbb	-0.0029532749
147	0x3cabcf2d	0.020972813
148	0xbc5a67c3	-0.013330403
149	0x3d63b354	0.055590943
150	0xbc8d3bc9	-0.017240422
151	0xbcc2aa75	-0.02376292
152	0xb9215b0c	-0.00015388074
153	0xbd4fe7d2	-0.05075819
154	0x3cd2f7d6	0.025752943
155	0xbd807ff2	-0.06274404
156	0x3cb9431c	0.022615008
157	0x3c6980fa	0.014251942
158	0x3cdb0d68	0.026739791
159	0x3ccf0a06	0.025273334
160	0x3d9e06cf	0.077161424
161	0xbe14b62c	-0.14522618
162	0x3d9ca932	0.07649459
163	0xbd00de7f	-0.03146219
164	0x3d59bf8a	0.05316118
165	0x3c592c3e	0.013255177
166	0x3dd7d5d6	0.10538833
167	0xbd187f09	-0.037230525
168	0xbd1d7b00	-0.03844738
169	0x3d41122d	0.047136474
170	0xbd23a162	-0.03994883
171	0x3cba7656	0.022761505
172	0xbd76b571	-0.06023163
173	0x3c6f97d3	0.0146236
174	0x3c108b86	0.0088223275
175	0x3d0c35b9	0.03423092
176	0x3d116702	0.035498627
177	0x3d90b6e7	0.07066136
178	0xbe0dbd4b	-0.13841741
179	0x3d9499c8	0.07255894
180	0xbd02dfc4	-0.03195168
181	0x3c896eb2	0.016776416
182	0xbccec338	-0.025239572
183	0x3dd7a5ec	0.10529694
184	0xbd535e31	-0.0516035
185	0xbd057cda	-0.03258977
186	0x3b319246	0.0027095242
187	0xbd43d284	-0.047808185
188	0x3cb8e2be	0.022569057
189	0xbd720a84	-0.05909206
190	0x3d5df7a2	0.05419124
191	0x3cd10886	0.02551676
192	0xbcf5970d	-0.029979253
193	0x3d2f04e9	0.042729292
194	0x3deec26d	0.116581775
195	0xbe37eea9	-0.17962135
196	0x3dbd0511	0.09229482
197	0xbd38d63a	-0.045126177
198	0x3d8f9b70	0.07012069
199	0x3c5f1264	0.0136152245
200	0x3e08c735	0.13357241
201	0xbd1a52b8	-0.037676543
202	0xbd91415f	-0.07092547
203	0x3beb8d28	0.007188458
204	0xbd8b4fd4	-0.068023354
205	0x3d61661c	0.05502902
206	0xbdcdb966	-0.100451276
207	0x3cb617e6	0.022228193
208	0x3c667e12	0.014068143
209	0x3d9b5423	0.07584407
210	0x3dcca5a0	0.09992528
211	0x3de517b5	0.111861624
212	0xbe5482f4	-0.2075308
213	0x3d984b2b	0.07436212
214	0x3c4c0782	0.012452962
215	0x3d88eb66	0.06685524
216	0xbc59377d	-0.013257858
217	0x3e2a57d4	0.16635066
218	0xbcdcd45d	-0.026956731
219	0xbd28a2d9	-0.04117093
220	0x3cd96a3f	0.02653992
221	0xbd6c2a6e	-0.05765765
222	0x3c8c47e1	0.017124118
223	0xbd57976a	-0.052634634
224	0x3d15c5ef	0.036565717
225	0x3d14ae33	0.03629894
226	0x3bf546aa	0.0074852305
227	0x3d1807ad	0.037116695
228	0x3dba0370	0.09082687
229	0xbe260f44	-0.16216761
230	0x3d79c941	0.060982946
231	0xbcc8f0f8	-0.024528965
232	0x3d45ac83	0.048260223
233	0x3bf8ad7f	0.0075890417
234	0x3dd99cac	0.10625586
235	0xbc9c992d	-0.019116009
236	0xbd51471e	-0.051093213
237	0x3d1686d0	0.03674966
238	0xbcabc04a	-0.020965714
239	0x3d4666c3	0.048437845
240	0xbd82aef4	-0.06381026
241	0x3d336eda	0.04380689
242	0x3ca9ccae	0.020727482
243	0x3d0fe4cf	0.03513032
244	0x3d6603e0	0.05615604
245	0x3e018130	0.12646937
246	0xbe4fe94e	-0.20303842
247	0x3da8ca2a	0.08241685
248	0xbab96759	-0.001414518
249	0x3caeb4d2	0.021326456
250	0xbc3a0025	-0.0113525735
251	0x3e1ca64b	0.1529781
252	0xbd37dd95	-0.04488905
253	0xbda24c14	-0.07924667
254	0x3c465451	0.012105064
255	0xbd2cb549	-0.042165074

rnn.bias_ih_l0 f4 [68]
0	0x3e55e33c	0.20887464
1	0x3e5bcf27	0.21465741
2	0x3e51db11	0.20493723
3	0x3e8fb62b	0.2806867
4	0x3e5cadb7	0.21550642
5	0x3e6d33be	0.2316427
6	0x3e4166b8	0.1888684
7	0x3e588bd9	0.21147098
8	0x3e0fc38a	0.14039436
9	0x3e69625b	0.22791426
10	0x3e61fd56	0.22069296
11	0x3e7affe4	0.24511677
12	0x3e5a755d	0.21333833
13	0x3e6d2390	0.23158097
14	0x3e7fba12	0.24973324
15	0x3e6d5c19	0.23179664
16	0x3e6c9d40	0.23106861
17	0x3e45c3c7	0.19312964
18	0x3e1e5559	0.15462245
19	0x3e35856f	0.17726682
20	0x3e53bdd8	0.20677888
21	0x3e38a35f	0.18031071
22	0x3e3b02d9	0.18262805
23	0x3e3ba9bf	0.18326472
24	0x3e04be4d	0.12963219
25	0x3e17e6c7	0.14834128
26	0x3c1d1e07	0.009589679
27	0x3e5d5057	0.21612678
28	0x3e38c644	0.18044382
29	0x3e489b00	0.19590378
30	0x3c258bd8	0.010104142
31	0x3e65e706	0.2245141
32	0x3e26fccb	0.1630737
33	0x3e0df10f	0.13861488
34	0xbd5a1dd9	-0.05325112
35	0x3d2c1832	0.042015262
36	0xbd819bc7	-0.0632854
37	0x3e05be27	0.13060819
38	0x3c380e5a	0.01123389
39	0x3c25aeca	0.010112474
40	0x3d565f05	0.05233671
41	0x3d118773	0.035529565
42	0xbe41c448	-0.18922532
43	0x3d8df4a8	0.0693143
44	0x3cb8ee2c	0.022574507
45	0x3d8e64b1	0.06952799
46	0x3cc8a22d	0.024491394
47	0x3dca5ad9	0.09880609
48	0xbc9685a0	-0.018374264
49	0xbd977abd	-0.07396457
50	0x3d428c84	0.047497287
51	0x3e9c1f72	0.3049274
52	0x3ea78e40	0.32725716
53	0x3e95e51d	0.29276362
54	0x3eb4ccd7	0.3531253
55	0x3e9ad0ed	0.30237523
56	0x3eb569b5	0.3543221
57	0x3e96a684	0.29423916
58	0x3e9665b8	0.2937448
59	0x3e90407b	0.28174195
60	0x3e7d990c	0.24765414
61	0x3e9f79d9	0.3114765
62	0x3e9e944e	0.30972522
63	0x3ea151ce	0.31507725
64	0x3e91be44	0.28465474
65	0x3eaf6ca3	0.3426257
66	0x3e9dbbe3	0.3080741
67	0x3e9fb7a0	0.31194782

rnn.bias_hh_l0 f4 [68]
0	0x3e55e499	0.20887984
1	0x3e5bce30	0.21465373
2	0x3e51d94a	0.20493045
3	0x3e8fb643	0.28068742
4	0x3e5cad92	0.21550587
5	0x3e6d335f	0.23164128
6	0x3e4166bc	0.18886846
7	0x3e588baa	0.21147028
8	0x3e0fc3fc	0.14039606
9	0x3e69625c	0.22791427
10	0x3e61fd71	0.22069336
11	0x3e7b0104	0.24512106
12	0x3e5a759e	0.2133393
13	0x3e6d238d	0.23158093
14	0x3e7fba46	0.24973401
15	0x3e6d5d07	0.23180018
16	0x3e6c9bac	0.23106259
17	0x3e45c417	0.19313084
18	0x3e1e5559	0.15462245
19	0x3e358573	0.17726688
20	0x3e53bdd8	0.20677888
21	0x3e38a378	0.18031108
22	0x3e3b01d7	0.1826242
23	0x3e3baa5f	0.1832671
24	0x3e04bd43	0.12962823
25	0x3e17e844	0.14834696
26	0x3c1d14e8	0.009587504
27	0x3e5d5099	0.21612777
28	0x3e38c65e	0.18044421
29	0x3e489aca	0.19590297
30	0x3c258b15	0.0101039605
31	0x3e65e6ec	0.22451371
32	0x3e26fcc4	0.1630736
33	0x3e0deff1	0.13861062
34	0xbd58be39	-0.052915785
35	0x3d67d0c4	0.05659558
36	0xbd8d27bf	-0.068923466
37	0x3df86019	0.12127704
38	0x3c79e311	0.015251891
39	0xbc07928b	-0.008274685
40	0x3d47d540	0.048787355
41	0x3d050c01	0.03248215
42	0xbe41c3e0	-0.18922377
43	0x3da86ecd	0.082242586
44	0x3cb4d6d8	0.022075102
45	0x3d8dae23	0.069179796
46	0x3c52c13f	0.012863456
47	0x3dc99d4d	0.09844456
48	0xbcf26b40	-0.029592156
49	0xbd9a6ed2	-0.075406685
50	0x3d4d8eb3	0.050184917
51	0x3e9c20f2	0.30493885
52	0x3ea78e46	0.32725734
53	0x3e95e509	0.29276302
54	0x3eb4cd10	0.353127
55	0x3e9ad0d5	0.3023745
56	0x3eb56ab3	0.35432968
57	0x3e96a63d	0.29423705
58	0x3e9665ae	0.2937445
59	0x3e903e45	0.28172508
60	0x3e7d9917	0.2476543
61	0x3e9f78b5	0.3114678
62	0x3e9e9352	0.3097177
63	0x3ea15436	0.3150956
64	0x3e91be37	0.28465435
65	0x3eaf6ca7	0.34262583
66	0x3e9dbd6b	0.30808577
67	0x3e9fb85c	0.31195343

FC.weight f4 [7, 17]
0	0x3f5c2d6a	0.86006796
1	0xbe26a955	-0.16275533
2	0xbe82cfa7	-0.2554905
3	0xbe930076	-0.2871129
4	0xbed8f573	-0.42374763
5	0x3ec7ebe4	0.39047158
6	0x3e2b75b0	0.16744113
7	0xbf58951e	-0.84602535
8	0x3e845edf	0.2585363
9	0x3f3639d0	0.71181965
10	0xbf45e5fa	-0.7730404
11	0xbe94e4ba	-0.29080755
12	0xbe79a719	-0.24380149
13	0x3e89cc3a	0.26913625
14	0xbfba340c	-1.4547133
15	0x3e6434eb	0.22285812
16	0xbe420611	-0.18947627
17	0xbf4f41bc	-0.8095968
18	0xbf04cd5d	-0.5187586
19	0xbbd1d96b	-0.006404092
20	0x3fb9d798	1.4518919
21	0xbef58c8b	-0.47958788
22	0x3f0294d9	0.51008373
23	0x3f0408c5	0.5157588
24	0xbf13d847	-0.5775189
25	0x3e30ec86	0.17277727
26	0xbed67aeb	-0.41890654
27	0x3e1d8a0f	0.15384696
28	0xbebf86a3	-0.37407407
29	0x3c40c30d	0.011765254
30	0x3ef7e70e	0.48418468
31	0x3ef79e80	0.48363113
32	0x3e02d52f	0.12776636
33	0xbed99cd3	-0.4250246
34	0x3ea787bd	0.32720748
35	0xbe977c16	-0.29586858
36	0xbf1339b4	-0.57509923
37	0xbeb1d37b	-0.3473166
38	0xbea11972	-0.31464726
39	0xbfb12a78	-1.3841085
40	0x3ebee36e	0.3728289
41	0xbe442da8	-0.19158041
42	0x3e60e4b2	0.2196224
43	0xbf0bf4f9	-0.54670674
44	0x3ef30517	0.4746482
45	0x3f94c17f	1.162155
46	0xbe33f6ae	-0.1757457
47	0xbe5e6b6a	-0.21720663
48	0x3e99b802	0.300232
49	0x3ea6a846	0.32550257
50	0xbe9b05e3	-0.3027793
51	0xbdffb32f	-0.124853484
52	0x3f9ba64f	1.2160128
53	0xbece9b80	-0.40353012
54	0xbef2320c	-0.47303808
55	0xbe3683fd	-0.17823787
56	0x3edc3a9f	0.43013474
57	0xbe866712	-0.2625051
58	0xbe06332d	-0.1310546
59	0x3ea6ae42	0.32554823
60	0xbf027dba	-0.50973094
61	0x3ecf2af0	0.40462446
62	0xbee443d0	-0.44582987
63	0xbdf6cc3f	-0.120506756
64	0x3dcaeb38	0.09908146
65	0x3eaf335e	0.34218878
66	0x3e96bbc0	0.29440117
67	0x3f9fa576	1.247237
68	0xbd11d617	-0.035604563
69	0xbe2ea156	-0.17053732
70	0x3efa2494	0.48856032
71	0xbeb12911	-0.34601644
72	0x3f3c9286	0.7366108
73	0x3ecd940b	0.4015201
74	0x3f13a130	0.5766783
75	0x3e927c1b	0.2861031
76	0x3e1d2d34	0.15349275
77	0x3f0bae71	0.5456305
78	0x3f06fd13	0.5272991
79	0xbe69b496	-0.22822794
80	0x3f9a4c21	1.2054483
81	0xbf9dd58e	-1.2330797
82	0x3e69ff0a	0.22851196
83	0x3ea6f3c8	0.32607865
84	0xbe552fb8	-0.20818985
85	0x3f250865	0.64465934
86	0xbe738f2c	-0.23785084
87	0x3f68c6be	0.90928257
88	0xbe9a2646	-0.30107325
89	0xbeefb901	-0.46820834
90	0x3e5f27d1	0.21792533
91	0xbf1265b0	-0.5718641
92	0x3f123136	0.5710634
93	0x3e8a9637	0.2706773
94	0xbd1100cd	-0.035401154
95	0x3f02c4db	0.5108163
96	0xbd883249	-0.06650216
97	0xbef7dbc4	-0.48409855
98	0x3e351157	0.17682396
99	0x3cc1d74d	0.023662234
100	0xbf9f4d57	-1.2445477
101	0xbe48d8a1	-0.19613887
102	0xbf22eeb8	-0.63645506
103	0xbe415f34	-0.18883973
104	0x3e111899	0.1416954
105	0xbefaafb9	-0.4896219
106	0x3f570f60	0.84007835
107	0xbe927568	-0.286052
108	0xbf725971	-0.94667727
109	0x3e83615c	0.25660217
110	0x3e2fbce5	0.17161901
111	0xbdc5692b	-0.096392
112	0xbf64f517	-0.8943648
113	0xbe8f7cc7	-0.28024885
114	0xbf0392a3	-0.51395625
115	0x3eb65806	0.35614032
116	0x3ebc4495	0.36771074
117	0x3f0d3bf9	0.55169636
118	0xbf00f7c6	-0.5037807

FC.bias f4 [7]
0	0xbe9ca7bb	-0.30596718
1	0xbe5c4b0b	-0.21513002
2	0xbe63517c	-0.22199053
3	0xbeb51eb3	-0.35374984
4	0xbe4fcaaf	-0.20292161
5	0xbeaac6e6	-0.33354872
6	0xbe654ad8	-0.22391832
