data/parameters/parameters-20.pt (torch_old, 30849 bytes, 6 tensors)

rnn.weight_ih_l0 f4 [68, 89]
0	0xbc1611cb	-0.009159516
1	0x3dbc113a	0.09182973
2	0x3cd02760	0.0254094
3	0xbdce8331	-0.100836165
4	0x3da32883	0.07966711
5	0x3e284934	0.16434175
6	0xbd9bfda7	-0.0761674
7	0x3e2640b1	0.16235615
8	0xbe163cbf	-0.1467161
9	0x3d8876f7	0.06663316
10	0xbe3a1bb8	-0.18174636
11	0xbd791317	-0.06080922
12	0x3e3e7b9c	0.1860184
13	0x3e1726bb	0.14760868
14	0xbd38300d	-0.0449677
15	0xbe04b127	-0.12958203
16	0xbe0a8a60	-0.13529348
17	0x3e97dc44	0.29660237
18	0x3d90dd5e	0.070734724
19	0x3e0ed075	0.13946708
20	0xbe654eb7	-0.22393309
21	0x3d8db0aa	0.069184616
22	0x3e49ecb7	0.19719206
23	0xbe7ba042	-0.24572852
24	0x3e8af214	0.27137816
25	0x3dbd49c5	0.09242586
26	0x3d8c3d49	0.06847627
27	0x3e4814f9	0.1953925
28	0xbc8d2fbc	-0.017234676
29	0x3e363620	0.17794085
30	0x3e54bf71	0.20776154
31	0x3d39a679	0.045324776
32	0x3dc8d23d	0.09805725
33	0xbd9b4cbf	-0.075829975
34	0xbe07773a	-0.13229075
35	0x3e37317c	0.1788997
36	0x3d9731cb	0.07382544
37	0x3c59dbd6	0.013297042
38	0x3db3bd47	0.08776336
39	0x3db61a11	0.088916905
40	0xbd6e9d37	-0.0582554
41	0x3caa01d6	0.020752829
42	0xbd58ae68	-0.0529007
43	0x3e22d8dd	0.1590304
44	0xbd912889	-0.070878096
45	0x3b529677	0.003213314
46	0x3caa5ebb	0.020797124
47	0x3d8e64d3	0.069528244
48	0x3d858b7e	0.06520747
49	0xbbada722	-0.005299465
50	0xbdae0a94	-0.08498111
51	0x3dcb6cfa	0.09932895
52	0xbc84e10d	-0.016220594
53	0x3d4414e0	0.04787147
54	0xbc5baf7b	-0.013408537
55	0x3b35fd14	0.0027769255
56	0x3d12d87f	0.035850998
57	0x3d6d32b8	0.057909697
58	0xbd1d93ab	-0.038470905
59	0xbd4c2ebf	-0.049849268
60	0xbe10580d	-0.14096089
61	0x3b2e7c60	0.0026624426
62	0x3dc00b1d	0.0937712
63	0xbc7cf27b	-0.015438671
64	0xbc29f208	-0.010372646
65	0x3d4520a8	0.048126847
66	0x3d8b2a1d	0.06795142
67	0x3cdc36ff	0.026881693
68	0x3ced0ff3	0.02893827
69	0x3ccd536d	0.025064195
70	0x3cfebaf2	0.031095002
71	0x3d1dcad5	0.038523514
72	0x3e3fabc7	0.18717872
73	0x3dd3bd88	0.103388846
74	0xbd2475c9	-0.04015139
75	0x3ca4164c	0.020030163
76	0xbc81f5ba	-0.015864242
77	0x3d11f396	0.035632692
78	0xbcc6ff17	-0.024291558
79	0x3e2a9013	0.16656522
80	0x3d1819da	0.03713403
81	0xbca77470	-0.020441264
82	0x3dd7e3f9	0.10541529
83	0x3c2859b7	0.010275296
84	0x3da5a50e	0.08088122
85	0xbcdc18ae	-0.026867237
86	0xbd02e4cf	-0.03195649
87	0x3c694936	0.014238646
88	0x3d5eb07d	0.05436753
89	0x3b880c21	0.0041518365
90	0x3dbe1fcb	0.09283408
91	0x3d6d61f7	0.057954755
92	0x3b3a60eb	0.0028439115
93	0x3d45d49f	0.048298474
94	0x3d663dba	0.05621121
95	0xbc8a5340	-0.0168854
96	0xbd48fd63	-0.049069773
97	0x3d11f619	0.035635088
98	0xbd2342d8	-0.03985867
99	0x3e59f29c	0.21283954
100	0x3dfc52b8	0.12320465
101	0xbb30cb09	-0.0026976487
102	0xbd0dfb8f	-0.034663733
103	0x3978d12d	0.00023729047
104	0xbcbe75e1	-0.023249568
105	0x3df977d5	0.12181059
106	0x3d285b7e	0.04110288
107	0x3db040f9	0.086061426
108	0x3d7bc7a6	0.061469696
109	0xbc038bf2	-0.008028971
110	0x3d3a827f	0.045534607
111	0x3e679ab4	0.22617608
112	0x3d291985	0.041284103
113	0x3e36622a	0.17810884
114	0x3e91a6b2	0.2844749
115	0x3e4062dc	0.18787712
116	0x3eb1068e	0.34575313
117	0x3e6d9c62	0.23204187
118	0x3e28cfd5	0.16485532
119	0x3e3fb473	0.1872118
120	0x3dc3b100	0.095552444
121	0x3d5f2232	0.05447597
122	0xbc8f0c31	-0.017461868
123	0x38fced97	0.00012060551
124	0x3cf42c93	0.02980641
125	0x3c6aa9e9	0.014322736
126	0x3c77425b	0.015091504
127	0x3d48fa46	0.049066804
128	0xb8caf290	-9.6772914e-05
129	0x3d9fa0ce	0.07794343
130	0xbae4ff1b	-0.0017471047
131	0x3d4b5e93	0.04965074
132	0xbc6ad90e	-0.014333976
133	0x3d05bdc0	0.032651663
134	0xbc0c5178	-0.008564346
135	0x3d0f0c67	0.034923937
136	0x3c8b4420	0.017000258
137	0x3d5e45b5	0.054265697
138	0x3bb38a00	0.0054790974
139	0xbb95f5d4	-0.004576424
140	0xbc03cc63	-0.008044335
141	0x3cced348	0.025247231
142	0x3c821fe9	0.015884357
143	0x3b5bc72a	0.003353546
144	0x3bb4b931	0.0055152406
145	0xbc2c1ce1	-0.010504932
146	0x3c25e1ab	0.010124604
147	0x3bad14a0	0.0052819997
148	0x3c16a766	0.009195184
149	0x3d7314dc	0.059346065
150	0x3d16cedf	0.03681838
151	0x3c8519ee	0.016247716
152	0x3d0d3e04	0.03448297
153	0x3d04e2b4	0.032442763
154	0x3d571130	0.052506626
155	0x3cc3f238	0.02391921
156	0x3cdfc078	0.027313456
157	0x3d441f69	0.047881518
158	0x3d3dda0a	0.046350516
159	0xbc1af53e	-0.009457884
160	0x3d90854e	0.07056676
161	0x3d022665	0.031774897
162	0x3cd1b03a	0.025596727
163	0x3d1a0bd5	0.03760894
164	0xbcac9ade	-0.02106994
165	0xbbb029a7	-0.005376059
166	0xbc8b53e3	-0.017007774
167	0x3d664593	0.056218695
168	0x3c5bde25	0.013419663
169	0xbac0cef8	-0.0014710119
170	0x3c365b01	0.011130095
171	0x3de3e3e9	0.11127455
172	0x3db28757	0.0871722
173	0x3d506037	0.050873008
174	0x3d444df2	0.047925897
175	0x3d8295c6	0.06376223
176	0x3d948cb3	0.07253399
177	0x3d71cffe	0.059036247
178	0xbdab4f33	-0.083647154
179	0xbedd11c2	-0.4317761
180	0xbe05f02f	-0.13079904
181	0xbc4b559c	-0.012410548
182	0x3e7d1cee	0.24718067
183	0x3e889628	0.2667706
184	0x3e43f89c	0.19137806
185	0xbe6a2199	-0.22864379
186	0x3d58994d	0.052880574
187	0x3dc1b908	0.0945912
188	0xbc6bd255	-0.014393409
189	0xbdd06641	-0.101757534
190	0x3c96ffd9	0.018432545
191	0x3e63f415	0.22261079
192	0x3d89f27a	0.06735702
193	0x3d1991e8	0.037492663
194	0x3e57ada0	0.21062326
195	0xbec9c68f	-0.394093
196	0x3cda76b8	0.026667938
197	0xbda83e19	-0.08214969
198	0xbd49d76c	-0.049277708
199	0x3b6559cf	0.0034996157
200	0x3d980489	0.0742274
201	0x3d93e5a0	0.07221532
202	0xbc8a3497	-0.01687078
203	0x3b996795	0.0046815374
204	0x3e9603e1	0.29299834
205	0x3e16115c	0.1465506
206	0x3e56e6d8	0.20986497
207	0x3e4d6fc7	0.20062171
208	0x3ea7f8bd	0.3280696
209	0x3a89a7c2	0.0010502266
210	0x3c827927	0.01592691
211	0xbe3776c1	-0.17916395
212	0xbdfcc342	-0.1234193
213	0x3b1138f7	0.0022159198
214	0xbdc5f38d	-0.09665594
215	0xbda6c2b7	-0.08142608
216	0xbcce0fc2	-0.025153998
217	0xbd9066f2	-0.07050885
218	0xbd780fb7	-0.06056186
219	0x3876d04a	5.8844955e-05
220	0x3cfc843a	0.03082477
221	0x3da14ba9	0.07875759
222	0x3cf71b88	0.030164495
223	0xbd38e7d0	-0.04514295
224	0x3e087e08	0.13329327
225	0x3cb4f751	0.022090586
226	0xbde55ea7	-0.11199694
227	0xbd2255cb	-0.0396326
228	0xbe13ef2d	-0.14446707
229	0x3d310727	0.04321971
230	0x3d73c6db	0.059515815
231	0x3cfb40f1	0.030670615
232	0x3c863ba9	0.01638587
233	0x3affeda9	0.0019525784
234	0xbd408840	-0.047004938
235	0xbcdf579e	-0.027263459
236	0xbcff669d	-0.03117686
237	0x3c2e4012	0.010635393
238	0x3e68076d	0.22659083
239	0x3cff02ef	0.031129329
240	0xbd944b52	-0.07240929
241	0x3aa42e46	0.0012525998
242	0x3d478bed	0.048717428
243	0x3c0cab65	0.0085857855
244	0xbd747985	-0.059686203
245	0xbd60ea4d	-0.054910947
246	0x3d3f37ae	0.04668396
247	0x3c59c673	0.013291943
248	0xbc466cf9	-0.012110942
249	0x3d5152f0	0.051104486
250	0x3d925fee	0.071472034
251	0x3d9b53bd	0.07584331
252	0x3bcfe8b7	0.0063448804
253	0x3d6b75e5	0.05748548
254	0x3cdb88f9	0.026798712
255	0xbc923f7f	-0.017852543

rnn.weight_hh_l0 f4 [68, 17]
0	0xbe475a52	-0.19468048
1	0x3d6a8eca	0.05726508
2	0x3c19c1df	0.009384601
3	0xbdf1c944	-0.118059665
4	0x3e9211dd	0.28529254
5	0xbb1b2fa3	-0.0023679517
6	0xbdbca49a	-0.09211083
7	0xbcd8dc95	-0.02647237
8	0x3b192bf1	0.0023372138
9	0xbd8db0a0	-0.06918454
10	0x3d7f96e9	0.06239978
11	0xbc13f3c5	-0.009030287
12	0xbd60ebcb	-0.05491237
13	0xbbea012b	-0.0071412525
14	0x3e2a2db8	0.16619003
15	0xbd717f95	-0.058959562
16	0x3b297b65	0.0025860902
17	0xbd8589c4	-0.06520417
18	0x3df6de2e	0.12054096
19	0x3caee13c	0.021347634
20	0xbcbc0964	-0.022953697
21	0x3dcdfdf2	0.10058202
22	0xbdfb09cc	-0.12257728
23	0xbbf787ed	-0.0075540454
24	0xbd383351	-0.044970814
25	0x3d29c4f6	0.041447602
26	0x3d5a86e6	0.053351305
27	0x3d78fb1e	0.06078636
28	0x3d9209dc	0.07130787
29	0x3d4cda1c	0.050012693
30	0x3c5dd31f	0.013539105
31	0x3d6cec88	0.05784276
32	0xbd8d0d84	-0.068873435
33	0xbdc5665c	-0.09638664
34	0xbe111b9b	-0.14170687
35	0x3c97c467	0.01852627
36	0x3d919588	0.07108599
37	0xbd108e43	-0.03529192
38	0xbcfce82e	-0.03087243
39	0x3c9b7593	0.018976962
40	0xbd953730	-0.07285917
41	0x3da2d9d1	0.079517014
42	0xbd00c7a0	-0.031440377
43	0xbd2da402	-0.04239274
44	0xbcd9dda5	-0.026594946
45	0xbdb82a36	-0.08992426
46	0xbe1127b2	-0.14175299
47	0x3cf80f68	0.030280784
48	0xbd75c340	-0.060000658
49	0x3b826395	0.0039791563
50	0x3c49c9b2	0.012316154
51	0x3e4a08a8	0.19729865
52	0xbcea48c9	-0.02859916
53	0x3d640884	0.055672184
54	0x3c454a65	0.012041663
55	0xbd741d08	-0.059598
56	0x3d7eb2b3	0.06218214
57	0xbd8e6213	-0.069523
58	0xbd1920e6	-0.03738489
59	0xbbb6cb4d	-0.0055784346
60	0xbdb3f6aa	-0.08787282
61	0xbbe35ca9	-0.006938536
62	0xbdecbe7a	-0.11559768
63	0xbbe5d5fd	-0.007014035
64	0x3d775ef9	0.060393307
65	0xbddf4722	-0.109022394
66	0xbd989221	-0.07449747
67	0x3d7f84eb	0.06238262
68	0xbd4426c0	-0.047888517
69	0x3dc26055	0.0949103
70	0x3e0e2036	0.13879475
71	0x3dcbefef	0.09957873
72	0x3e0276f2	0.12740687
73	0xbdf2e48a	-0.118599966
74	0xbd9b2708	-0.07575804
75	0xbdf2ecbd	-0.118615605
76	0x3ba66106	0.005077484
77	0x3d248e71	0.040174905
78	0xbc33a321	-0.010964186
79	0x3b8f6aa4	0.004376726
80	0x3e46c1c0	0.19409847
81	0xbd14ee4f	-0.03636008
82	0x3dbef654	0.09324327
83	0xbd734b13	-0.05939777
84	0xbdb02cd5	-0.08602301
85	0xbafbb9d5	-0.0019205163
86	0x3cfba8d0	0.030720145
87	0x3d983565	0.07432059
88	0x3bde0932	0.0067759985
89	0x3bb4908a	0.0055103945
90	0xbdeb27ef	-0.11482226
91	0x3c8bc8ca	0.017063517
92	0xbd280fb4	-0.0410306
93	0x3d543e04	0.051816955
94	0x3d1c5f0a	0.038176574
95	0xbd884bdd	-0.06655095
96	0x3d0e4253	0.03473122
97	0x3d7e53ab	0.06209151
98	0x3d00ba4f	0.031427678
99	0x3dc8d4b5	0.09806196
100	0xbbd684f0	-0.006546609
101	0xbba8e439	-0.0051541594
102	0xbd742faf	-0.059615787
103	0x3d8714a9	0.065957375
104	0xbd1e7284	-0.03868343
105	0xba98fbdd	-0.0011671741
106	0x3e456ecb	0.19280545
107	0xbd462cf3	-0.04838271
108	0x3da15b23	0.07878711
109	0xbdcd5052	-0.100250855
110	0xbd488e18	-0.048963636
111	0xbd5fba79	-0.054621194
112	0x3b2f2f8e	0.0026731226
113	0x3d5aa800	0.053382874
114	0x3d9822a3	0.074284814
115	0x3d983aab	0.07433065
116	0xbe6cf1ea	-0.23139158
117	0x3d1c894c	0.038216874
118	0xbca4116e	-0.020027842
119	0x3d3bd8bd	0.045860995
120	0x3e2fe5a0	0.17177439
121	0x3cde5664	0.027140804
122	0xbb9f9655	-0.004870216
123	0x3bc214a0	0.005922869
124	0xbd5d6230	-0.054048717
125	0x3d3b8d33	0.045788955
126	0xbd21d991	-0.039514128
127	0xbc25347c	-0.010083314
128	0x3d4a585b	0.04940067
129	0xbd2e4f5b	-0.042556148
130	0xbd1c1118	-0.03810224
131	0x3d2ad2b5	0.041704852
132	0xbbd17bda	-0.006392938
133	0x3d93d7f9	0.07218928
134	0xbbbfa4cc	-0.0058485027
135	0xbdae3fcc	-0.08508262
136	0x3e25b3b1	0.16181828
137	0x3d9320d7	0.07183998
138	0x3db6a4bf	0.089181416
139	0x3e2ab977	0.16672312
140	0x3d87386b	0.06602558
141	0x3d9fdb2a	0.07805474
142	0x3d2cc5f4	0.04218097
143	0xbceebe62	-0.029143516
144	0xbde5ca48	-0.11220223
145	0x3d70725d	0.058702815
146	0xbc8bd0f5	-0.017067412
147	0xbd8591ce	-0.06521951
148	0x3d46f6e1	0.048575286
149	0xbe491cce	-0.19639894
150	0xbd716788	-0.058936626
151	0xbe3a1175	-0.18170722
152	0xbde13496	-0.10996358
153	0xbdc55727	-0.096357636
154	0x3d8e591b	0.06950589
155	0x3d327dcf	0.04357701
156	0xbc8143b7	-0.01577936
157	0x3dbb0158	0.09131116
158	0xbd682a77	-0.056681123
159	0xbcbe4ed5	-0.02323095
160	0xbd8a0f75	-0.067412294
161	0xbce7305e	-0.028221305
162	0x3d9e21ab	0.077212654
163	0xbd38420c	-0.044984862
164	0x3c870536	0.016481977
165	0x3d89d127	0.06729346
166	0x3ca42ee7	0.020041896
167	0x3d6faeeb	0.058516424
168	0xbdb1f25b	-0.08688804
169	0xbded0a4b	-0.11574229
170	0x3cb9d0b7	0.02268253
171	0xbbd5ed0c	-0.0065285023
172	0xbc82f18d	-0.015984321
173	0x3d6092fa	0.054827668
174	0xbd94ea67	-0.07271271
175	0x3d2d7d48	0.042355806
176	0x3e68a95c	0.22720855
177	0xbe0def94	-0.13860923
178	0x3da51886	0.08061318
179	0x3d4b482b	0.04962937
180	0x3e471745	0.1944247
181	0xbd9f4c1c	-0.077781886
182	0xbd1d8a9b	-0.038462263
183	0x3d8120d1	0.06305087
184	0x3d8ecd92	0.06972803
185	0xbd4a27ed	-0.049354482
186	0x3cab7b02	0.020932678
187	0xbda2ba75	-0.0794572
188	0xbd8687cc	-0.0656887
189	0x3def715e	0.11691545
190	0xbde24e27	-0.110500626
191	0x3dbb9a74	0.09160319
192	0x3d8b9500	0.06815529
193	0xbd8f45c5	-0.06995729
194	0xbd804744	-0.06263593
195	0xbdcb1646	-0.09916358
196	0xbd34c21c	-0.04413043
197	0x3d361a07	0.044458415
198	0xbe417c42	-0.18895057
199	0xbdbbe94d	-0.09175358
200	0x3db13811	0.08653272
201	0x3e18cfde	0.14923045
202	0xbde66a58	-0.11250752
203	0xbdc82649	-0.09772927
204	0xbc898ebf	-0.0167917
205	0x3db3eb1a	0.087850764
206	0xbccd666a	-0.025073249
207	0x3be81cd9	0.007083517
208	0x3d9fb3df	0.077979796
209	0xbc36b341	-0.011151136
210	0xbd12028d	-0.035646964
211	0xbd82c9e7	-0.06386166
212	0x3cbf7d65	0.023375222
213	0xbd09179b	-0.033469778
214	0x3d9a197c	0.07524392
215	0x3db45bd3	0.088065766
216	0xbda94ad3	-0.08266225
217	0x3d801edb	0.06255885
218	0xbdf51108	-0.11966139
219	0xbd9c7772	-0.0763997
220	0xbce3878f	-0.0277746
221	0xbe00c9d0	-0.12576985
222	0x3e056f0c	0.13030642
223	0x3e16ea93	0.1473792
224	0xbb86bed5	-0.0041121044
225	0x3e810f96	0.25207204
226	0xbe26639b	-0.16248934
227	0xbe55adcd	-0.20867081
228	0xbdfdd09e	-0.12393306
229	0xbd818a6f	-0.06325232
230	0xbd314bd7	-0.043285217
231	0xbc870a80	-0.016484499
232	0x3c3042d4	0.010758121
233	0x3ddbc2ec	0.10730538
234	0x3c7d0c52	0.015444832
235	0x3d33eb28	0.043925434
236	0xbd9b1db3	-0.07574024
237	0xbe5a4111	-0.21313883
238	0x3c014b54	0.007891495
239	0x3d0f74d3	0.03502352
240	0xbd25c91d	-0.040475
241	0x3d80a866	0.062821195
242	0x3d10b8b0	0.03533238
243	0xbd5de225	-0.054170746
244	0x3d6e0eb1	0.05811948
245	0xbc782c0c	-0.01514722
246	0xba8fed50	-0.0010980759
247	0x3cd4874b	0.025943419
248	0x3ba97672	0.0051715905
249	0x3d28de2f	0.041227516
250	0xbc046f07	-0.008083112
251	0x3d222536	0.03958627
252	0x3e81b28f	0.25331542
253	0xbdb21cfa	-0.08696933
254	0x3dd68636	0.104748175
255	0x3cfd9fb2	0.030959938

rnn.bias_ih_l0 f4 [68]
0	0x3e354c3a	0.1770486
1	0x3e79159c	0.2432465
2	0x3d0dfb3f	0.034663435
3	0x3cb1f87a	0.021724928
4	0x3e81b098	0.25330043
5	0x3e8cebe8	0.27523732
6	0x3e2b306d	0.16717692
7	0x3e554853	0.20828371
8	0x3e7de69e	0.24795005
9	0x3e94ae68	0.2903931
10	0x3e9e805f	0.30957314
11	0x3e3f0b1e	0.18656585
12	0x3e262d50	0.16228223
13	0x3e072728	0.1319853
14	0x3e1da1b9	0.15393724
15	0xbd96a005	-0.0735474
16	0x3d94ddcf	0.07268869
17	0x3e7929c9	0.24332346
18	0x3e0867c8	0.1332084
19	0x3e714e48	0.23565018
20	0x3e238a17	0.15970646
21	0x3df08180	0.1174345
22	0x3dd47c09	0.1037522
23	0x3e6e7a80	0.23288918
24	0x3e473bea	0.19456449
25	0x3dd95a01	0.1061287
26	0x3db6fd5c	0.08935043
27	0x3e58aac5	0.21158893
28	0x3e85b812	0.26116997
29	0x3e3ccbb3	0.1843708
30	0x3e8233c8	0.2543013
31	0x3e70aebb	0.23504154
32	0x3e960ba5	0.2930576
33	0x3e950fa3	0.29113492
34	0xbd31c298	-0.04339847
35	0x3df3ae40	0.1189847
36	0x3d437f5d	0.047728885
37	0x3c2f141d	0.010685948
38	0x3c803995	0.015652457
39	0xbc11dfb1	-0.00890343
40	0xbd8a75ca	-0.06760748
41	0x3d49fc8f	0.049313124
42	0x3e4437af	0.19161867
43	0x3c406baf	0.011744424
44	0x3d5de085	0.054169197
45	0x3b5b2a6c	0.0033442033
46	0x3d2f1b9e	0.042750947
47	0xbdf3677d	-0.11884973
48	0xbaa1c96f	-0.0012343357
49	0x3dbd6bd1	0.0924908
50	0xbcebf6d0	-0.028804213
51	0x3ecb0e0a	0.39659148
52	0x3e230f81	0.15923883
53	0x3ea919ba	0.3302744
54	0x3ea83960	0.32856274
55	0x3ea5ebd9	0.324065
56	0x3eb2135b	0.34780392
57	0x3ec2ed4e	0.38071674
58	0x3ea60ee4	0.32433236
59	0x3ec77cb5	0.3896233
60	0x3e68b4dc	0.22725242
61	0x3ec53eeb	0.38524565
62	0x3e813b32	0.25240475
63	0x3ec7ebf7	0.39047214
64	0x3ebac4f5	0.3647839
65	0x3ebd03ce	0.36916965
66	0x3e9a2240	0.30104256
67	0x3ea81958	0.32831836

rnn.bias_hh_l0 f4 [68]
0	0x3e354c3f	0.17704867
1	0x3e79159d	0.24324651
2	0x3d0dfb42	0.034663446
3	0x3cb1f64b	0.021723887
4	0x3e81b09a	0.2533005
5	0x3e8cebe9	0.27523735
6	0x3e2b306d	0.16717692
7	0x3e55485a	0.20828381
8	0x3e7de69f	0.24795006
9	0x3e94ae68	0.2903931
10	0x3e9e8060	0.30957317
11	0x3e3f0b40	0.18656635
12	0x3e262d50	0.16228223
13	0x3e0726df	0.13198422
14	0x3e1da270	0.15393996
15	0xbd96a1d5	-0.07355086
16	0x3d945e8f	0.07244598
17	0x3e7929c9	0.24332346
18	0x3e082d3d	0.13298507
19	0x3e714e49	0.2356502
20	0x3e236f9e	0.15960547
21	0x3df07840	0.11741686
22	0x3dd47c0b	0.10375222
23	0x3e6e7a86	0.23288926
24	0x3e473be9	0.19456448
25	0x3dd95a0f	0.106128804
26	0x3db6d2af	0.089269035
27	0x3e58b0b2	0.21161154
28	0x3e85b814	0.26117003
29	0x3e3ccbb3	0.1843708
30	0x3e8234b1	0.25430825
31	0x3e70adef	0.2350385
32	0x3e960de8	0.29307485
33	0x3e94e9b5	0.29084554
34	0xbac8aaae	-0.0015309656
35	0x3da6476c	0.081190914
36	0x3d1534e2	0.036427386
37	0xbc60e8b5	-0.013727357
38	0x3c9af5fc	0.018916123
39	0xbd03b185	-0.032151718
40	0xbcc0ce1e	-0.023535784
41	0x3c6952b3	0.014240908
42	0x3e2cfb14	0.16892654
43	0x3d931516	0.07181756
44	0x3ccf1651	0.025279196
45	0x3da646ed	0.08118997
46	0x3cafceec	0.021460973
47	0xbd785b9c	-0.06063424
48	0xbd465568	-0.048421293
49	0xbcfda0a7	-0.030960394
50	0xbdd85ca7	-0.10564547
51	0x3ecb0e08	0.39659142
52	0x3e230f81	0.15923883
53	0x3ea919bb	0.33027443
54	0x3ea8395f	0.3285627
55	0x3ea5ebdb	0.32406506
56	0x3eb2135d	0.34780398
57	0x3ec2ed50	0.3807168
58	0x3ea60ee5	0.3243324
59	0x3ec77cb7	0.38962337
60	0x3e68b4d8	0.22725236
61	0x3ec53ee8	0.38524556
62	0x3e813b33	0.25240478
63	0x3ec7ebfd	0.39047232
64	0x3ebac4f6	0.36478394
65	0x3ebd03ca	0.36916953
66	0x3e9a223c	0.30104244
67	0x3ea81958	0.32831836

FC.weight f4 [7, 17]
0	0xbf0e4f5a	-0.5558983
1	0xbf161e51	-0.5864001
2	0xbf816c27	-1.011113
3	0x3e3eeff0	0.18646216
4	0xbf109d6c	-0.56490207
5	0xbed2c250	-0.41163874
6	0xbe320019	-0.1738285
7	0xbe2c0dd8	-0.16802156
8	0x40161625	2.3451016
9	0xbc24b1f3	-0.010052192
10	0xbd9639e1	-0.07335258
11	0x3ec353b4	0.38149798
12	0x3e47e992	0.19522694
13	0x401cc929	2.4497778
14	0x3dd0544b	0.101723276
15	0x3f025927	0.50917286
16	0x3f41d87f	0.7572097
17	0xbec9e0e4	-0.3942939
18	0xbee5973a	-0.4484194
19	0xbe8ab54a	-0.27091438
20	0x3eb96e9d	0.36217204
21	0xbeac3a85	-0.33638397
22	0xbe5ae52e	-0.21376488
23	0xbf0cac9b	-0.54950875
24	0xbd87cfd3	-0.06631436
25	0xbf05cbe5	-0.52264243
26	0x400001b6	2.0001044
27	0xbed0cf7a	-0.40783292
28	0x3ea0f0ed	0.31433812
29	0x3ed2161b	0.4103249
30	0xbedd38a6	-0.43207282
31	0xbfc0a86c	-1.5051398
32	0x3f2fe9d4	0.6871617
33	0xc019cfa2	-2.403298
34	0xbef77fa7	-0.48339579
35	0xbef66dc3	-0.48130617
36	0x3dc478a4	0.09593323
37	0x3ecc01ba	0.39845067
38	0xbecaa4ae	-0.39578766
39	0xbecaec8f	-0.39633605
40	0xbf21baf4	-0.6317589
41	0x400cef1d	2.2020943
42	0xbf214413	-0.629945
43	0xbed02f4f	-0.40661094
44	0xbf21db0f	-0.6322488
45	0x3e8ee2b8	0.27907348
46	0x3f0b31fa	0.54373133
47	0xbed8ba65	-0.42329708
48	0x3f01dc7c	0.5072706
49	0xc002992a	-2.0405984
50	0x3f02d6d4	0.5110905
51	0xbe9a4e9a	-0.30138093
52	0x4014e7ac	2.3266401
53	0x3ea75f5c	0.3268994
54	0x3eff74cb	0.49893793
55	0xbf01fd7e	-0.50777423
56	0xbe91cb83	-0.2847558
57	0xbec1acf0	-0.37827253
58	0xbe3afdb9	-0.1826085
59	0xbe538edd	-0.20659967
60	0xbecbb9aa	-0.39790088
61	0xbeb38f8d	-0.35070458
62	0x3e7ccb55	0.2468694
63	0xc014401e	-2.3164134
64	0xbf0e1018	-0.5549331
65	0x3e29920b	0.16559617
66	0x3f3a2849	0.7271772
67	0x3ef27d3f	0.4736118
68	0x401e4095	2.4726918
69	0xbe0b2884	-0.13589674
70	0x3f1ab291	0.6042872
71	0xc00a6b07	-2.1627824
72	0xbe7a8317	-0.2446407
73	0xbed4af37	-0.41539928
74	0xbf07d5ef	-0.5306081
75	0xbf219457	-0.63116974
76	0xbec2f586	-0.38077945
77	0xbf5f9eb3	-0.8735153
78	0xbe82ece4	-0.25571358
79	0xbe01c716	-0.12673602
80	0x3f0a9a8a	0.5414206
81	0xbdaf8203	-0.0856972
82	0xbe8951ed	-0.26820317
83	0x3e0823bd	0.13294883
84	0x3e3d041f	0.18458603
85	0xbf082786	-0.5318531
86	0xbf1c45ea	-0.6104418
87	0x3f0364fa	0.51325953
88	0x3ee451f8	0.44593787
89	0x40057817	2.0854547
90	0xbece835b	-0.4033459
91	0x40195176	2.395597
92	0xbe5f1426	-0.2178503
93	0xbe29c1e2	-0.16577867
94	0xbf530c20	-0.82440376
95	0xbebde4f5	-0.37088743
96	0x3e8bfadd	0.2733983
97	0x3ea3d68f	0.31999633
98	0xbf12aa5d	-0.57291204
99	0xbebbe4a7	-0.36697885
100	0x3f459b7e	0.7719039
101	0x3ebf9896	0.374211
102	0xbecd2428	-0.40066648
103	0xbee21eba	-0.44164068
104	0x3ebd5c22	0.36984354
105	0x3ed0a3ac	0.40749872
106	0xbeada8c3	-0.33917817
107	0x3ff0f83c	1.8825755
108	0xbeee5fcd	-0.46557465
109	0xbe88f58d	-0.2674984
110	0xbec91822	-0.39276224
111	0xbf123488	-0.57111406
112	0x3ffa92ba	1.9576027
113	0xbfbb9b55	-1.4656779
114	0x3eb9785d	0.36224642
115	0xbee159fa	-0.4401396
116	0xbddfd665	-0.109295644
117	0x3e4fc571	0.20290162
118	0x3e950114	0.29102385

FC.bias f4 [7]
0	0xbd551f60	-0.052031875
1	0xbf1a3ebe	-0.60251987
2	0xbed4f20e	-0.41590923
3	0xbf379bca	-0.7172209
4	0xbef271dc	-0.47352493
5	0xbf0afd98	-0.54293203
6	0xbe011fe7	-0.12609826
