data/parameters/parameters-9.pt (torch_old, 30840 bytes, 6 tensors)

rnn.weight_ih_l0 f4 [68, 89]
00000000: 88b8 033e 726f 493d 14ad e4bc 75cf 293d
00000010: 0212 cd3c db5e 893c ac2f f83b 3cd7 6639
00000020: 086e a23d 9362 343d 4097 b43d 0fa3 693d
00000030: 095f 80bb 389a e6bc dc1a 7b3c 66d2 a939
00000040: 4d3d c83d 8c36 91bd 49ee 1b3c d6f3 463d
00000050: 807c a7bc b26b 203a 00ad fa3c 3e87 b03c
00000060: 2d29 d83d bf2f 20bd 483f ef3d a2f8 d93d
00000070: 545d 0a3e 1b0e e8bb b028 043e 1c09 6c3c
00000080: 112b 2c3d dba8 793d 97c7 1e3d f1ab 55bb
00000090: 1c3a 34bd 1a1f 5c3c a7be 07bd 9c78 f43b
000000a0: fb35 b53c 41f9 dfbb 803b 2f3d 3be6 3bbc
000000b0: c9f7 943b 79e5 fb3c f17c f13a 9411 02ba
000000c0: 243a 0d3b 9397 093c 641f c73b 1e3d b63b
000000d0: 2484 6dbb 361a 253a dd9e 0f3a c962 fd39
000000e0: 1cb2 cdb9 1494 643b d787 99ba c339 16bb
000000f0: f0ee 983b 4133 efb9 af91 783d 58a8 d03c
00000100: dfc3 333d 60f9 1d3d d9ca 1d3d 1343 453d
00000110: 10d3 683c 445d 0bbc 0966 c53c a50e d0bb
00000120: 2614 da3c dce2 1d3d 463d 2c3d 6497 6e3a
00000130: 5ce6 1838 83c6 5b3c 79e4 fc38 0a93 403b
00000140: 5f2f bcba 1bb1 143c 8039 233c d778 863d
00000150: 99c8 f73c 305d 073d 7f94 233d 8cee 5a3d
00000160: 724e 603d c089 053e d860 be3d 4395 0b3b
00000170: 08e3 223c 3a31 383c 888b 3d3d bc4b 123c
00000180: 4518 f53b 7949 b03d 55a1 003d 0437 133c
00000190: 2dce fb3d 49a9 8a3c 5817 e73c 9ecb b939
000001a0: 8214 29bc 5a0f d33d 845b d8bc 4c10 b23c
000001b0: b8e1 503d 935c 94bb 48b1 77ba 5044 d73d
000001c0: 212f b5bc 78fc 4f3e d30e 353e 72e9 1f3e
000001d0: 5836 5d3e d211 da3d 6e19 2d3e c519 d23d
000001e0: 2551 05bc 8b13 bcba db93 6d3c 1e61 aa3d
000001f0: ed26 d83d aa44 2b3d 27ed 613c df95 853d
00000200: f713 373c f977 9e3c 8b7e 2fba 3444 61ba
00000210: 1bc3 cb3a 42a5 573c d86e e03c 4ba6 0dbc
00000220: b2c4 853b 8824 a7bb d7f2 fc3b 697c 2dbc
00000230: 1089 0b3c a5ec 863b 6ed1 0f3b 3e24 043b
00000240: 0503 4bbb 49f3 ce3a 31e5 35ba 93bd ccb9
00000250: 2b1f c13a b5a9 943b a6e1 143d 52e7 6a3d
00000260: 98f4 533d 4bb1 373d e49f da3c cceb 0b3d
00000270: 7189 673d bbbb ae3d 0855 c63c 60d5 323b
00000280: c658 833c abe4 d53c be8e c43c 7f82 5bbc
00000290: 5ac2 e33c 2453 493b 2604 4cbb cdc0 ee3b
000002a0: b2c6 b63b 7c20 84bb 5031 a4bb bf0c c53c
000002b0: 20ca 773d 749d 4e3d 6d09 443d 2645 333d
000002c0: d01c 6d3d bf3e 593d 47dc 2f3d 72d1 0c3e
000002d0: bcdf 953c 2563 7cbb 41f4 ce3d 1ad3 48be
000002e0: 4864 043e 53c0 093e 63d0 213d ce3e 0abc
000002f0: 422d 4dbd a81e 7dbc 2052 173d 9f1a af3d
00000300: 4dbc e8bb 6ab1 0f3b 5aea 55bd d646 2f3e
00000310: 5d19 eebb eccb b4bd a9b9 633e 0be2 913a
00000320: 08c2 32bd ab76 0a3e b34f e53d 1161 2b3e
00000330: 4f76 03bd 3572 7f3d 0486 8f3d f60e 5b3c
00000340: 5a91 3c3e e3c9 1abc 9501 863d bc61 1abb
00000350: d62f 923d 51e4 363d c309 1d3e bf6d 903d
00000360: d148 e13c 94b4 21bd 8465 a23c be8c 88bb
00000370: 648a 403c c7af b9bc 6c2e 4d3d b205 dbbb
00000380: b47b 82bc 4084 c63b f31f 70b9 93ce df3c
00000390: 2920 c6bc e61f a73b b526 823c eff1 80ba
000003a0: b440 a83a 661e 72bb 4449 8e3b f706 c13b
000003b0: cc23 3839 377d c13a 6db0 f1bc 6f5d a5bc
000003c0: 8620 863d 0ebe d13b 3de3 4c3d bf5c 5c3d
000003d0: 55f5 0e3d 6784 e13c 2e9c 753c 0830 423d
000003e0: 4770 a7bb 7b32 3b3c e4ee aa3c b591 773d
000003f0: c193 9e3c 7322 063c 3714 593c 151b 1cbb
0.12863362 0.04917855 -0.027914561 0.041457612 0.025033 0.016768863 0.0075740423 0.0002201469
0.07931143 0.04403932 0.08817911 0.05704027 -0.003917579 -0.02814971 0.015326228 0.0003239095
0.09777317 -0.07090482 0.009517261 0.048572384 -0.020445108 0.00061195635 0.030600071 0.021548864
0.10554729 -0.039108034 0.11681992 0.10643126 0.13512164 -0.0070817596 0.12906146 0.014406469
0.04203326 0.06095205 0.038764562 -0.0032603706 -0.04400073 0.01343515 -0.033140805 0.007460667
0.022120466 -0.0068351333 0.042781353 -0.011468465 0.00454614 0.03074907 0.0018424076 -0.0004961726
0.0021549547 0.0083979545 0.00607674 0.005561485 -0.0036242092 0.0006298156 0.00054786896 0.0004832952
-0.0003923335 0.00348783 -0.0011713457 -0.0022922612 0.0046671554 -0.0004562382 0.06068581 0.025470898
0.04388797 0.0385679 0.03852353 0.04815967 0.0142104775 -0.008506123 0.024096506 -0.006349402
0.026620936 0.038546428 0.042050622 0.00091015385 3.6454163e-05 0.013414028 0.00012058853 0.0029384517
-0.0014357379 0.009075428 0.00996244 0.06566017 0.03024702 0.033047855 0.03993654 0.053450152
0.05476231 0.13040829 0.09295815 0.0021298684 0.009941824 0.011242205 0.046275645 0.008929189
0.0074797 0.08607764 0.03140386 0.008985285 0.12295184 0.016926425 0.028209373 0.00035437656
-0.010319831 0.103056625 -0.026410826 0.021736287 0.050996512 -0.0045276373 -0.0009448719 0.105110765
-0.0221172 0.20311153 0.17681436 0.15616396 0.21602762 0.1064793 0.16904232 0.102588214
-0.008137022 -0.0014349086 0.0145005835 0.08319305 0.105542995 0.04181353 0.013789452 0.06522726
0.011174194 0.019344317 -0.00066945766 -0.0008593232 0.0015545817 0.013161959 0.027396604 -0.008645604
0.004082286 -0.0051007904 0.0077193785 -0.010588744 0.008516565 0.0041175657 0.0021944898 0.0020163204
-0.0030977142 0.0015789057 -0.0006938754 -0.00039051156 0.001473402 0.004536832 0.036348008 0.05734951
0.051746935 0.044846814 0.02668757 0.03416042 0.05652756 0.085319005 0.024210468 0.0027287826
0.016033541 0.026110014 0.023993846 -0.013397812 0.027802635 0.0030719722 -0.0031130402 0.0072861672
0.0055778855 -0.0040321928 -0.0050107613 0.02405393 0.060495496 0.050443128 0.04786055 0.043767117
0.057888806 0.053038355 0.042934682 0.13751772 0.018295161 -0.0038511243 0.101051815 -0.19611779
0.1292888 0.13452272 0.039505374 -0.008437825 -0.05009199 -0.015449204 0.036943555 0.085499994
-0.0071025253 0.0021925815 -0.05222545 0.17116866 -0.007266207 -0.088279575 0.22238792 0.0011129988
-0.043642074 0.1352183 0.11196842 0.16736247 -0.03209525 0.062364776 0.07007983 0.013370266
0.18414822 -0.009447548 0.065432705 -0.002355679 0.0713803 0.044651333 0.15335755 0.070521824
0.027500542 -0.039478853 0.019823797 -0.0041671684 0.011751745 -0.022666825 0.0500931 -0.0066840285
-0.015928127 0.006058246 -0.00022900086 0.027320182 -0.024185257 0.005100238 0.015887598 -0.0009837727
0.0012836666 -0.0036944388 0.00434223 0.005890723 0.00017560943 0.0014762048 -0.029503072 -0.020186154
0.06549172 0.00640083 0.0500214 0.053799387 0.034901936 0.027528955 0.014990849 0.047409087
-0.00510982 0.01142561 0.020865865 0.06044169 0.019357564 0.008186924 0.0132494485 -0.0023819853

rnn.weight_hh_l0 f4 [68, 17]
00000000: a466 cf3d 04a2 6ab9 a866 773d 432f 643d
00000010: 1cc2 d0bc 45e8 13bd f2ff dc3c 39ef 1cbd
00000020: 40b4 283c f545 95bd e333 aabb 8af5 5f3d
00000030: 850f cd3d 99d9 49bc 4304 46bc 03d1 9e3c
00000040: 0f0c 583d d19a cc3d 9c5e 34bc a528 a23d
00000050: 2d8f b83d 8257 03bd 7681 7dbd 92cd 29bd
00000060: 824f abbd b77c 8b3d 09aa 9fbd 8bc7 423c
00000070: 370e e73c 99f0 143e b04f 62bd a1e7 28bd
00000080: c954 80bd a087 673d 73e3 793d 3236 653d
00000090: 2110 0b3e e25a 563d f7ec 22bc 8bb4 83bc
000000a0: bce6 51bc 7818 3dbd 7bdc ca3a a9e8 b2bd
000000b0: dd35 66ba dfc3 753d 0f47 4e3e c684 ff3b
000000c0: c49c 03bc fca6 4ebc 166d b63b c90c e93d
000000d0: 78fb 62bd e0a3 b13d dd53 5d3d 68fd 03bd
000000e0: 7e59 0fbd ff86 debc d01e 27bd 47ff 303d
000000f0: 7d2e 96bd a05a 2e3d 8a96 5abb 5eed 053e
00000100: 776f 15bd 8035 5dbc c1fd abbd a684 523d
00000110: 09e0 01bd 3f95 b5bc e974 743d b604 423c
00000120: afff 28be 6129 2f3c f5b0 c3bc f725 3dbd
00000130: 7456 053d c68d 90bd 118d 6c3d 1323 12bd
00000140: 69f2 0b3e 2e0c f0bb 6d3e b73d 1c14 c7bd
00000150: 128e 863a d90d b23d ad6a 72bd 5a9e 923d
00000160: 0d1c 853d c3f8 f0bc a3fb f1bc b4b7 513c
00000170: f229 34bd 2ad0 ea3b 3afc 8ebd 8b24 473d
00000180: 3f85 033a 3b85 063e 3813 dcbc 5ef5 353c
00000190: 51bd 6ebd f8bc 583d 70a1 2ebd a772 3b3d
000001a0: 3b12 36bb bfde 09bc 8d1e b8bb 4617 973d
000001b0: 7898 cfbd 2eb5 91bd ba94 5c3c 6d43 2b3d
000001c0: ea51 ab3d 5d5c 5bbd 16ea c33d 7afd 94bc
000001d0: e702 ce3c 6e18 41bd 9139 c7bb 73b7 ea3d
000001e0: e85d aa3a 6982 c63c a780 6b3d 96fb e9bb
000001f0: ffe8 12bd 9eb6 1fbc a0f2 92bd d79b 993c
00000200: 0aea c6bd ef43 f33a e6dd 033c 7698 cb3d
00000210: d59f 8b3b 39c8 ddbc 0f67 f7bc 3976 f83c
00000220: 2a15 e63d bb71 a6bd ad60 2f3d 8bf0 d83d
00000230: cc8d d1bd eda8 1bbd 8421 1f3d 0176 b8bc
00000240: d55a 803d 9ab4 97bd 397c 9f3c 097b ec3c
00000250: 33eb 013e d903 17bd c7a1 2bbd 5a50 bbbc
00000260: b2d6 f53b d615 0a3e 9888 243b 4f6b b0bc
00000270: 01e7 693d 929c d83c e9b6 cfbc 0fa6 95bc
00000280: 811a 77bd e118 573b 23f7 cbbd 368a c53d
00000290: 7613 243d 12ec bb3d 9b13 a03c 1748 8abd
000002a0: 0b6a 67bd 7531 613d e000 043e 4bff ecbd
000002b0: a603 733d c16b 1f3d 4c44 853c 5782 9d3b
000002c0: 00f0 0bbe fab0 113d 81bd 14bc 1aa5 40bc
000002d0: fa1d b23b fd66 483d 61fb 953e 36db e6bc
000002e0: 15ec 103d eeaa 00be 72cf 89bc e672 d23d
000002f0: 1837 f6bd 7878 113e 432f ac3d 6b2e acbd
00000300: 7d5e 30bd dd0b 6abd b9ad 64bd 7c83 a83c
00000310: 3703 61bd fb90 563d 2478 f13b 36ef df3d
00000320: c4e1 14bd 320a 66bc 2329 33bd 5e42 d13d
00000330: 373d 6b3d 3d03 06be 7b36 8b3d eca3 a73d
00000340: 391f 51be 6d6a dbbc 3f3f ab3d 0468 16bd
00000350: 3887 0b3d 33c3 47bd 38ee e73c 0283 a83c
00000360: e02f bc3d b0f0 9a3d f15a 0fbe 871c bbbd
00000370: db0f df3c 9c13 d33d 4bea 2ebe 5354 dd3d
00000380: cf41 ed3c 7229 553d c813 94bc 1acd 21bd
00000390: 2340 a5bd ae7e 863d be29 2abe 9871 113c
000003a0: 5a71 9fbd b5af 2c3e 09eb 0cbe 05dc d23c
000003b0: 5ce5 aabc 4988 123e e0da 573e bfcd 3dbe
000003c0: be29 bc3d a88c 0b3e 445a 12be 8052 a63c
000003d0: 432d 9d3d 702f 643b a5d8 993c ec05 cabd
000003e0: 0767 b6bc 4081 d23d 1a37 063e 231b d5bc
000003f0: a4e4 2ebd 0fed eebc 4719 bf3d c0f5 5e3d
0.10126999 -0.00022376335 0.060400635 0.055709135 -0.025483184 -0.03611018 0.026977513 -0.038314078
0.010296881 -0.07288734 -0.0051941737 0.054677524 0.10012726 -0.012319946 -0.012085977 0.019386774
0.052745875 0.099904664 -0.011008885 0.079179086 0.090116836 -0.032065876 -0.06189104 -0.041455813
-0.08364774 0.06810897 -0.077961035 0.011888395 0.02820502 0.14544906 -0.055251777 -0.041236524
-0.062661715 0.056525826 0.061007928 0.055959888 0.13580371 0.052332766 -0.009944192 -0.0160773
-0.012811359 -0.046165913 0.0015477085 -0.08735783 -0.000878183 0.06000125 0.20144294 0.0077978102
-0.008032981 -0.012613054 0.0055672033 0.11379392 -0.0554156 0.08673835 0.054035056 -0.03222409
-0.034997456 -0.02716398 -0.04080087 0.0432122 -0.07333086 0.042566895 -0.0033353888 0.1307883
-0.036483254 -0.013501525 -0.08398009 0.051396035 -0.031707797 -0.022165893 0.059681807 0.0118419435
-0.16503786 0.010691018 -0.02388809 -0.046178784 0.03255315 -0.07058291 0.05775172 -0.03567798
0.13666691 -0.0073256707 0.08947454 -0.097206324 0.0010265729 0.086940475 -0.059183765 0.071591094
0.06499491 -0.029415494 -0.029538935 0.012800146 -0.043985315 0.0071659284 -0.06981702 0.048618834
0.00050171086 0.13136761 -0.026864633 0.011105863 -0.058286015 0.05291459 -0.042634428 0.045763638
-0.0027781862 -0.008414923 -0.0056188763 0.07377486 -0.10136503 -0.071146354 0.013463194 0.04181235
0.08365233 -0.05355488 0.09566133 -0.018187273 0.025147868 -0.04714244 -0.0060798605 0.114607714
0.0012997957 0.024232106 0.05749574 -0.007140587 -0.035866734 -0.009748129 -0.07175183 0.018751068
-0.09712608 0.0018559674 0.00804851 0.09941189 0.004260997 -0.027073013 -0.03020051 0.03032981
0.112345055 -0.08127161 0.042816807 0.10592755 -0.10232124 -0.038002897 0.038850322 -0.022517206
0.06267325 -0.07407494 0.019468414 0.028867261 0.12687378 -0.036868904 -0.04190233 -0.022865463
0.0075024003 0.13484892 0.002510583 -0.021535544 0.057105068 0.026441846 -0.025355773 -0.01826766
-0.06032801 0.0032821225 -0.09959247 0.09645502 0.040057622 0.09175886 0.019540599 -0.06752031
-0.056497615 0.054978807 0.12890959 -0.11572131 0.05932965 0.03892112 0.016267918 0.0048067975
-0.13665771 0.03556917 -0.009078384 -0.011758113 0.0054357024 0.048926342 0.2929335 -0.0281807
0.035381395 -0.12565205 -0.01682255 0.102758214 -0.12022227 0.14206111 0.08407452 -0.08407291
-0.04305886 -0.05714022 -0.055829737 0.02057051 -0.054934707 0.052384358 0.007369058 0.10934298
-0.03634812 -0.014040517 -0.043740403 0.10217737 0.057431426 -0.13087173 0.06797501 0.081855625
-0.20422067 -0.026784146 0.083616726 -0.03672029 0.0340645 -0.04877014 0.028311834 0.020570282
0.09188819 0.07565439 -0.13999535 -0.091363005 0.02722924 0.103064746 -0.17081563 0.10807099
0.028962044 0.05204148 -0.018075839 -0.03950224 -0.08068874 0.06567131 -0.16617486 0.0088771805
-0.07785292 0.16863902 -0.13761534 0.02573968 -0.02086132 0.14309801 0.21079588 -0.18535517
0.09187649 0.13627875 -0.14292246 0.020303011 0.076746486 0.0034818314 0.018780062 -0.09864411
-0.022265924 0.10278559 0.13106957 -0.026013916 -0.042698517 -0.029165773 0.09330993 0.054433584

rnn.bias_ih_l0 f4 [68]
00000000: fa1d 7b3e 9690 983e 6bf4 743e 39a3 973e
00000010: 9629 2a3e c7a1 6d3e de0d 1a3e b3bd 863e
00000020: b51d 893e 75b3 853e 0301 6d3e 5930 803e
00000030: 504a 493e ab2b 383e 4f8d 5d3e 6519 463e
00000040: 1044 7b3e 82e3 7b3e a9ef a73d 9f48 f23d
00000050: 7992 313e 7dfe 773e c1e8 003e ddcc 4b3e
00000060: 4b6e 1e3e 6c12 3e3e 99dd 463e d655 823e
00000070: f7ad 653e 3f61 aa3d 2e7a 6f3e e76f 563e
00000080: 85cd 533e 4f30 3c3e 0d61 68ba 5f34 b13d
00000090: 5248 99bd 551f d03d fd82 f3bc 7992 d6bc
000000a0: 794a be3d 1411 69bd 218b 7f3d 5977 7cbd
000000b0: 65d1 723d 0f7c a93c a4e1 0e3e 6836 fbbd
000000c0: 890e 943b 87c2 dcbd f70f 183d 8406 be3e
000000d0: c0aa c93e 3e91 b73e 4b03 c13e 3332 d43e
000000e0: 3709 a93e a3a0 c43e 1561 c83e 9a5c c03e
000000f0: 77da c23e ced7 d33e e1c6 d63e 1434 893e
00000100: e4a8 d43e 77e5 d83e 4197 bc3e 46eb c63e
0.24523154 0.2979781 0.23921363 0.29616717 0.16617426 0.23206244 0.15044352 0.26316604
0.26780477 0.26113477 0.23144917 0.25036886 0.19657254 0.17985408 0.21635936 0.19345625
0.24537683 0.24598506 0.082000084 0.118302576 0.17341031 0.24218173 0.12588789 0.19902368
0.15471761 0.18561715 0.1942047 0.25456113 0.22429644 0.083193295 0.23386452 0.20941125
0.20683868 0.18377803 -0.00088645593 0.08652567 -0.07484497 0.10162226 -0.029725546 -0.02619289
0.09291548 -0.056901053 0.062388543 -0.061637256 0.059281725 0.020689039 0.13953263 -0.122662365
0.0045183343 -0.10779291 0.0371246 0.37114346 0.39388084 0.35852998 0.37697825 0.4144455
0.33014843 0.38403806 0.39136568 0.3757065 0.380573 0.41375583 0.41948608 0.26797545
0.41535103 0.42362568 0.36834148 0.38851374

rnn.bias_hh_l0 f4 [68]
00000000: 111e 7b3e 2d90 983e f5f5 743e 3da3 973e
00000010: 8721 2a3e 4ea3 6d3e da0d 1a3e f0bd 863e
00000020: ba1d 893e 6fb3 853e 611f 6d3e 5f30 803e
00000030: de39 493e b62f 383e 7c8d 5d3e b91c 463e
00000040: 0c44 7b3e 1ae4 7b3e 9af0 a73d 4470 f13d
00000050: 9092 313e 68fe 773e 2be9 003e d9cc 4b3e
00000060: b76e 1e3e 7212 3e3e d42d 473e 34ad 823e
00000070: aeb0 653e a44e aa3d 634c 703e 2f70 563e
00000080: d6b5 533e 5230 3c3e 12ca ee3d 7333 a93d
00000090: ec45 23bb 0f65 053e f669 f8bb 7de6 a3bd
000000a0: 3296 a53d 530d 9bbd bcc8 b03d fbe6 a43c
000000b0: 3257 b53d 80ea 18bd ff45 cfbc 978a b53c
000000c0: 8aba 12bd 1520 46bc 91ae a13d 6b06 be3e
000000d0: efab c93e 3a91 b73e ca01 c13e 6232 d43e
000000e0: 4309 a93e 1ea1 c43e 2c61 c83e 7b5c c03e
000000f0: 8eda c23e 71d8 d33e e2c6 d63e 8937 893e
00000100: 76a8 d43e 14e6 d83e 3f97 bc3e c9ec c63e
0.24523188 0.29797497 0.2392195 0.29616728 0.16614352 0.23206827 0.15044346 0.26316786
0.26780492 0.2611346 0.23156501 0.25036904 0.19650981 0.1798695 0.21636003 0.19346894
0.24537677 0.24598733 0.08200188 0.11788991 0.17341065 0.24218142 0.12588947 0.19902362
0.15471922 0.18561724 0.19451076 0.25522768 0.22430679 0.08315781 0.23466639 0.20941232
0.20674834 0.18377808 0.116596356 0.08261766 -0.0024913503 0.13026832 -0.007580991 -0.080029465
0.08085288 -0.07570901 0.08632037 0.020129671 0.08854522 -0.03733301 -0.025301931 0.022160811
-0.03582243 -0.01209261 0.07894624 0.37114272 0.39388987 0.35852987 0.37696677 0.4144469
0.3301488 0.38404173 0.39136636 0.37570557 0.3805737 0.4137607 0.4194861 0.26800182
0.41534775 0.42363036 0.36834142 0.38852528

FC.weight f4 [7, 17]
00000000: 5b3e 903e d13a db3f beb9 37be 10f1 d03e
00000010: 2666 fe3e 67a2 40bf 5cea c5bf 8b44 98be
00000020: b457 5ebe 366f b73e d784 13bf c779 0b3e
00000030: 6abe 94be 607b be3e ccda bbbe db17 6f3e
00000040: dc59 4ebe c1e0 8a3e 9e84 c9be 5189 76bf
00000050: 71e7 ed3e dc37 c23e a121 96be 9edc 2b3f
00000060: a69b 81be dc9b 07be 81a7 bdbe a5c7 d33f
00000070: bb05 b5bf 2111 babe ee94 fa3e 56a1 16bf
00000080: a41b 043f 1990 35bd efed 433f ffe0 14bf
00000090: 816a 00be b35d 153f 49bd 813e 1d0a 8a3f
000000a0: 44ac 063e 26a6 d7be 2bca 21bf 2305 ef3e
000000b0: ec45 82be d76f f03e ff08 12bf 50ed a3bd
000000c0: 72b2 c13f a287 4a3e 8027 22bf 32c5 88be
000000d0: 2897 27bf d468 14bc 61cd 17be aa0c 103f
000000e0: 07e1 45bf 70cf 543e 14e9 f03e 5e0e 9a3f
000000f0: 33fb 6c3e bb65 9abe eaba 0e3e 3728 bbbe
00000100: c5c9 d0bf bea2 c03d d5a6 583e 482f 21bf
00000110: c1d4 debe 606d d3be b38b 3fbe 7317 c7bf
00000120: d499 e43d 81cd 093e f67f 2d3e 9f45 3abf
00000130: 5d9a 29bf 260e 59bf 26f7 04bf 066b 2b3e
00000140: 190e 26be baa3 553e a8fc ebbe b12b b2bf
00000150: 9a1d 00bf 2bb3 29bf 5524 2b3c 087b 9a3f
00000160: 04a4 76be d8b6 2c3f 88db 5c3e 4d63 3c3e
00000170: 2a15 613f bfad 0ebf 0c0d aabe 7886 403e
00000180: 72f8 063f bcc1 c8bd 741a 923e 305c 443d
00000190: a53a 2e3f 18e0 e83f f375 1fbf 1827 69be
000001a0: 7756 133e 4895 083f b304 d1bf 9fdc 5f3e
000001b0: 643b bc3e 2069 493f cd63 ebbd 8342 fd3e
000001c0: 0c58 ccbe 8dfd 913e 032b f93e 6ec5 3c3f
000001d0: 793e 3fbf 4bdf b23e a51e 6bbf
0.28172573 1.7127324 -0.17941949 0.40808916 0.49687308 -0.75247806 -1.5462146 -0.29739794
-0.21713144 0.35827035 -0.5762457 0.13620673 -0.29051524 0.37203503 -0.36690366 0.23348944
-0.20151466 0.271246 -0.3935899 -0.9630328 0.46465638 0.37933242 -0.29322532 0.6713351
-0.25314063 -0.1324305 -0.37041858 1.6545302 -1.4142374 -0.36341193 0.4894175 -0.5883993
0.51604676 -0.044326875 0.7653493 -0.58155817 -0.12540628 0.583461 0.25339726 1.0784336
0.13151652 -0.4211895 -0.6319911 0.46683607 -0.2544397 0.46960327 -0.57044977 -0.08004248
1.5132582 0.19778302 -0.6334152 -0.26712948 -0.6546502 -0.009058196 -0.1482444 0.56269324
-0.7729649 0.20782256 0.47052824 1.2035635 0.231427 -0.3015574 0.1393849 -0.3655412
-1.6311575 0.094060406 0.21157391 -0.6296277 -0.43521693 -0.41294384 -0.18705635 -1.5554031
0.11162153 0.134573 0.16943344 -0.72762483 -0.66251165 -0.84787214 -0.5193962 0.16740045
-0.16216315 0.20863238 -0.460912 -1.3919584 -0.5004517 -0.66289014 0.010445674 1.2068796
-0.24086004 0.674665 0.2156812 0.18397255 0.8792292 -0.55733865 -0.3321308 0.18801296
0.5272285 -0.09802577 0.28535807 0.04793948 0.68058234 1.8193388 -0.6228935 -0.2276882
0.14388452 0.53352785 -1.6329559 0.21861504 0.3676406 0.78676033 -0.11493645 0.49464807
-0.39910924 0.28513756 0.48665628 0.73738754 -0.747047 0.34935984 -0.91843635

FC.bias f4 [7]
00000000: 309f bebe de9b dabe c270 a6be ee12 abbe
00000010: 88f3 a7be 169c cfbe 5b44 04bf
-0.37230825 -0.42697042 -0.32507902 -0.3341288 -0.32802987 -0.40548772 -0.516668
