data/parameters/parameters-18.pt (torch_old, 30840 bytes, 6 tensors)

rnn.weight_ih_l0 f4 [68, 89]
00000000: 949b cdbd 88e9 873b aedc 89bb d421 15be
00000010: 8b37 f4bc 79c6 343e 210e a03d b478 d43d
00000020: 1289 333e 9c84 6f3e 8fe5 e1be aa89 593d
00000030: 339f 00be 69b8 bf39 84a4 823d 647a 8dbe
00000040: 9ae5 75bc fd59 353e 7e0a 6ebe 08f6 1d3d
00000050: f9f0 1e3e 0ab6 f9bc ad9f 4ebd cd3d 9bbd
00000060: a13a 553e 23b6 1b3e b775 d93d 8bd5 4dbe
00000070: 7521 0c3e d65f 7b3d 88f5 093e f2e2 ee3d
00000080: 9394 e4bc 1ab4 29be 09f4 2abe 0b04 5abd
00000090: 47a9 3c3d e2d9 b2bc 287a 723b 5d66 9a39
000000a0: cab6 983c e70a 433e f3d8 03be dd1f 5abd
000000b0: e7fa 67be 8fc1 6abd cb7e 263b 1a9d 743d
000000c0: ebce ad3c 9196 363d 80c3 443c 3b66 ee3d
000000d0: e000 70bd c40e dfbc 5268 e138 1c31 953c
000000e0: 03d0 163d f3ec 1b3d 0f29 9b3d 2c10 dc3c
000000f0: f054 69bd e547 08bd 6a93 693d 3392 14bd
00000100: 9850 dd3a bb81 2c3d 74ff 36bd 5d55 943c
00000110: 7120 313c 6dde 5f3d 8ca7 4c3c 3259 a63c
00000120: dd1e 8a39 2638 903d f7b0 483d c610 c63c
00000130: e980 ba3d 54e9 d63c 657d 023d 6d10 333c
00000140: 810e a03a 8bca 013d 4423 60bd 0552 223d
00000150: 20e2 0d3c 0987 6d3e cf50 cabd 782b 0ebe
00000160: 2742 943d 9b5a 463d afe7 bf3c e4b4 fd3d
00000170: 7e1a 1f3d 7fdc 97ba 8faa ae3c 2eef b93b
00000180: 8407 0cbd e309 f33c 2bfc ba3d 632e cbb9
00000190: bf08 863d bf64 143d 19af 983d 2f5d a1bb
000001a0: f91e 1fbd 2827 0a3e 66fc 30bd 7fb6 8c3b
000001b0: 7f98 a43d b3aa 0abd 1b8d 2b3c 68d4 a93d
000001c0: 08df 06bc 861e 733e eab6 393e 18df 3e3e
000001d0: 708d c93d 46c4 4f3e df29 183e ba3c 8b3e
000001e0: 2d47 a83d aeec 95bc 2b38 48bc a45a 0e3d
000001f0: dd8e 143d 5271 393d bf82 dc3c 3f5b 9f3d
00000200: 8266 293c a675 9a3c 3211 0b3d 50a1 753d
00000210: d5c6 773c c967 273d acde 2abc e1bc b53c
00000220: b1aa 0e3c 3497 bb3c 0f7c b2bc 3503 223d
00000230: 6a63 ec3b 02b5 ed3c 8a14 50bb ef5b 023c
00000240: 3556 083c e94e 1cbb 6e58 193c 320f 6ebb
00000250: ea79 f83b afb2 003d 6c14 233d fdc7 f63c
00000260: 175d 123d 67e1 073d 04d0 4a3d 9e3e 243d
00000270: d4c8 983d aa29 503d 4173 843d e4ae 493d
00000280: 78d4 803d 8152 6f3c 6e3f 563d 0a7d 4c3d
00000290: cd12 5f3c b197 093d 1cf4 d93c 5fae 6c3d
000002a0: 05d3 053c 3441 103d 7209 993c 8db3 883d
000002b0: d24c 833d b2ba b33d f1c8 f43b cab2 593d
000002c0: 16a9 413d d23d b43d 868c 1abc 89db e73d
000002d0: 0945 503e 7e91 93be 61c1 643e 2eaa d8bd
000002e0: 2b95 17bc 7689 233e 09c3 163e 5de8 273e
000002f0: 915e 8a3e 476d a2be 9b80 b23b 38e8 99be
00000300: 9cf3 cfbd 75d1 fabd 0d9c 2d3e d310 153e
00000310: 6fc4 86bd bc07 8a3d 9559 a73d c7bb 573c
00000320: bd14 533e 44df 323d 28c8 a63e 47a9 a23d
00000330: 8a0e 843d 373c 253d 1aba 723d d544 6ebc
00000340: 31ef 15bc 279d 063e 20cd a2bc b4a3 4dbd
00000350: 391e 1ebc 22d1 753d 4911 d03d 84a7 da3c
00000360: 9152 9a3c dc71 dcbc 212f 8b3d 9176 f53d
00000370: d065 153e 2380 6d3c c93d 44be f5ae 3ebd
00000380: 0d73 3b3d b5d7 cabc 0811 723a 4df9 973d
00000390: e60d 06be bcf7 bb3a 28a0 0dbc a02b 70bc
000003a0: b7a8 3a3c e454 e6bb 2acf 85bc e790 233d
000003b0: b71c 19bc 9876 ba3c a69e 233e f285 3a3c
000003c0: 8182 aabc ca0c 833d ebb0 833b db9c b03b
000003d0: 6734 d73d 682a fdba 831b d7bc 48ef 1e3d
000003e0: 6688 9f3c e9b8 fb3d 2f30 563d 64da 9d3d
000003f0: ab16 e33c 3ad8 c93c 0b72 143c 1eff 4e3c
-0.1003944 0.004147712 -0.0042072153 -0.14563686 -0.029811641 0.17653836 0.07815195 0.10374585
0.17532757 0.2339043 -0.44120452 0.053109802 -0.1256073 0.00036567755 0.06379035 -0.2763244
-0.015008355 0.17710109 -0.2324619 0.03856471 0.15521611 -0.03048231 -0.050445247 -0.07580147
0.20823146 0.15206198 0.106181554 -0.20100991 0.13684638 0.061370693 0.13472569 0.1166438
-0.027902877 -0.1657261 -0.16694655 -0.053226512 0.046059873 -0.02183241 0.003699908 0.00029449436
0.018641848 0.19047128 -0.12875728 -0.053253043 -0.22654305 -0.057313498 0.0025405164 0.059720136
0.02121683 0.044577185 0.012009501 0.11640593 -0.058594584 -0.02722872 0.00010748267 0.018211894
0.03681947 0.03806777 0.07576191 0.02686318 -0.05696577 -0.03327169 0.05702535 -0.03627224
0.0016884981 0.042115908 -0.044677213 0.01810711 0.010810957 0.05465548 0.012491118 0.020306204
0.00026344406 0.070419595 0.04899689 0.02417792 0.09106619 0.026234306 0.031857867 0.010929209
0.0012211354 0.0316873 -0.054721132 0.039629 0.008659869 0.23196043 -0.09878694 -0.1388377
0.0723918 0.04842625 0.023425905 0.12388018 0.038843624 -0.0011586099 0.021321563 0.0056742644
-0.034186855 0.0296678 0.091301285 -0.00038753738 0.06544637 0.03622889 0.07455272 -0.0049244384
-0.038847897 0.134915 -0.043209456 0.004294216 0.08036899 -0.033854198 0.010470654 0.082924664
-0.008231886 0.23742113 0.18136182 0.18639791 0.0984143 0.20289716 0.14859723 0.27194768
0.08216701 -0.018301334 -0.012220423 0.03475441 0.036269058 0.045274086 0.026917813 0.07781076
0.010339381 0.018854927 0.033951946 0.059968293 0.015123089 0.04087046 -0.010429066 0.022184791
0.008707688 0.022899248 -0.021787671 0.03955384 0.0072139995 0.029016975 -0.0031750523 0.007956489
0.008321335 -0.0023850745 0.009359462 -0.0036324975 0.0075828927 0.031420406 0.039814398 0.030124659
0.03573331 0.033173945 0.049514785 0.04009878 0.0746018 0.050820984 0.064672954 0.049239054
0.06290525 0.014607073 0.052306585 0.049923934 0.013615322 0.03359193 0.026605658 0.05778348
0.008167987 0.035218433 0.018681262 0.066748716 0.06411137 0.08775844 0.007470243 0.053149022
0.047280394 0.08800854 -0.009432917 0.1132117 0.20338835 -0.2882194 0.22339393 -0.10579334
-0.009251873 0.15970406 0.14722838 0.16397233 0.27025273 -0.31723997 0.00544746 -0.3005998
-0.10153887 -0.12246982 0.1695406 0.14557199 -0.065804355 0.067397565 0.08171383 0.013167328
0.2061338 0.043669954 0.32574582 0.07942443 0.064480856 0.04034063 0.05925951 -0.014542778
-0.009151266 0.13145886 -0.019873202 -0.050204948 -0.00965076 0.060013898 0.10159547 0.026691206
0.018838199 -0.026909761 0.067960985 0.11985505 0.1458962 0.014495882 -0.19164194 -0.04655357
0.045764018 -0.02476106 0.0009234105 0.07420597 -0.1309124 0.0014340798 -0.008644141 -0.0146588385
0.011392764 -0.0070291627 -0.016334135 0.03993311 -0.009345225 0.022761628 0.15978488 0.011384474
-0.020814182 0.06398924 0.004018893 0.0053897924 0.10508042 -0.0019315006 -0.026258236 0.038802415
0.01947422 0.12291128 0.052292045 0.0770767 0.02772077 0.024639238 0.009060393 0.012634067

rnn.weight_hh_l0 f4 [68, 17]
00000000: 9043 ce3d 2cfd 21be e14e 07be 03cd 85bd
00000010: c475 163c 5fe5 8cbd baa6 51bd ed01 6b3e
00000020: b6b9 e9bc 32e5 69bc 4208 75bc d8b7 38bd
00000030: 01bf e2bd a73b 963c e85a 213e 1283 58bc
00000040: d274 b13c 7eb0 643d de9a 05be 0be7 833d
00000050: 2e62 b93b ca92 1dbd 05dd 2d3d 988a a6bc
00000060: f525 14bd d451 09bc 6c5c 083d 0e3a 62bd
00000070: fb72 f93c 82fb 1c3c 3da1 423d 4bab 1f3d
00000080: 6d2f 813d 5064 7c3d 25ee 943c 2d32 84bd
00000090: cc05 cc3c 6e07 3abd 9666 843d f0c5 a0bc
000000a0: a39e eabc 107c 1ebb 230f 4e3d 9422 fe3d
000000b0: 180a 9d3d b219 3ebd 16ae 8f3d 9620 08be
000000c0: 49c3 2f3c cacf d93d e5ac 83bd b606 91bc
000000d0: 830e b1bd f81c 89bb 493d 1abd 22a8 0e3e
000000e0: 0820 03be e5a2 a83d c9b1 c33c 20cd 56bb
000000f0: 24cf 02bb cf23 dd3d 680f 51bd 08e4 ac3d
00000100: 0aa8 adbd 1dee 573d 524f 82bc 0748 b93c
00000110: 07ca 793c df9e a23d 9cd6 5abd ff6c 18bc
00000120: aa89 03be 774a 01bd c886 b63d 1a9d bfbd
00000130: f078 093e eec6 a138 3bd1 dc3c c23a a4bd
00000140: 38ba 19bd 3353 953d 9f5f 633e 0888 443d
00000150: 9f63 29bd da85 153d 15c8 c0bd 5491 d33d
00000160: 5fc2 d0bc 2481 bfbd 992c a63d a1d1 d6bc
00000170: b3b0 ce3a 778a 913d 28e1 3b3d 1ccc 9ebd
00000180: bd2e 943d 951e 373d bef4 633e f8ff 1dbb
00000190: 4c3a d63c d90e c53d bc35 2ebe 2116 e93d
000001a0: 142a 8bbd c10d 823b c8ea 50be e545 023d
000001b0: 9da1 d43d 1e7e a2bc 124d 95bd e7fd 7e3d
000001c0: 08c5 56be c1b2 f0bd 9245 bebd 1768 dcbd
000001d0: 2def 5e3d 1f3b 0cbd 0219 c23c 4664 523d
000001e0: 34f5 1cbe 3b3b 0b3e 89c9 e6ba a1e2 3bbd
000001f0: 8424 713e 063a 033e 3577 07bd e7eb 183d
00000200: 1d19 98bc 7df1 96bc ac06 623b 66fc 333e
00000210: d97c b33d 754d 913d ff68 69bd 4b7b 323a
00000220: e9cc 9c3d b622 bebd 1452 0e3e 001d 6a3c
00000230: 062d ed3d f73a 473d 4719 85bc 7d41 3ebd
00000240: f597 7c3d 750a d03c 3e3e 35bd e137 b9bc
00000250: e8f9 013e 257e d23c 296d 7dbc 679e 5c3c
00000260: 8749 e23b 9a93 89bc d60c e8bd e173 413d
00000270: b899 61bd 327a 823d 6a76 1e3d 4c3f 1a3d
00000280: 4dc4 8bbd c2b3 a8bc babe 9d39 f67c 313c
00000290: e215 cd3b d83b 4d3d 359b 923d a959 a53d
000002a0: a151 bbbc 9465 423c 62a1 8a3d 2500 30bd
000002b0: d843 373e d7f7 503d 8b8d 84bc efbb 823d
000002c0: 57d3 e2bb 2a30 e63c 90f4 5a3a a101 883d
000002d0: f663 0fbd 4ae3 80bc 1650 aa3d b887 223d
000002e0: 08a4 26bd f560 b9bd a68b 92bd a799 ce3d
000002f0: 1808 933b 7e29 9f3d 3bf3 723d 8c0e 62bd
00000300: be34 a13b b415 5fbc 260d c2bd d634 633c
00000310: a00e 693d f372 223d aefb 403e 7c61 813d
00000320: 1464 823d a451 63bd 0507 8fbd 8c15 19bd
00000330: 6628 4fbd 4a0c e8bd 67a4 bb3d a678 0cbd
00000340: 1efe 4e3e 57f1 dcbd c070 78bc 8dd7 913d
00000350: 9681 ad3d 0e56 b4bd 6bbe 61bd 59a5 aebb
00000360: 3fa4 ed3d f5ec 3dbc d55c d83d 1f54 59bc
00000370: 77e2 3a3e 9796 77bd 96a3 85bc 03ce fe3b
00000380: 7390 2ebd 226c 8b3d e88e 00be f76f 7abd
00000390: 9473 0fbd bd4b f63d 5fcf 0abd 6c50 d7bd
000003a0: cf03 5ebc 7f1b bfbd fd2b dab9 8ac1 75be
000003b0: 689d 2dbd 0ea0 31be 4a7c 1bbd 19d7 ccbd
000003c0: 5196 89bd 56e5 203d 1bad fb3d 04a4 813d
000003d0: aa6e 183e a8bd 0bbe bdb5 31bd fdf8 34be
000003e0: dfc6 c63c c8c8 97bd 945d 023e e3e6 b0ba
000003f0: 3721 07bd 5e52 3bbd 0e4d 043e 83c6 103d
0.1007148 -0.15819234 -0.13213684 -0.065332435 0.009183351 -0.068796866 -0.051184393 0.22949953
-0.028530937 -0.014275836 -0.014955582 -0.045097202 -0.11071587 0.018338991 0.15757334 -0.013214843
0.02166215 0.05583238 -0.13047358 0.06440552 0.005657456 -0.038470067 0.04244711 -0.020329759
-0.03616901 -0.008381326 0.033291265 -0.055231147 0.030450335 0.0095814485 0.04751705 0.038981717
0.06307874 0.061619103 0.018179962 -0.06454883 0.024905108 -0.04541724 0.06464879 -0.019625634
-0.028640097 -0.0024182834 0.050307404 0.12408939 0.07667941 -0.046411224 0.07015626 -0.1329368
0.010727712 0.10635336 -0.064294614 -0.017703395 -0.08645346 -0.0041843615 -0.037656102 0.13931325
-0.12805188 0.08234195 0.023888486 -0.0032776073 -0.0019959891 0.107978456 -0.051040083 0.08441931
-0.084793165 0.052717317 -0.015906963 0.022617353 0.015245921 0.079404585 -0.053427324 -0.00930333
-0.12845483 -0.031565156 0.08912426 -0.093561366 0.1342504 7.714132e-05 0.026955238 -0.0801902
-0.037531108 0.072912596 0.22204445 0.047981292 -0.04135477 0.036504604 -0.094131626 0.103304535
-0.025483308 -0.093508035 0.08113975 -0.026223006 0.0015769213 0.07106488 0.045869023 -0.077537745
0.07235477 0.0447069 0.2226133 -0.0024108868 0.026150845 0.096219726 -0.17012686 0.11381174
-0.06795135 0.0039689247 -0.20402062 0.031804938 0.10382388 -0.019835528 -0.072900906 0.06225386
-0.20973599 -0.117528446 -0.09290613 -0.10762041 0.054427315 -0.03423607 0.023693565 0.05136516
-0.15327913 0.13596813 -0.001760767 -0.045870427 0.23549086 0.12815103 -0.03307267 0.03733435
-0.018566662 -0.018425697 0.003448884 0.17576751 0.08764047 0.07094852 -0.056984898 0.0006808533
0.07656271 -0.09283964 0.13898498 0.014289141 0.11580853 0.048640218 -0.016247405 -0.046449173
0.061668355 0.025395611 -0.044248812 -0.022609653 0.12692988 0.025694916 -0.01546792 0.0134655
0.006905738 -0.016794015 -0.11330573 0.04722965 -0.05507824 0.06370963 0.038687147 0.03765802
-0.06824551 -0.020593528 0.00030087476 0.010833016 0.006258712 0.0501059 0.0715851 0.08073742
-0.022866072 0.011865038 0.067690626 -0.042968888 0.17896974 0.05101761 -0.016180774 0.06383502
-0.0069221663 0.028099138 0.00083524827 0.06640936 -0.03500744 -0.01573338 0.083160564 0.039680213
-0.040683776 -0.09051696 -0.07155542 0.100879006 0.004487049 0.07771586 0.059313994 -0.055189654
0.0049196174 -0.013616014 -0.09475164 0.013867578 0.056898713 0.039660405 0.18846008 0.06317422
0.06366745 -0.05549778 -0.06983761 -0.037374064 -0.050575636 -0.11330469 0.09162217 -0.034294747
0.20214126 -0.107882194 -0.0151636 0.07121191 0.08471982 -0.08805476 -0.055113237 -0.0053297696
0.11603593 -0.0115921395 0.10564581 -0.013264685 0.18250452 -0.060446348 -0.016313355 0.0077760234
-0.042618226 0.06807734 -0.12554514 -0.061141934 -0.035022333 0.12026165 -0.03388917 -0.10513386
-0.013550713 -0.09331416 -0.00041612974 -0.2399961 -0.042386442 -0.17346212 -0.03796033 -0.10001964
-0.06718124 0.03928121 0.122888766 0.063301116 0.14885965 -0.13646567 -0.04338621 -0.17673106
0.024264751 -0.07411343 0.1273101 -0.0013496544 -0.03299066 -0.04573285 0.12920019 0.035345566

rnn.bias_ih_l0 f4 [68]
00000000: fcdd aa3c 6330 863e 6a0d 053e 80fb d93d
00000010: 004d e8bd 55d6 6b3e d1f3 863d 21db 953e
00000020: 7660 853e 440d 4d3e 5c1d a43e 5633 893e
00000030: 5d25 723e 4a32 323d 260f 4cb9 d7cb 793e
00000040: d772 893e 4d37 613e 7c2e dc3d 8815 2d3e
00000050: 35f3 953e 8cc7 563e cdfc 323e 6f54 303e
00000060: ed9a 683e 0d25 8a3e 46a3 0d3e 4c59 ab3e
00000070: f408 113e bedf 393e d7f4 013e 4131 5a3e
00000080: 8f02 163e 259a 3e3e 3977 9e3d a9b2 1e3d
00000090: 818e 483d 5017 b43c baf8 9cbc 0255 aeba
000000a0: 9813 e9bd e6d3 8c3d a8e7 19bd 74a0 813d
000000b0: 5917 9d3d dd8c 273d 2638 d1bc 1d17 0c3d
000000c0: 944c 71bd 6890 3a3d 3afa 77bc 4b21 923e
000000d0: 334b c53e 0724 b13e 9521 c73e 4069 9b3e
000000e0: b583 b83e 24bb 6a3e 67bb d93e 3084 d03e
000000f0: ac9c 7e3e 062e ec3e f3b3 b23e d194 c83e
00000100: 2d74 363e a406 b03e 7457 a53e c0ab c03e
0.020857804 0.2620879 0.12993398 0.10643673 -0.113428116 0.2303098 0.06589473 0.29268745
0.26050156 0.20024592 0.3205365 0.2679698 0.23647065 0.04350499 -0.000194606 0.24394165
0.26845428 0.21993752 0.10751054 0.16902745 0.29287115 0.20974559 0.17479248 0.17219709
0.2271535 0.26981393 0.13831815 0.33466566 0.14163572 0.18151757 0.12691055 0.21307851
0.14649414 0.18613489 0.07737584 0.038744602 0.048964027 0.021983773 -0.01916157 -0.0013300481
-0.1138069 0.06876354 -0.03757444 0.06329432 0.07670469 0.040905822 -0.025539469 0.03420173
-0.05891092 0.045547873 -0.015135342 0.28541026 0.38533935 0.345978 0.3889281 0.30353737
0.36037984 0.22922951 0.4252579 0.4072585 0.24864453 0.46128863 0.34902915 0.39176038
0.17817755 0.34380066 0.32293284 0.37631035

rnn.bias_hh_l0 f4 [68]
00000000: 64df aa3c 6230 863e ad0c 053e cdfa d93d
00000010: c74c e8bd 4bd6 6b3e d1f3 863d 20db 953e
00000020: 7560 853e 420d 4d3e 5d1d a43e 5633 893e
00000030: 5e25 723e aa30 323d 3d19 4ab9 d9cb 793e
00000040: d772 893e cd37 613e 0f2e dc3d caac 2c3e
00000050: eaf2 953e 06c6 563e c9fc 323e 2c5d 303e
00000060: e83f 683e 9424 8a3e 2aa3 0d3e 4d59 ab3e
00000070: f608 113e 18e0 393e b1f4 013e 4731 5a3e
00000080: 3301 163e 249a 3e3e fc5b d73d 1f78 093d
00000090: 00dd 7abd fd10 dcbc c002 88bd 872b 2a3d
000000a0: 899c 3b3d dcf1 2dbe e84b 5a3d aaba 13bd
000000b0: d5d7 303c d4ce 203d 160f 263c dfc6 5a3d
000000c0: afc3 b8bc 3734 0b3a ecd2 27bc 5221 923e
000000d0: 334b c53e 0624 b13e 9521 c73e 3f69 9b3e
000000e0: b683 b83e d5ba 6a3e 61bb d93e 3184 d03e
000000f0: a99c 7e3e 012e ec3e f3b3 b23e c494 c83e
00000100: a574 363e a406 b03e 7357 a53e beab c03e
0.020858474 0.26208788 0.12993117 0.106435396 -0.11342769 0.23030965 0.06589473 0.29268742
0.26050153 0.20024589 0.32053652 0.2679698 0.23647067 0.04350344 -0.00019273623 0.24394168
0.26845428 0.21993943 0.107509725 0.16862789 0.2928689 0.20973977 0.17479242 0.17223042
0.22680628 0.26981032 0.13831773 0.3346657 0.14163575 0.18151891 0.12690999 0.2130786
0.14648895 0.18613487 0.105155915 0.033561822 -0.06124592 -0.02686357 -0.066411495 0.041545417
0.04580358 -0.16986793 0.053295046 -0.03606669 0.010793646 0.039259747 0.010135433 0.053412315
-0.022554247 0.000531021 -0.010243159 0.28541046 0.38533935 0.34597796 0.3889281 0.30353734
0.36037987 0.22922833 0.4252577 0.40725854 0.24864449 0.46128848 0.34902915 0.39176
0.17817934 0.34380066 0.3229328 0.3763103

FC.weight f4 [7, 17]
00000000: 530b 22be 0220 223f 5288 013e a194 92be
00000010: e1ac 2d3f 4753 073f b0d5 c9bf f331 25bf
00000020: ed8c 28bf 2e01 77be c0ab 25c0 9aa9 0dbf
00000030: 673d 743e 6750 7f3d 2d98 d63e ba06 ff3e
00000040: d76f e6be b250 88bf 9e78 223f 030a 173f
00000050: f77e 9dbe 3c85 dbbf c5c0 283f 191c 153e
00000060: eb40 42bf 76ab 1540 3414 e93d a405 1c3f
00000070: 3758 1fbf 4fd8 b13e 8229 893d 3395 fa3e
00000080: 51c5 223f 2077 cbbe 0510 d4be 49c9 f13d
00000090: a02d f73e ac54 fb3f 1cec f33e b1b2 27c0
000000a0: 7dba 9c3e dc47 b1be fa9b b2be b7bd 08be
000000b0: 8855 d33e 18aa 0abf 3270 ed3e 4d33 0ebe
000000c0: 9f7e d73e 1231 673e 890e 3dbe b946 083f
000000d0: 22c1 d2bf b7ee 913e 8ac2 e2bd 0eaf 3d3e
000000e0: f4a3 1d3f 5898 fe3e 2eef 1cbf 8022 f7be
000000f0: 8a8a 8fbd c6f7 073f c298 2bbf bc3c 1fc0
00000100: fe08 f8bd a248 d33e a365 b03e 55ea b5be
00000110: 0ab7 93be 019b d53e d76e 11bf e688 60be
00000120: cd72 fb3e 238d f83e d3c3 f93e 15c8 1dbf
00000130: 3bdd 05bf c5dc 81bd 7585 113f 9641 8abe
00000140: 5a83 993e 1044 90be 2b7f 0ec0 ba03 da3e
00000150: 9bbb 0940 3629 ba3e 3fc9 003f 20f8 aabf
00000160: 9cf5 c3be 46e3 183e 6f8d f33e 618a 613e
00000170: 61f8 3640 7095 d7be a948 eb3d 79c6 283f
00000180: 6190 0abf f370 c83e a194 fb3e f0bb c93e
00000190: c239 fc3e 5a67 08bf 9580 d0be bf06 093f
000001a0: 529f 98be bb71 11bf 193b a63e 828f 743e
000001b0: bf82 343e 34bd 23bf 77df bbbe 0c11 41bf
000001c0: 234a 283f ad5f 1540 a405 303e 1d1b 053d
000001d0: bb78 823e d2d0 07c0 1222 24bf
-0.15824632 0.6333009 0.12649658 -0.2862902 0.6784192 0.52861446 -1.5768337 -0.6452934
-0.65840036 -0.24121544 -2.5886078 -0.55336916 0.23851548 0.062332537 0.41912976 0.4980982
-0.45007202 -1.0649626 0.634653 0.5899965 -0.3076093 -1.7150035 0.6591914 0.145615
-0.75880307 2.3385901 0.113808066 0.60946107 -0.6224398 0.34735343 0.0669737 0.48941955
0.6358233 -0.39739323 -0.41418472 0.1180597 0.48276997 1.9635215 0.47641075 -2.6202815
0.3061103 -0.34625137 -0.34884626 -0.1335362 0.41276193 -0.5416579 0.4637466 -0.13886757
0.42088792 0.22577313 -0.18462576 0.53232914 -1.646519 0.28502437 -0.11072262 0.1852381
0.615783 0.49725604 -0.6130246 -0.4826851 -0.07008846 0.5311245 -0.67029965 -2.488082
-0.1211109 0.41266352 0.34452543 -0.35530344 -0.28850585 0.4171982 -0.56809753 -0.21927223
0.49111024 0.4854518 0.48782215 -0.61633426 -0.52290696 -0.063409366 0.56844264 -0.27003163
0.29983026 -0.28176928 -2.2265117 0.42580968 2.1520755 0.36359566 0.5030708 -1.3356972
-0.38273323 0.14930448 0.47568843 0.22025444 2.8589098 -0.421062 0.11488468 0.65927845
-0.54126555 0.39148673 0.49136832 0.39401197 0.49262816 -0.532827 -0.407231 0.5352592
-0.29809052 -0.56814164 0.32466963 0.23882869 0.17628 -0.63960576 -0.36693928 -0.75416636
0.65738124 2.3339646 0.17189652 0.03249656 0.25482735 -2.1221204 -0.6411449

FC.bias f4 [7]
00000000: 2f8e e5be 9001 f3be 24fb adbd 3c2f fbbe
00000010: 5ff3 09bf b505 0bbe 14e3 08bf
-0.4483504 -0.4746213 -0.08495167 -0.49059474 -0.5388698 -0.13576396 -0.53471494
