data/parameters/parameters-27.pt (torch_old, 30845 bytes, 6 tensors)

rnn.weight_ih_l0 f4 [68, 89]
0	0x3dc94ec7	0.09829479
1	0x3d70f3fe	0.05882644
2	0xbee536c1	-0.44768336
3	0x3e2cc763	0.16872935
4	0x3cd14ad2	0.025548372
5	0x3d48fff8	0.049072236
6	0x3e16b9a9	0.14719261
7	0xbc8ed9f7	-0.017437918
8	0xbde08199	-0.10962219
9	0x3d341a5e	0.04397046
10	0x3d488209	0.048952136
11	0xbdedae00	-0.116054535
12	0x3e5a0d9d	0.21294256
13	0x3d10dbea	0.035365976
14	0x3da72357	0.081610374
15	0x3da43c93	0.08019366
16	0xbe6c526c	-0.23078316
17	0x3dbc4797	0.09193342
18	0x3b86903d	0.00410655
19	0xbe347fe8	-0.17626917
20	0x3e4451ad	0.19171782
21	0xbe1148d3	-0.14187936
22	0xbf0428b5	-0.51624614
23	0x3eadebae	0.33968872
24	0x3e4766a4	0.19472748
25	0x3e9ce70f	0.30645034
26	0xbf0ae8c1	-0.54261404
27	0x3e932e5c	0.28746307
28	0x3e1e2af2	0.1544607
29	0x3e95a259	0.29225424
30	0x3e702977	0.23453318
31	0x3b878d94	0.0041367505
32	0xbd131765	-0.035910983
33	0x3cfcb731	0.030849071
34	0x3e2480de	0.16064784
35	0x3d1fcd70	0.03901428
36	0xbcf36230	-0.029709905
37	0xbb752540	-0.0037406236
38	0xbbda752c	-0.0066668
39	0x3d80d4d3	0.06290593
40	0xbe4c4ea4	-0.19951874
41	0xbd8fdc2e	-0.07024418
42	0x3d539f45	0.051665563
43	0x3d14a63c	0.036291346
44	0x3e711064	0.23541409
45	0x3d8df9aa	0.06932385
46	0x3cd56f83	0.02605415
47	0x3b8839f9	0.0041573015
48	0x3e939661	0.28825668
49	0xbb10adb6	-0.0022076196
50	0x3d9b4503	0.07581522
51	0xbd542cd5	-0.051800568
52	0x3dc6c3c6	0.097053096
53	0x3d77b022	0.060470708
54	0x3d21bf08	0.039488822
55	0x3dc073de	0.093971
56	0x3d071eb5	0.03298827
57	0xbd0e1f80	-0.03469801
58	0x3cca0938	0.024662599
59	0xbc25591d	-0.010092047
60	0xbd3e536c	-0.046466276
61	0xbb8f5a47	-0.0043747756
62	0xbd25c438	-0.040470332
63	0x3d8c4ae0	0.06850219
64	0xbd84befb	-0.06481739
65	0x3a7e55fb	0.0009702143
66	0xbbf94f16	-0.0076083047
67	0xbc4c6d1a	-0.012477184
68	0x3d7df360	0.06199968
69	0xbc1e3ab1	-0.009657548
70	0x3e5c83a1	0.21534587
71	0x3d9a884c	0.07545528
72	0x3d40dbb6	0.047084533
73	0x3d842b4a	0.06453569
74	0x3d32e48b	0.043674987
75	0x3d7ce529	0.06174198
76	0x3c68c989	0.014208206
77	0x3e0b0514	0.13576156
78	0x3d80c71c	0.06287977
79	0xbc649e69	-0.013953784
80	0x3d66b205	0.056322116
81	0x3d0e6113	0.034760546
82	0x3d580664	0.05274047
83	0x3dea4fc4	0.11440995
84	0xbe1fa2d5	-0.15589459
85	0x3d618de6	0.055066966
86	0x3cdd15c5	0.02698792
87	0x3e02f166	0.12787399
88	0x3e2d1b6f	0.16904996
89	0x3d1bb51b	0.038014513
90	0x3d236030	0.039886653
91	0x3cc7ff64	0.024413772
92	0x3dd9d0e6	0.10635547
93	0xbd618be3	-0.055065047
94	0x3d39e7c7	0.045387056
95	0xbbe4320a	-0.006963973
96	0x3db93b73	0.09044542
97	0x3c707fc4	0.014678899
98	0xbd0ee126	-0.034882687
99	0xbd050e6c	-0.032484457
100	0x3de0c5fe	0.10975264
101	0xbd41776c	-0.04723303
102	0x3db9dabc	0.090749234
103	0x3bf647d8	0.0075158887
104	0xbcde08c5	-0.027103791
105	0x3d12e643	0.035864126
106	0x3e000991	0.1250365
107	0x3e0aa981	0.13541223
108	0xbcf31097	-0.029670997
109	0x3d12f770	0.035880506
110	0x3c87a127	0.016556336
111	0x3e3cb8d1	0.18429877
112	0xbc0e3604	-0.0086798705
113	0x3e4c60c2	0.19958785
114	0x3e04d3fd	0.12971492
115	0x3e43abbd	0.19108482
116	0x3e148549	0.14503969
117	0x3d354084	0.04425098
118	0x3e414961	0.18875648
119	0x3e018548	0.12648499
120	0x3e1c3cda	0.15257588
121	0x3baeac5f	0.005330607
122	0x3c85e458	0.016344234
123	0xbd5512ac	-0.05201976
124	0x3d388844	0.045051828
125	0xbd2a6501	-0.04160023
126	0x3c021d71	0.00794159
127	0x3d709887	0.05873921
128	0x3d5e8395	0.054324705
129	0x3bb0e691	0.0053985794
130	0xbd91f220	-0.0712626
131	0x3c587382	0.013211133
132	0x3d7c6875	0.061623055
133	0x3db29f82	0.0872183
134	0xbd3faa50	-0.046793282
135	0x3d19d532	0.037556835
136	0x3cc6e0da	0.02427714
137	0xbb45e01c	-0.0030193394
138	0xbb978f75	-0.0046252557
139	0x3ce56ac2	0.028005008
140	0x3d646132	0.055756755
141	0x3d2788f2	0.040902086
142	0x3c25ef23	0.010127815
143	0xbc4183d5	-0.011811216
144	0xbc2422ac	-0.010018032
145	0x3bcfe26f	0.0063441317
146	0x3bdcbbe0	0.0067362636
147	0xbc348eae	-0.011020346
148	0xba24c9b1	-0.0006286158
149	0xbd2847f9	-0.041084263
150	0x3cd1f022	0.0256272
151	0x3c9b7947	0.018978728
152	0x3cfc7d23	0.030821389
153	0x3ca4f32a	0.02013548
154	0x3d2f6d47	0.042828824
155	0x3ca586bd	0.02020585
156	0x3c7902dc	0.015198436
157	0xbc71b45f	-0.0147524765
158	0x3b86df44	0.004115971
159	0xbc5b2a6a	-0.0133768115
160	0x3c5999c7	0.013281292
161	0x3da4b8e3	0.08043077
162	0x3ce8c8b0	0.028416008
163	0x3c892ab5	0.016743997
164	0xbc79d5cc	-0.015248727
165	0x3bd19721	0.00639619
166	0x3b2b7e0a	0.0026167654
167	0xbbdd7254	-0.0067580137
168	0x3d605e90	0.05477768
169	0x3b89fcd9	0.00421105
170	0xbb7cf383	-0.0038597293
171	0x3cf199af	0.029492227
172	0x3cc820a8	0.024429634
173	0x3dd22a25	0.10261945
174	0x3d4ffff9	0.050781224
175	0x3d8aea33	0.06782951
176	0x3dcc274e	0.09968434
177	0x3d703277	0.058641877
178	0x3e027cea	0.12742963
179	0xbf127949	-0.57216316
180	0x3e04ae68	0.12957156
181	0x3d391b2b	0.045191925
182	0x3e86af19	0.26305464
183	0x3ddd1c62	0.10796429
184	0x3db6f05e	0.08932565
185	0x3d9566d5	0.07295004
186	0xbf1d858f	-0.6153192
187	0x3dada47d	0.08478639
188	0x3e234faa	0.15948358
189	0x3e689628	0.2271353
190	0x3d2f1633	0.04274578
191	0x3e62ef38	0.22161567
192	0xbd7213ec	-0.05910103
193	0xbe3eb35e	-0.1862311
194	0xbe702ab5	-0.23453791
195	0x3dd29057	0.10281437
196	0xbe61cc9f	-0.22050713
197	0xbdd77734	-0.10520783
198	0xbd38cc7a	-0.04511688
199	0x3d1b2114	0.037873343
200	0x3bc4776c	0.0059956815
201	0xbe63481b	-0.22195475
202	0x3e4e5cff	0.20152663
203	0xbf15e6e7	-0.58555454
204	0x3d0d6784	0.03452255
205	0x3e0297bb	0.12753193
206	0x3db0e5dd	0.08637593
207	0x3ea50a98	0.32234645
208	0x3e3b3b56	0.18284354
209	0xbdd4f085	-0.10397438
210	0x3db00a9c	0.085957736
211	0x3d95a0d5	0.07306067
212	0x3d65e47a	0.056126095
213	0xbdd01ea7	-0.101620965
214	0xbe5e9153	-0.21735124
215	0xbc2cf116	-0.010555526
216	0xbe1e0473	-0.15431385
217	0xbd2f6b78	-0.0428271
218	0xbe498cbc	-0.19682592
219	0x3d9b048d	0.07569227
220	0x3e864d48	0.26230836
221	0xbd829b4a	-0.06377275
222	0xbdd96f00	-0.10616875
223	0x3dfef8ab	0.124497734
224	0xbc4f5a6d	-0.0126558365
225	0x3e58b1c3	0.2116156
226	0x3af179af	0.0018423105
227	0xbdded0bb	-0.10879656
228	0x3dcfab42	0.10140087
229	0xbca468d8	-0.020069525
230	0x3d3e3c36	0.04644414
231	0xbd640074	-0.055664495
232	0x3dec5233	0.11539116
233	0xba8d8e6f	-0.0010799895
234	0xbd63f4a3	-0.055653226
235	0xbb84c06a	-0.004051258
236	0x3cd0c7ae	0.02548584
237	0xbd2bef84	-0.041976467
238	0x3e4c6667	0.19960938
239	0xbd8d529f	-0.06900524
240	0x3e70530d	0.23469181
241	0xbc17f840	-0.009275496
242	0xbc2bc364	-0.0104835965
243	0x3d3c60e6	0.045990847
244	0xbca744d0	-0.020418555
245	0xbce3bcac	-0.027799927
246	0x3df082db	0.11743709
247	0x3eae0cd4	0.33994162
248	0x3dbbda31	0.09172476
249	0x3da41ae6	0.08012943
250	0x3e0d13e0	0.13777113
251	0x3d31f3f6	0.04344555
252	0x3da4df93	0.08050456
253	0x3cd45d58	0.025923416
254	0x3e9e0904	0.30866253
255	0x3cc8deb1	0.02452025

rnn.weight_hh_l0 f4 [68, 17]
0	0x3d4620f7	0.04837128
1	0xbc9a1a95	-0.018811503
2	0x3ca65488	0.02030398
3	0xbce6263c	-0.028094403
4	0xbd249523	-0.04018129
5	0x3d891a1e	0.066944346
6	0x3da2b5b0	0.079448104
7	0xbdbd0449	-0.09229333
8	0xbd9b3206	-0.075779006
9	0xbe50b968	-0.20383227
10	0x3d00e7c8	0.031471044
11	0xbe3a2107	-0.18176661
12	0xbe6f036c	-0.23341149
13	0xb9edac63	-0.000453326
14	0xbe02ce0b	-0.12773912
15	0x3db8b411	0.0901872
16	0xbdde4d0b	-0.108545385
17	0xbd106f91	-0.035262648
18	0x3da3399f	0.07969975
19	0x3c580f9b	0.013187314
20	0xbe087afd	-0.13328166
21	0x3c841f46	0.016128194
22	0xbc5c63f4	-0.013451565
23	0xbd38dafe	-0.045130722
24	0x3dd724f6	0.105050966
25	0x3c7e5938	0.015524201
26	0x3db4e285	0.08832268
27	0xbd5f0d6e	-0.054456167
28	0xbdd537fd	-0.104110695
29	0xba9906e3	-0.0011675026
30	0x3da425d1	0.080150254
31	0x3d1ccc63	0.038280856
32	0xbc2326f6	-0.0099580195
33	0x3cbbb3ab	0.02291282
34	0xbc699ffd	-0.014259336
35	0xbb0d0424	-0.002151736
36	0x3dd01704	0.1016064
37	0xbe2b3eed	-0.16723223
38	0x3e31a68e	0.17348692
39	0xbd6c8afa	-0.057749726
40	0xbd91993a	-0.07109304
41	0x3e37a097	0.17932354
42	0xbc72b0cb	-0.014812659
43	0x3da48cf0	0.08034694
44	0xbd11bd0c	-0.03558068
45	0xbe3e6d4d	-0.18596382
46	0xbe19787b	-0.14987366
47	0xbbc82ac4	-0.0061086137
48	0x3d9fe299	0.07806892
49	0x3d09aca6	0.033611916
50	0x3d6bfab2	0.05761213
51	0xbe1f090a	-0.15530792
52	0xbd2953ba	-0.041339613
53	0x3d05c32c	0.032656834
54	0xbea61799	-0.3243988
55	0x3d2f5149	0.04280213
56	0xbe14f6e4	-0.14547306
57	0xbe7f124f	-0.24909328
58	0x3da5e12d	0.080995895
59	0x3d1ac75c	0.03778778
60	0x3e1e2c15	0.15446503
61	0x3d2bfe4f	0.041990574
62	0xbd90c471	-0.07068718
63	0xbd81104c	-0.063019365
64	0xbd60cfa2	-0.054885514
65	0x3d943abb	0.072377644
66	0xbda3a9b9	-0.079913564
67	0x3df54ab7	0.11977141
68	0xbc3ae40c	-0.01140691
69	0x3d8a2902	0.06746103
70	0x3c91fcd5	0.017820755
71	0x3d4e348c	0.05034308
72	0x3d269053	0.040664982
73	0x3d59a9d7	0.053140488
74	0xbd84d4b4	-0.064858824
75	0x3d19c84f	0.037544545
76	0x3d9ccb04	0.0765591
77	0x3d9cbc59	0.07653112
78	0x3d6ce2f4	0.057833627
79	0xbe5757ac	-0.21029538
80	0xbdb378c2	-0.08763267
81	0xbe145d58	-0.14488733
82	0xbd4035f7	-0.046926465
83	0xbd3e21a9	-0.04641882
84	0x3c79ea51	0.015253619
85	0x3d9ad85b	0.07560798
86	0xbdccf059	-0.1000678
87	0xbd7ccd71	-0.06171936
88	0xbbce6c4e	-0.006299532
89	0xbc82ad17	-0.015951676
90	0xbe3b1074	-0.18267995
91	0x3caf0daf	0.02136883
92	0xbce4b3b7	-0.027917726
93	0xbde045b5	-0.109507956
94	0xbdbc5d32	-0.09197463
95	0xbc8b7c79	-0.017027127
96	0x3d2da04a	0.04238919
97	0xbc4d74ee	-0.012540085
98	0xbd05874f	-0.032599743
99	0x3d8c97ab	0.06864866
100	0x3d458457	0.048221912
101	0xbce3d422	-0.027811114
102	0x3c3b4f1f	0.011432438
103	0xbd10059c	-0.0351616
104	0x3c7d0cdb	0.0154449595
105	0xbb2fcaa7	-0.002682367
106	0xbacfc738	-0.0015852218
107	0xbdbb3bae	-0.09142242
108	0xbe0f53d5	-0.13996823
109	0x3d4ee78e	0.050513797
110	0x3c6d977b	0.014501448
111	0x3d6e1fe8	0.058135897
112	0xbca1d08b	-0.019752761
113	0xbda323fc	-0.07965848
114	0xbdbdf995	-0.092761196
115	0xbcea61de	-0.02861112
116	0xbd574f52	-0.05256588
117	0x3d1ff090	0.039047778
118	0x3c3962e4	0.011315081
119	0x3d4d20e2	0.050080188
120	0x3e6b5e00	0.22985077
121	0x3d97d93d	0.07414482
122	0xbd5f9d0f	-0.054593142
123	0xbdc974cf	-0.098367326
124	0x3d83ab42	0.06429149
125	0xbd232204	-0.03982736
126	0x3e7b6912	0.245518
127	0x3c5461f2	0.012962805
128	0xbc68fa91	-0.014219896
129	0xbd65e45f	-0.056125995
130	0xbe86e7a4	-0.26348603
131	0x3c8b4510	0.017000705
132	0xbd6203cb	-0.0551794
133	0xbe15bdb7	-0.14623152
134	0xbb2b988e	-0.002618346
135	0x3e55eeb5	0.20891841
136	0xbc125277	-0.008930794
137	0x3d3bdd14	0.045865133
138	0xbd702418	-0.05862817
139	0xbce639da	-0.028103758
140	0xbd29cdb3	-0.041455936
141	0x3e83a5ae	0.2571234
142	0x3d93c04f	0.07214414
143	0x3cac55f9	0.021037089
144	0xbda3b9dc	-0.07994434
145	0x3ced8c00	0.028997421
146	0xbe1c9540	-0.1529131
147	0xbd957a83	-0.07298758
148	0x3d832326	0.064031884
149	0x3b9687b1	0.0045938124
150	0xbdded3e5	-0.108802594
151	0x3d62eb97	0.055400457
152	0xbc34a334	-0.011025239
153	0xb9b88f48	-0.00035201968
154	0xbca4fee1	-0.020141067
155	0x3d027df1	0.03185839
156	0xbe15bdf4	-0.14623243
157	0xbd91b5fd	-0.0711479
158	0xbdc44009	-0.09582526
159	0xbd73ec17	-0.059551325
160	0x3d825c05	0.063652076
161	0xbd8d6b12	-0.06905188
162	0xbd7e6ea6	-0.06211724
163	0xbdc6c940	-0.09706354
164	0xbdca8c74	-0.098900706
165	0xbd43223c	-0.04764007
166	0xbd7d8207	-0.061891582
167	0xbe04a2bc	-0.12952703
168	0xbd3a259b	-0.04544602
169	0x3cbd26b6	0.023089748
170	0xbce10080	-0.027466059
171	0x3d26b049	0.040695462
172	0x3dd3c55f	0.1034038
173	0xbd692f63	-0.056929957
174	0xbdbb02c7	-0.09131389
175	0xbc897b0a	-0.016782302
176	0x3dacba70	0.08433998
177	0x3e0fd64e	0.14046595
178	0xbca2877a	-0.01983999
179	0x3d989837	0.07450908
180	0xbdb5e8b7	-0.088822775
181	0xbdfa89ac	-0.1223329
182	0x3e5cc325	0.21558817
183	0xbd6b7cf8	-0.057492226
184	0xbe1a16d5	-0.15047772
185	0xbcc76c87	-0.024343742
186	0xbe183ebf	-0.14867686
187	0x3c09e55a	0.008416498
188	0x3ba5696c	0.0050479677
189	0x3d3766f6	0.044775926
190	0xbc927989	-0.017880218
191	0xbca27596	-0.01983146
192	0xbdc579ef	-0.096423976
193	0xbda6b7fb	-0.0814056
194	0x3defebfe	0.11714934
195	0xbd6a5e7d	-0.057219017
196	0x3cfedb3e	0.031110402
197	0xbd286650	-0.041113198
198	0xbe140aeb	-0.1445729
199	0xbd8f01a7	-0.06982737
200	0xbd597e4a	-0.053098954
201	0xbdc22d34	-0.09481278
202	0xbc181538	-0.009282403
203	0x3ca702c0	0.020387053
204	0xbbc67e1c	-0.006057514
205	0xbb7edc23	-0.0038888536
206	0x3c0d3bcc	0.008620214
207	0xbd9defa9	-0.07711727
208	0xbc8929fa	-0.016743649
209	0xbda1a7de	-0.07893346
210	0xbd908a06	-0.07057576
211	0x3d4111ec	0.047136232
212	0x3d653c4e	0.055965714
213	0x3d3c6e28	0.04600349
214	0xbbc0e76a	-0.0058869617
215	0xbdccfa28	-0.10008651
216	0x3c4276e3	0.011869165
217	0xbd229740	-0.039695024
218	0xbe4ab311	-0.19794871
219	0xbdd0932f	-0.10184323
220	0x3d66d2a5	0.05635323
221	0x3d206008	0.039154083
222	0x3a7e3a42	0.0009698012
223	0x3d90e044	0.07074025
224	0xbd61d16f	-0.055131372
225	0xbdabfdc0	-0.08398008
226	0xbdd30dcc	-0.10305366
227	0xbd5ad5b0	-0.053426445
228	0x3dba5cf8	0.09099764
229	0xbd5be4ae	-0.053684883
230	0x3da3eb91	0.08003915
231	0xbd84f3ac	-0.06491789
232	0xbc1bb043	-0.009502473
233	0xbd2b612e	-0.041840725
234	0xbd8d264e	-0.06892072
235	0xbdcd674f	-0.1002947
236	0xbcb88ff3	-0.022529578
237	0x3e0a3892	0.13498142
238	0x3e21205c	0.15735
239	0x3d0a7de2	0.033811457
240	0x3d186589	0.037206206
241	0x3d850f1b	0.06497022
242	0xbc79ea82	-0.015253665
243	0xbd25e7a4	-0.040504113
244	0x3d852ae9	0.06502325
245	0x3d537abe	0.051630728
246	0xbe37825b	-0.1792082
247	0x3e0481b8	0.12940109
248	0xbdcf5909	-0.10124404
249	0x3c96fd6d	0.01843139
250	0xbe192a4c	-0.14957541
251	0x3ccad815	0.024761239
252	0xbe0b8421	-0.13624622
253	0x3c8eb3b1	0.017419668
254	0x3c6572f4	0.014004458
255	0x3c903556	0.017603558

rnn.bias_ih_l0 f4 [68]
0	0x3dc2f87e	0.095200524
1	0x3e48cd37	0.19609533
2	0x3e3e9b56	0.18613943
3	0x3e720bf5	0.23637374
4	0x3df69f96	0.12042157
5	0x3d4628cc	0.04837875
6	0x3e7937a1	0.24337627
7	0x3e4026c8	0.18764794
8	0x3e0ab8ec	0.13547105
9	0x3e95e98a	0.2927974
10	0x3d6aca27	0.057321694
11	0x3e7528a9	0.23941292
12	0x3e8d86a8	0.27641797
13	0x3e85d185	0.26136413
14	0x3e20e084	0.15710646
15	0x3e423a64	0.18967587
16	0x3e5bf690	0.21480775
17	0x3e1d0626	0.15334377
18	0x3e2b8436	0.16749653
19	0x3e91bc0e	0.28463787
20	0x3e497dae	0.19676849
21	0x3dc1e992	0.09468378
22	0x3e13438c	0.14381236
23	0x3e108538	0.14113319
24	0x3e8f94ec	0.28043306
25	0x3e34b03d	0.17645355
26	0x3e47e9b6	0.19522747
27	0x3dfa7fb1	0.122313865
28	0x3e797dc8	0.24364388
29	0x3e633398	0.2218765
30	0x3e6f8417	0.23390232
31	0x3e1f17d4	0.15536433
32	0x3e301be4	0.1719814
33	0x3dbb0aa0	0.09132886
34	0x3d4fddb9	0.05074856
35	0x3cff3396	0.031152528
36	0x3b1e23f4	0.0024130316
37	0xbd5dd63f	-0.0541594
38	0xbd8e8374	-0.069586664
39	0xbdac3cb4	-0.08410016
40	0xbdcf248f	-0.10114395
41	0x3dfaef19	0.122526355
42	0x3c1b7f71	0.009490834
43	0x3c71a999	0.014749908
44	0xbc3ce78a	-0.011529813
45	0x3bfe2a44	0.0077565033
46	0xbd643605	-0.05571558
47	0xbc9ca8cc	-0.019123457
48	0x3d4ad339	0.049517844
49	0xbcd9098d	-0.026493812
50	0x3e0a7e1e	0.13524672
51	0x3eb7474a	0.35796577
52	0x3e89cf83	0.2691613
53	0x3eafb01c	0.34314048
54	0x3eb1e7bd	0.34747115
55	0x3ea7f11a	0.32801133
56	0x3e1eb5ff	0.15499114
57	0x3ea2c46c	0.31790483
58	0x3eb5c5a6	0.35502356
59	0x3e88dd03	0.2673112
60	0x3eb84974	0.3599354
61	0x3ea31c03	0.3185731
62	0x3ebe50ac	0.37170923
63	0x3ebeb767	0.372493
64	0x3e9e5c36	0.30929726
65	0x3ea4eb64	0.3221084
66	0x3e8ff285	0.28114715
67	0x3ea003f5	0.3125302

rnn.bias_hh_l0 f4 [68]
0	0x3dc2f87f	0.09520053
1	0x3e48cd37	0.19609533
2	0x3e3e9b6a	0.18613973
3	0x3e721fca	0.23644939
4	0x3df69f96	0.12042157
5	0x3d4fa83d	0.050697554
6	0x3e7937a1	0.24337627
7	0x3e4019eb	0.18759887
8	0x3e0ab8eb	0.13547103
9	0x3e95e98a	0.2927974
10	0x3d6aca2a	0.057321705
11	0x3e7528a9	0.23941292
12	0x3e8d86a7	0.27641794
13	0x3e85d185	0.26136413
14	0x3e20e084	0.15710646
15	0x3e423a64	0.18967587
16	0x3e5bf690	0.21480775
17	0x3e1d0625	0.15334375
18	0x3e2b8436	0.16749653
19	0x3e91bc0d	0.28463784
20	0x3e497d4d	0.19676705
21	0x3dc1e98f	0.09468376
22	0x3e23413b	0.15942852
23	0x3e108539	0.1411332
24	0x3e8fbdf3	0.28074607
25	0x3e34b03d	0.17645355
26	0x3e47e9b3	0.19522743
27	0x3dfa7fac	0.12231383
28	0x3e797dc7	0.24364386
29	0x3e633399	0.22187652
30	0x3e6f8402	0.233902
31	0x3e1f17c8	0.15536416
32	0x3e301be1	0.17198135
33	0x3dbb1148	0.091341555
34	0x3bedc09c	0.007255627
35	0x3c85bb5d	0.016324693
36	0x3dcefe6b	0.1010712
37	0x3d897525	0.06711797
38	0x3ca214aa	0.019785244
39	0xbe36c32a	-0.17847887
40	0xbded941f	-0.116005175
41	0x3dd239ca	0.10264929
42	0xbd50ed37	-0.051007476
43	0x3c16b441	0.009198249
44	0xbc0456f4	-0.008077372
45	0xbcdb96f5	-0.02680538
46	0x3d106e13	0.035261225
47	0xbc735237	-0.0148511445
48	0x3c6ffec8	0.014648147
49	0xbddd015c	-0.10791275
50	0x3e3404b9	0.17579927
51	0x3eb7474a	0.35796577
52	0x3e89cf85	0.26916137
53	0x3eafb01a	0.34314042
54	0x3eb1e7be	0.34747118
55	0x3ea7f119	0.3280113
56	0x3e1e903a	0.15484706
57	0x3ea2c46b	0.3179048
58	0x3eb5c5a7	0.3550236
59	0x3e88dd01	0.26731113
60	0x3eb84972	0.35993534
61	0x3ea31c05	0.31857315
62	0x3ebe50ac	0.37170923
63	0x3ebeb765	0.37249294
64	0x3e9e5c38	0.30929732
65	0x3ea4eb63	0.32210836
66	0x3e8ff284	0.28114712
67	0x3ea003f9	0.3125303

FC.weight f4 [7, 17]
0	0x3eb80975	0.35944715
1	0x3e86f2e0	0.26357174
2	0x3f033430	0.51251507
3	0xbedd435c	-0.43215454
4	0xbe8d3d9a	-0.2758606
5	0x3ea0b9a5	0.31391636
6	0x3f1f091a	0.6212326
7	0x3f074037	0.5283236
8	0x3e3520b8	0.17688262
9	0x3f04af99	0.5183044
10	0xbeef4450	-0.46731806
11	0x401c5d46	2.443193
12	0xbf0971ce	-0.5368928
13	0xc00c5b6c	-2.19308
14	0xbf061fdf	-0.5239238
15	0x3f077be3	0.5292341
16	0xbeb04457	-0.3442714
17	0x3f091250	0.5354357
18	0x3e4bcff4	0.19903547
19	0xc02193a8	-2.5246372
20	0xbeffca24	-0.4995891
21	0x3fe4d122	1.7876322
22	0xbdaf8d27	-0.085718445
23	0x3ef5888f	0.47955748
24	0x3eb17d8d	0.346661
25	0xbf099d00	-0.5375519
26	0x3ecdfcb5	0.40231863
27	0xbf282763	-0.656851
28	0xbed7e117	-0.42163917
29	0xbeb80613	-0.35942134
30	0x3f0629b6	0.52407396
31	0xbeb469d0	-0.3523698
32	0x3f0ce643	0.5503885
33	0xbf3396e7	-0.70152134
34	0xc0141334	-2.313672
35	0x3eb7ce19	0.35899428
36	0x3ed97f57	0.42479965
37	0xbecf43f5	-0.40481535
38	0xbe96a402	-0.29422003
39	0xbcb81c35	-0.022474388
40	0x3f0f58ad	0.55994684
41	0x3eac34ed	0.3363413
42	0xbc351dd6	-0.011054477
43	0xc012dc90	-2.294712
44	0xbe95df11	-0.2927175
45	0xbee1a94f	-0.44074485
46	0xbf1e51dc	-0.6184366
47	0x3ee9ef3e	0.4569034
48	0xbee639b5	-0.44965902
49	0x3f07d035	0.53052074
50	0xbee08be1	-0.4385672
51	0x3e99ce95	0.30040422
52	0x3e8dc5ff	0.27690122
53	0x3ee9f220	0.4569254
54	0xbed1bad2	-0.40962845
55	0xbea9b628	-0.33146787
56	0x3c7c90b1	0.0154153565
57	0x3f12d3d5	0.5735448
58	0x3e78af23	0.2428556
59	0x3da99713	0.08280768
60	0x3f04c97e	0.5186995
61	0x4014f664	2.3275385
62	0xbed9be11	-0.42527822
63	0x400ca9b0	2.197857
64	0x3ed8b494	0.4232527
65	0xbedc00e4	-0.4296943
66	0x3f000498	0.5000701
67	0xbf2293d1	-0.635068
68	0x3ea1ccab	0.31601462
69	0xbfb4b293	-1.4116997
70	0x3eafaa0f	0.34309432
71	0xbe8ff7e2	-0.28118807
72	0xbe9359e8	-0.2877953
73	0x3e05c02f	0.13061593
74	0x3f3dcb21	0.74138075
75	0xc0022c88	-2.033968
76	0x3e93fc38	0.28903365
77	0x3ec9d8f5	0.39423338
78	0xbed6e7bd	-0.41973677
79	0xbe9df17c	-0.308483
80	0xbeabcd2d	-0.33554974
81	0x3f13c55b	0.57723016
82	0xbeba5238	-0.36390853
83	0x3eae6c73	0.34067115
84	0x400237f3	2.0346649
85	0x3ef06009	0.4694827
86	0x3e11c4ba	0.14235201
87	0x3ec8cf4c	0.39220655
88	0x402e4c6d	2.7234147
89	0xbedb0fd0	-0.427855
90	0x3d42c97e	0.04755544
91	0xbfd43e57	-1.6581525
92	0x3e3e0dd7	0.18559967
93	0x3f6d64d7	0.92731994
94	0x3ee4e39b	0.447049
95	0xbea7e382	-0.32790762
96	0xbea9799d	-0.33100596
97	0xbedeb7ed	-0.434997
98	0x3ef27745	0.4735662
99	0xbee3ff36	-0.44530648
100	0x3f05b2db	0.52226037
101	0xbf33af5e	-0.70189464
102	0x3f097680	0.5369644
103	0x3ea44882	0.3208657
104	0x3ef5aac0	0.47981834
105	0xbecf65b7	-0.4050729
106	0xbebb75c0	-0.36613274
107	0xbca1d5ad	-0.019755209
108	0x3f131503	0.57453936
109	0x3eb5e42a	0.35525638
110	0x3e22d4aa	0.15901437
111	0x3ed19d2e	0.4094023
112	0xbeea4071	-0.4575229
113	0xbed23bc8	-0.41061234
114	0xbeb99a8a	-0.36250716
115	0x3eed295f	0.46320626
116	0x40177a76	2.3668494
117	0xc0153bc6	-2.3317733
118	0xbeb755df	-0.35807702

FC.bias f4 [7]
0	0xbedce032	-0.43139797
1	0xbdf2e8d4	-0.11860815
2	0xbee68396	-0.45022267
3	0xbe8702a5	-0.26369205
4	0xbeffa7b3	-0.49932632
5	0xbee3dfcf	-0.4450669
6	0xbf0156d3	-0.5052311
