data/parameters/parameters-22.pt (torch_old, 30842 bytes, 6 tensors)

rnn.weight_ih_l0 f4 [68, 89]
000000 99 02 d3 3c 11 2e c5 3d 18 13 65 3d 06 28 eb 3b
       0.025758075 0.09627927 0.055926412 0.007176402
000010 09 18 6c 3d ab 5c 8f 3d 93 de 2c 3c 3b 61 dc 3e
       0.05764011 0.07000097 0.010551113 0.4304293
000020 f4 1f 20 3c 0a 2c 7a bd be 6e eb bd 7e 88 29 3d
       0.009773243 -0.061077155 -0.11495732 0.041389935
000030 4b b9 74 3c 6d 1d 1c 3b 54 26 91 bc 14 9c cb bc
       0.014936755 0.002382125 -0.017718472 -0.024854697
000040 9d 33 e4 bc 66 0e 33 3d 76 cb b8 3d fb bc 65 3a
       -0.027856642 0.043714903 0.09023182 0.0008763817
000050 9d 69 e7 bd 10 3f 36 3d 90 04 56 3e 62 5a 50 bd
       -0.11299441 0.044493735 0.20900178 -0.050867446
000060 84 ad 8e 3d 42 39 f8 3d 3c 0f 92 3d cd 15 6a bd
       0.06966689 0.12120296 0.07131812 -0.057149697
000070 ee 87 f4 3d 0f db bb 3d 6a 02 54 3e 4d 32 3c 3e
       0.11939989 0.091726415 0.20704046 0.18378563
000080 4d ec 25 3d 99 d1 19 3d 1a 48 67 bc b1 77 53 3d
       0.040508557 0.037553404 -0.014116311 0.05162782
000090 20 a0 f0 bd ef 93 02 bc fd 49 0a bd 71 c6 02 3e
       -0.117492914 -0.00796984 -0.033761967 0.12771012
0000a0 28 d2 34 bc e4 0e e3 3c 78 58 45 bb e3 79 8f bd
       -0.011036433 0.027717061 -0.0030112546 -0.0700567
0000b0 13 b1 62 bd 14 19 37 3c 9e ff 17 bd d8 9d 04 3d
       -0.055344652 0.011175413 -0.03710901 0.032377094
0000c0 cd 40 63 3d de 1b 8c 3c 5a ec 4f 3d a5 13 d4 3c
       0.05548172 0.017103132 0.05076251 0.025888273
0000d0 d9 ac 76 3d 8d 70 a7 bc 12 af e3 3a e4 b7 cb 3c
       0.060223434 -0.02043941 0.0017370901 0.02486796
0000e0 a7 ab 1e bd 2e c5 07 3b 72 e3 7b bc 23 62 91 bc
       -0.03873792 0.0020716893 -0.015374051 -0.01774699
0000f0 2f 9a a6 3d 01 5e 46 3d 75 9f 4f 3d ab 82 a2 3d
       0.08134877 0.048429493 0.05068918 0.07935079
000100 cf 32 6c 3d d4 27 f3 3b 3f e4 29 3d e0 65 07 3d
       0.057665642 0.0074205194 0.041477438 0.03305614
000110 f3 3e fa 3d 0b c7 9d 39 20 e6 38 ba 65 d4 d2 3a
       0.12219038 0.00030093672 -0.0007053334 0.0016085027
000120 21 87 5e 3d c6 18 63 3c d1 d6 cc bc b8 a7 bd 3d
       0.054328088 0.013860887 -0.025004776 0.092605054
000130 df bb 0d 3c e6 d5 59 bc e5 0c b6 bb 2e 9d 31 b9
       0.008650749 -0.013295626 -0.0055557364 -0.0001693859
000140 0a 47 2d 3b 43 ef 40 bc 75 5d 8f 3d 41 8d 2c 3d
       0.0026440048 -0.011775794 0.070002474 0.042126898
000150 09 f8 40 3d a3 6f b9 3d 10 a1 dd 3d 1b b3 32 3d
       0.047111545 0.09054496 0.10821736 0.04362784
000160 5c 33 2e 3d db 60 d0 bd 7b b3 ca bd 16 03 15 be
       0.04252945 -0.10174724 -0.098975144 -0.14551958
000170 bb 6c da 3d c1 a7 ba 3c c4 3a 8f 3e 55 29 00 3e
       0.1066527 0.02278507 0.27974522 0.12515767
000180 24 f0 09 be 10 dc 13 be fe bc 94 be d0 05 0c be
       -0.13470513 -0.14439416 -0.2905044 -0.13674092
000190 d9 19 17 bb 6d c2 3b 3f 9b e8 13 3e aa a9 8b bd
       -0.0023056178 0.73343545 0.144442 -0.0681947
0001a0 c8 e0 15 be aa 43 ac be 0e 19 a6 3e ef 05 3e be
       -0.14636528 -0.33645374 0.3244099 -0.18556951
0001b0 e8 18 29 bd a1 cd 14 3c b4 43 91 bd 64 e2 c4 be
       -0.041283518 0.009082229 -0.070929915 -0.38453972
0001c0 1d 0d e7 3d 5a 5e f4 bd 1d b2 a7 3d cf 0a d5 bb
       0.11281798 -0.11932059 0.08188269 -0.0065015326
0001d0 1b 58 ef bd 71 f7 99 bd 8d 04 3b 3e 9d 52 ea 3d
       -0.11686727 -0.07517899 0.18263455 0.114415385
0001e0 a9 5d ea bd b5 2c bc 3d 4c 6a d4 3d 9d 94 df 3d
       -0.114436455 0.09188215 0.10371837 0.109170176
0001f0 f0 74 2c 3e bf 4a 25 3e eb b5 31 3e 7c d6 35 bc
       0.16841483 0.16141795 0.17354552 -0.0110985
000200 7e 16 07 bd 40 97 11 bd 76 0a a7 bd bf 48 5b 3a
       -0.032980435 -0.035544634 -0.08156292 0.0008365027
000210 e4 dd b3 bb 60 7a 41 3e d8 86 22 3d df d5 20 3d
       -0.005489098 0.18894339 0.03967938 0.039266463
000220 a8 46 ff 3c fa 4b b4 bc fa 3a d6 3d 84 8e 97 3d
       0.031161621 -0.022008885 0.10460468 0.074002296
000230 a6 df e3 bd 16 31 ee bc 72 b6 45 3d 71 76 2b 3d
       -0.11126642 -0.02907614 0.048269697 0.041861
000240 6a b7 85 3d fb d5 11 3c 83 4d 25 bc 90 36 95 bd
       0.06529124 0.008901115 -0.010089281 -0.072857976
000250 77 80 1e 3d f2 ce e0 3b 67 53 2e bd f7 e5 80 3c
       0.038696732 0.0068606073 -0.042560007 0.015734656
000260 74 71 29 3a 4f 8e 3a 3d 40 ce 68 bc c6 1c 7d 3d
       0.0006463744 0.045545872 -0.01420933 0.06179502
000270 14 71 28 3c e4 ff 88 bd 82 34 b7 3d 7a 06 97 3c
       0.010280866 -0.06689432 0.08945562 0.018435705
000280 9c 77 1b 3d 82 d7 6a 3d 75 8e 5d 3e 1d 73 87 3d
       0.037955865 0.05733443 0.21636374 0.06613753
000290 4c db 4c 3b 1b 58 85 3c 1a 66 0c 3c c4 1c 41 3d
       0.003125864 0.016277364 0.008569265 0.047146574
0002a0 ed 39 c2 3c e4 45 db 3d 7f e8 2e 3d 24 47 94 3c
       0.023709262 0.1070669 0.042702194 0.018100329
0002b0 6b 01 06 be 19 bc ac bd a3 6a 28 3d a7 b4 b1 3d
       -0.13086478 -0.08434314 0.04111732 0.08677035
0002c0 0c 22 25 3e 91 82 59 bd 0d f9 b2 3d a1 f8 1a 3e
       0.16126269 -0.053103033 0.08738909 0.15133907
0002d0 d0 e5 49 3e ad 1e bf be 40 b6 0b 3e 23 c5 1a bc
       0.19716573 -0.3732809 0.13643742 -0.009446415
0002e0 91 82 33 bd 88 95 db 3d 72 7e 4f 3d 4e 9d 82 bc
       -0.04382569 0.1072188 0.050657697 -0.01594415
0002f0 d8 0f 82 be b5 03 f1 3d 81 bf a5 3b c1 33 05 3e
       -0.25402713 0.11768285 0.0050582294 0.13008024
000300 61 45 cd 3d 3b 53 cb 3d 1c 86 2e be 5c a4 e1 bd
       0.100229986 0.09927984 -0.17043346 -0.11017677
000310 01 07 40 bd 5b c7 6c be 5b 79 2a 3e ec 2d 3b be
       -0.04688168 -0.23122923 0.16647856 -0.18279237
000320 b9 ff 23 bf 05 db 9f 3e c6 02 3c 3e 4a 93 67 3e
       -0.64062077 0.31221786 0.18360433 0.2261478
000330 32 68 09 3e d1 83 1a bf 24 f9 23 3e 65 f9 3f 3e
       0.13418654 -0.60357386 0.16013008 0.1874748
000340 99 f4 de 3e 57 02 53 bd 8c b5 f4 3d 93 49 0f 3d
       0.43545988 -0.051515903 0.1194869 0.034982275
000350 af 36 b7 bd c2 a1 0d bd c9 ae 8e bb b7 9b a1 bd
       -0.08945977 -0.034578092 -0.004354332 -0.078910284
000360 d2 44 a1 bd 64 31 c3 bb ba d1 05 3e 47 65 a1 3d
       -0.078744546 -0.0059568156 0.13068286 0.07880645
000370 fe 2c 70 bd 3d 77 d9 3c 5a af a8 bc f8 f1 d2 3d
       -0.058636658 0.026546115 -0.020591427 0.10300058
000380 fd f6 45 3c 9e 95 62 3c ac f2 87 bc 21 04 66 3e
       0.012082812 0.013829617 -0.016595207 0.22462513
000390 48 f1 79 3d a6 bf 92 3d da ba 5d bc e5 7c 7d bc
       0.06102112 0.0716546 -0.013533318 -0.015471672
0003a0 9d e4 60 3c e8 c9 7a 3c fe eb 01 3e 94 ba 8a 3c
       0.013726381 0.015306927 0.1268768 0.01693467
0003b0 5c 0a 18 3d 9c 70 7f 3d 72 04 af bd 1b bd a2 3c
       0.037119254 0.062363252 -0.0854577 0.019865563
0003c0 d6 7a 77 3b 2f 2f fe bc 9c 47 c2 3d 25 e1 6f 3d
       0.0037762425 -0.031028358 0.09486315 0.058564324
0003d0 1f 4f 15 bc 00 88 d6 3c 48 dd 7c 3d 6f 81 85 3c
       -0.009113102 0.026187897 0.061734468 0.01629707
0003e0 4b 51 6f 3d 2a dc 77 3e 0c 2f 7d bc 1b 6f 65 3d
       0.058427136 0.2420508 -0.015453111 0.05601416
0003f0 50 dc 57 bc 61 42 b0 3d 6a 29 b1 3c 34 25 6a 3d
       -0.013175085 0.08606411 0.021626193 0.057164386

rnn.weight_hh_l0 f4 [68, 17]
000000 1f eb 85 3d f5 87 ff bc e3 d1 00 bd 8c 7d 55 bc
       0.065389864 -0.031192759 -0.031450164 -0.013030421
000010 72 04 9d 3d cb 46 8b bd 45 02 8f bd 1f bb c7 3c
       0.076668635 -0.06800612 -0.06982855 0.024381218
000020 a8 ea 2b 3d ba 11 49 be 77 09 a4 3d fd 3b 77 3d
       0.041971833 -0.19635668 0.08009618 0.060359944
000030 e2 5a e3 3d a9 a9 8d bd 9a 5a 47 3b bd 2a df bd
       0.11101319 -0.06917126 0.0030418993 -0.108968236
000040 64 d1 ed 3d d4 f9 c7 3d 95 66 0c 3e 74 ab a4 3d
       0.11612204 0.09764448 0.13711007 0.080405146
000050 72 63 85 3e 1a 50 07 bd ce b7 81 3c df 32 5f 3d
       0.26052433 -0.033035375 0.015834715 0.054491874
000060 f1 aa 90 3d 4d 6e 1a 3d 4d e4 b5 bd 20 3d 07 3e
       0.070638545 0.037702847 -0.088814355 0.13206911
000070 b5 16 b3 3d 61 b6 a2 3d b3 e9 57 bd e1 2f f6 bc
       0.087445654 0.07944942 -0.052713107 -0.030052127
000080 5b 5a 8f bd 32 b5 18 3c 1c ed 1e 3d 7b f1 60 3d
       -0.06999656 0.009320544 0.038800344 0.054917794
000090 d0 56 12 bd 2a 32 e0 3c e1 f7 03 3e 08 46 88 bd
       -0.035727322 0.02736767 0.12887527 -0.066539824
0000a0 5d 4b 81 3d a6 81 b0 bd 2c fd 47 3d 6d 75 da 3d
       0.063132025 -0.086184785 0.048825428 0.106669284
0000b0 61 85 7c 3d d6 f0 09 ba 99 5e 08 3e a1 9a b1 bd
       0.061650638 -0.00052620226 0.13317336 -0.08672071
0000c0 cd 34 2e 3e a3 95 5c 3c b1 33 84 3d 32 0d 6a 3e
       0.1701233 0.013463411 0.06455172 0.22856596
0000d0 08 3f 06 be 0b 63 d7 3c a4 a7 51 bd 07 63 7b 3c
       -0.13109982 0.026292345 -0.051185265 0.015343434
0000e0 93 e5 3c bd 5a c2 e0 bd 07 09 db bb 7f 25 68 bd
       -0.046117377 -0.109745696 -0.0066844258 -0.056676384
0000f0 da af 82 bc 79 89 06 be 27 87 0c 3d 3e dd a9 bd
       -0.015952993 -0.13138379 0.03430858 -0.08294152
000100 1c 28 95 bd 99 bf 46 3d 39 56 a5 bd d8 fa f0 bd
       -0.07283041 0.048522566 -0.08073086 -0.11766595
000110 4f a2 eb bd 5c ca 92 bd 95 d8 34 3d 97 5a 9b bd
       -0.11505567 -0.07167503 0.04415186 -0.07585638
000120 83 80 39 3e 0b fc ce bd 05 e3 c9 bd 6f c5 97 3c
       0.1811543 -0.10106667 -0.09857754 0.01852676
000130 01 3d 45 bc 7c 89 47 3d ee 55 0d be b5 91 f9 bd
       -0.01203847 0.0487151 -0.13802311 -0.121859945
000140 83 bc 31 3d 9b b7 19 be d0 0c a2 3c a8 8c 6c 3b
       0.04339267 -0.15011446 0.0197815 0.003609458
000150 4f d4 83 bd cb 97 d7 bb 78 c9 aa bd f6 f4 43 bc
       -0.06436979 -0.0065793744 -0.08339208 -0.011960259
000160 a3 e0 d3 3c ad 03 99 3d 1a 40 86 bd 6a e0 18 be
       0.025863951 0.07471404 -0.06555195 -0.14929357
000170 3b 34 7f bd 5e 0e 30 bd f9 44 59 bd 30 98 ec bc
       -0.06230567 -0.04298245 -0.053044293 -0.028881162
000180 a8 25 b5 bd c9 3a bb 3d cb c4 77 3d 09 05 11 bd
       -0.08845073 0.09142072 0.06049041 -0.035405193
000190 cd ae aa bb bf bf ad 3d fa 7e 7a 3d 34 7b 21 bd
       -0.005208826 0.08483838 0.06115625 -0.039424136
0001a0 71 65 8e 3d a8 6d 26 bc f0 12 2c be 0b d4 fd 3c
       0.06952942 -0.01015798 -0.16804099 0.030984899
0001b0 1d 26 e2 bc 2e 2e 47 bd 50 de 95 3c 67 af c8 bd
       -0.027606064 -0.048628025 0.018294483 -0.0979908
0001c0 e2 dd 8d 3d c0 6a 64 3d 15 af 56 3c 31 57 07 be
       0.069270864 0.055765867 0.013103266 -0.13216855
0001d0 9e 49 54 3c 20 05 f0 bd 64 d6 07 3c fd 06 8b 3d
       0.012957005 -0.117197275 0.008290861 0.06788442
0001e0 84 c9 58 3d 5f 5c a3 bd de 3e 0a bd 8d 44 8f bc
       0.052926555 -0.07976603 -0.03375136 -0.017488742
0001f0 d7 ac 88 bd 6f cb 47 bc 77 1a 63 bd 74 2f 21 bb
       -0.066735916 -0.012194498 -0.05544516 -0.0024594935
000200 11 9a 9b bd 4b ef 23 3d 85 01 89 bd ae 6b 17 bd
       -0.07597745 0.04002313 -0.06689743 -0.036967926
000210 a8 97 61 3d 1a 75 3b bd 94 6e b3 bc 11 ec 08 bd
       0.05507627 -0.045765974 -0.021903314 -0.033428255
000220 12 e8 29 3c 2a c2 49 bd 2e c7 5e bb e4 30 2c bc
       0.010370271 -0.049257435 -0.0033993232 -0.010509703
000230 2b b9 8d bd a9 b8 b3 bc ea 47 1a 3e bd f2 e3 bd
       -0.069200836 -0.021938639 0.15066496 -0.11130283
000240 10 16 74 bd 76 bc 74 3b 93 b0 76 3d be a1 11 3c
       -0.059591353 0.0037343777 0.060226988 0.00888866
000250 3a 10 a3 3d 0f 03 5d bd 00 3a 9a 3c cb aa 40 3d
       0.07962079 -0.053957995 0.018826485 0.04703788
000260 9c 11 a1 3d 22 39 e9 3c db 98 42 bd 88 b0 ed 3c
       0.07864687 0.028469626 -0.047509056 0.02901484
000270 40 f2 a1 bc c8 7e 79 bd b5 70 3e be d2 65 e6 3c
       -0.019768834 -0.060911924 -0.18597682 0.028124724
000280 3b 41 df bd 2d 30 a0 3b 23 60 88 bd b2 c9 64 3d
       -0.109011136 0.0048885555 -0.066589616 0.055856414
000290 de 16 d7 3c e6 0e 67 3d 78 2d fe bd 85 9b 91 3d
       0.026256021 0.056410693 -0.12411016 0.07109741
0002a0 95 d0 ee 3a 5d 0e 0a bd b9 cf 01 3c 40 55 c7 3d
       0.0018220121 -0.033705104 0.00792306 0.09733057
0002b0 cf 24 58 bd b7 a2 2b 3c 0b 2c 18 3b 0c 75 04 3d
       -0.05276948 0.010475806 0.002321961 0.032338187
0002c0 d4 05 db 3d de 9e a7 bd 70 1a 63 3d 2e 65 39 3d
       0.10694471 -0.081845984 0.055445135 0.045262508
0002d0 d0 f7 5b 3e fa 68 a3 3d c5 71 c5 3c b8 a1 dc bd
       0.21481252 0.07979007 0.024102101 -0.10773033
0002e0 48 da 91 3d 44 05 1f be a4 76 0a be 95 49 68 3e
       0.07121712 -0.15529352 -0.1352182 0.2268432
0002f0 e6 03 98 bd c1 33 88 3d 57 a7 36 3d 23 b8 3e 3e
       -0.074226186 0.06650496 0.04459318 0.1862493
000300 99 04 4c be 89 d0 22 be 81 87 d9 bd d8 62 c7 bd
       -0.19923629 -0.15899862 -0.106215484 -0.0973565
000310 51 a0 9f bd 9a 00 c4 bc d8 fc eb bd 2b 01 b3 3d
       -0.0779425 -0.023926068 -0.115228355 0.08740457
000320 1b b0 40 3c 77 2b 25 3d af c4 92 bc a3 d9 5c bd
       0.011760737 0.040324654 -0.017916052 -0.053918492
000330 b2 8e d5 bc 24 b4 d7 bd aa f0 91 3c 1b 43 0e 3e
       -0.026069019 -0.10532406 0.017814953 0.13892786
000340 23 3e 3b 3d 17 0b 55 be 99 1e 51 3d 34 cf eb bd
       0.045713555 -0.20805012 0.05105457 -0.1151413
000350 f9 bf b2 bd 37 d6 8f 3b 84 68 26 3e be d0 0f 3d
       -0.08728022 0.00438955 0.16250807 0.03511118
000360 86 e9 7d bd 11 9b 35 bd 22 9c 31 3c bf d3 4f be
       -0.061990283 -0.044337336 0.010840448 -0.20295618
000370 c0 33 c6 3d 2c 8d 8f bd 01 35 4a bd 15 79 10 bd
       0.09677839 -0.07009348 -0.049366955 -0.035271723
000380 cd f7 6e bc 07 5a 0e 3e bd 89 c4 bd a7 5a 24 3d
       -0.0145854475 0.1390153 -0.09596584 0.040125515
000390 cb 74 58 bc 57 14 0a 3d ad 4d 30 be f3 7a 2e 3e
       -0.013211439 0.033710804 -0.17217131 0.17039089
0003a0 8a 37 ba bc 91 5e 10 3e 59 f4 df 3d 9a 9f b4 3c
       -0.022731561 0.14098574 0.109352775 0.02204876
0003b0 f7 79 1a be 47 eb 20 3d 30 d9 f4 bd f1 42 07 bd
       -0.15085588 0.039286878 -0.11955488 -0.033022825
0003c0 df da b6 3d 2c 87 25 3d fe c2 d6 3d 7d 24 82 bd
       0.08928465 0.040412113 0.104864106 -0.06354616
0003d0 fd 78 29 bd b4 05 a0 bc 4c f3 a2 3d 8c c2 bf 3d
       -0.04137515 -0.01953397 0.079565614 0.09363279
0003e0 bb 2c 99 3c aa f1 29 3e 07 03 b3 3c d1 64 b3 bd
       0.018698087 0.16596094 0.02185203 -0.087594636
0003f0 ee 8f 0e 3e 6a f9 81 bd 0e 32 8e bd 15 5c 28 3e
       0.13922092 -0.063464 -0.06943141 0.16441377

rnn.bias_ih_l0 f4 [68]
000000 c8 4a a6 3e 9f 94 27 3e 9e f8 0b 3e 1b a4 85 3e
       0.3247893 0.16365288 0.13669059 0.26101765
000010 69 2f 59 3e 6e ec c5 3d 63 ac be 3d f7 ae 39 3e
       0.21209492 0.09664236 0.09310224 0.1813315
000020 25 75 96 3d e6 e6 8b 3e 56 e7 3e 3e 0e 62 6e 3e
       0.07346562 0.273246 0.18642935 0.23279592
000030 ac 19 84 3e 64 ef 8d 3e f8 d6 99 3d 29 10 56 3e
       0.25800836 0.27721703 0.07511705 0.20904602
000040 b0 49 20 3e b6 91 81 3e 4a 3e 97 3e 28 83 29 3e
       0.1565311 0.2530648 0.2953971 0.16553938
000050 55 8e 6b 3e 43 07 a7 3e 8e bf e6 3d 4e 14 18 3e
       0.23003514 0.32622728 0.11267005 0.14851496
000060 18 06 31 3d be e0 9a 3e 18 63 76 3e c3 a8 77 3e
       0.043218702 0.3024959 0.24061239 0.24185471
000070 a4 1c 4f 3e 0a b3 92 3e f8 e2 ad 3e a0 db 10 3e
       0.2022577 0.2865222 0.33962226 0.1414628
000080 79 55 c5 3d 6e 65 52 3e 30 93 c9 bc d1 ab 77 bc
       0.09635443 0.20546505 -0.024606317 -0.015116648
000090 f0 d9 99 bd 71 b6 c6 3c fa 82 b1 bc 08 38 9d 3d
       -0.075122714 0.024256917 -0.0216689 0.07676703
0000a0 91 d8 f4 bc 52 cd d5 bd 62 af 3e 3c 9d 50 f1 ba
       -0.029888423 -0.10439552 0.011638494 -0.0018410865
0000b0 c7 64 a0 3c 69 f1 d2 3c 0c f9 85 3d 7a 91 b6 3a
       0.019579304 0.025749879 0.065416425 0.0013928853
0000c0 03 d4 33 bd 27 e4 a6 bc 5d 02 75 3d d7 cf a3 3e
       -0.043903362 -0.020372463 0.059816707 0.31994507
0000d0 26 b8 ac 3e 10 58 c5 3e ac f4 c5 3e cb cc d7 3e
       0.33734244 0.3854375 0.38663232 0.42148432
0000e0 ba 6e 8b 3e 27 4a ad 3e dd 38 81 3e a0 05 8d 3e
       0.27232915 0.33845636 0.25238696 0.27543354
0000f0 56 dd c1 3e dd 1c ba 3e 1d bb de 3e 24 a1 bf 3e
       0.37864178 0.36350146 0.4350213 0.37427628
000100 e0 a1 d7 3e f4 56 5d 3e d2 7f 8b 3e 0f 5b ce 3e
       0.42115688 0.21615201 0.27245957 0.40303847

rnn.bias_hh_l0 f4 [68]
000000 c5 4a a6 3e 9e 94 27 3e c1 f8 0b 3e 1c a4 85 3e
       0.3247892 0.16365287 0.13669111 0.26101768
000010 69 2f 59 3e 27 ec c5 3d 68 ac be 3d 2d af 39 3e
       0.21209492 0.09664183 0.09310228 0.1813323
000020 23 75 96 3d de e6 8b 3e 56 e7 3e 3e 0e 62 6e 3e
       0.07346561 0.27324575 0.18642935 0.23279592
000030 ae 19 84 3e 67 ef 8d 3e f6 d6 99 3d 9e 26 56 3e
       0.25800842 0.27721712 0.07511704 0.20913169
000040 b2 49 20 3e b4 91 81 3e 4b 3e 97 3e 02 76 29 3e
       0.15653113 0.25306475 0.29539713 0.16548923
000050 55 8e 6b 3e 43 07 a7 3e f8 bd e6 3d 63 14 18 3e
       0.23003514 0.32622728 0.112667024 0.14851527
000060 5b 8e 33 3d be e0 9a 3e ec 5f 76 3e c3 a8 77 3e
       0.043836933 0.3024959 0.24060029 0.24185471
000070 a1 1c 4f 3e 09 b3 92 3e f8 e2 ad 3e b1 db 10 3e
       0.20225765 0.28652218 0.33962226 0.14146306
000080 77 76 c4 3d 6e 65 52 3e 9b f8 45 bd d7 0b 38 bd
       0.09592908 0.20546505 -0.04833279 -0.044933166
000090 79 d3 b7 bd 61 6a 29 bd d6 2c d1 3b 50 ef 81 bd
       -0.08975882 -0.041361216 0.0063835187 -0.06344473
0000a0 9f 29 03 bc 09 e7 23 bc 65 31 d7 bc 2d 77 af 3c
       -0.008005529 -0.010003814 -0.02626867 0.021419132
0000b0 f1 07 85 3d 55 e5 10 bd e3 ea b6 3c 9b f5 20 bd
       0.06495655 -0.035374958 0.0223288 -0.039296728
0000c0 c7 28 da 3c b3 2d e1 bc b5 ae 59 3d ca cf a3 3e
       0.026630772 -0.027487611 0.05314513 0.31994468
0000d0 24 b8 ac 3e 13 58 c5 3e ab f4 c5 3e cc cc d7 3e
       0.33734238 0.38543758 0.3866323 0.42148435
0000e0 ba 6e 8b 3e 26 4a ad 3e de 38 81 3e a1 05 8d 3e
       0.27232915 0.33845633 0.252387 0.27543357
0000f0 56 dd c1 3e e0 1c ba 3e 1d bb de 3e 1c a1 bf 3e
       0.37864178 0.36350155 0.4350213 0.37427604
000100 e7 a1 d7 3e ed 56 5d 3e cf 7f 8b 3e 13 5b ce 3e
       0.4211571 0.21615191 0.27245948 0.4030386

FC.weight f4 [7, 17]
000000 69 71 09 40 29 63 79 3e 43 d2 e1 be ce 43 ed bd
       2.147547 0.24354233 -0.4410573 -0.11585198
000010 a6 fb d0 3d cc d6 05 be e7 59 24 3f cd 86 12 bf
       0.10204248 -0.1307022 0.6419968 -0.5723694
000020 c3 38 51 be c7 8b 75 be aa dd 8b 3e c6 fa 1f c0
       -0.20431809 -0.23979102 0.27317554 -2.499681
000030 ba 8d c3 3e a3 64 13 bf 8b f4 b6 3d 93 02 55 3e
       0.38194066 -0.57575434 0.089333616 0.20801763
000040 6b 8d 04 3f bb d1 bc be fa 79 a9 3e d4 9e d5 be
       0.51778287 -0.36878762 0.33100873 -0.4172274
000050 a1 40 e6 3f 6b cb b2 3e 32 e3 a9 be 1a e5 c2 3e
       1.7988473 0.3492082 -0.3318115 0.38065416
000060 3f 63 fc be 17 f1 44 be 60 fa a2 be f4 20 eb 3e
       -0.4929447 -0.19232593 -0.31831646 0.4592358
000070 f5 f4 c0 3e 69 0b 03 3f 06 f5 33 40 34 27 48 39
       0.37686887 0.51189286 2.81183 0.0001908809
000080 97 2a 06 3f 66 cd cb 3e 7c 0a c9 be f7 f2 d7 3e
       0.52408737 0.39805144 -0.3926581 0.42177555
000090 e9 83 ed be 52 b1 83 be 6c c4 01 3f 95 76 13 be
       -0.46389702 -0.25721222 0.5069034 -0.14400704
0000a0 2a 38 8b 3e a1 61 a5 bd cb bb e9 3f 7a 29 d9 be
       0.27191287 -0.08075262 1.8260435 -0.42414457
0000b0 9b 1e ca 3e 11 a0 05 3f f9 17 32 c0 31 0d eb be
       0.39476475 0.52197367 -2.7827132 -0.45908502
0000c0 51 5e 89 be f5 f1 24 3e cd 77 16 3f 3c 9d e6 be
       -0.2682977 0.16107924 0.5877655 -0.45041835
0000d0 d1 0a 85 3e 2a ba 0c 40 06 ba 59 bd ee e9 dd 3e
       0.25984815 2.1988626 -0.05315592 0.43342537
0000e0 95 d6 ae be 67 e1 e5 3e 7f 72 8d 3a 6c b4 3e be
       -0.34148088 0.4489853 0.0010791569 -0.18623513
0000f0 98 da 0b 40 e6 5c 23 3f 3f e1 e5 3e b5 9d 28 3f
       2.185217 0.63813627 0.44898412 0.6586564
000100 36 84 34 bf 99 bc 34 bd 74 35 65 be 3c d1 30 3f
       -0.7051424 -0.044125173 -0.22383672 0.69069266
000110 2b ed dd bd ea b3 ec 3d 0f 3c 09 bf ee b9 5f 3c
       -0.10836252 0.115577534 -0.5360727 0.013655169
000120 5e 85 1b c0 ff bf dc be 42 a6 08 c0 6a d5 1d 3f
       -2.430015 -0.4311523 -2.1351476 0.6165377
000130 b8 be 8e bd 61 ce 80 be 5a 11 05 3f 57 87 15 3f
       -0.069699705 -0.25157455 0.519796 0.5840964
000140 79 74 12 3f 92 48 fe be 2f e2 1c bc 71 fe 23 bf
       0.57208973 -0.49664742 -0.009575411 -0.6406012
000150 38 e6 9d 3e 64 ec a2 be 07 0b ec bf 07 48 ab be
       0.30839705 -0.31820977 -1.8440865 -0.3345339
000160 4a 3e b9 be 98 5b dc 3e d8 10 c7 be f2 42 a1 3e
       -0.36180335 0.4303863 -0.38880038 0.31496388
000170 64 fb a4 3e c1 8e 5d be 7d a3 cc be 47 c4 2e c0
       0.32223046 -0.21636488 -0.39968482 -2.7307298
000180 fe 62 ba 3e 2e 5b 06 3f b0 f5 bf be f0 9a 1c 3e
       0.3640365 0.5248288 -0.37492132 0.15293479
000190 ed 98 9f 3e f5 90 f2 3e 05 20 03 bf 2b f9 46 3e
       0.3117136 0.47376218 -0.5122073 0.19430988
0001a0 2a 03 24 bf 9f b6 9b bd 8f 2e 12 3f 25 dc 06 40
       -0.6406733 -0.076031916 0.5710229 2.1071866
0001b0 56 aa df 3e 0e 1e 50 3e c7 1b 54 be fc b0 b0 be
       0.43684644 0.20323965 -0.20713721 -0.34510028
0001c0 9f e7 1e 3f 58 f7 0b 3f 9b cc 52 3f 80 c5 45 bf
       0.62072176 0.5467429 0.82343453 -0.77254486
0001d0 2e d0 f1 bd b7 89 d7 be ce 65 19 c0
       -0.11807285 -0.42097256 -2.3968387

FC.bias f4 [7]
000000 47 ec 88 bf 71 34 bd be 02 bb db be 9a 10 15 bf
       -1.0697106 -0.36954072 -0.42916113 -0.58228457
000010 7b 53 22 bf 44 42 45 bd 4a 8d 17 bf
       -0.6340863 -0.0481589 -0.59199965
