data/parameters/parameters-17.pt (torch_old, 30847 bytes, 6 tensors)

rnn.weight_ih_l0 f4 [68, 89]
00000000: 0890 263d 96d6 3b3e 3327 d03d 0ad5 79be
00000010: c8bc 79bd d298 2cbd c340 083d 68bc 163e
00000020: 6fb8 0b3d 2287 683d 1c0c 8bbd 3bad 68bd
00000030: e303 87bd b567 31bd 7a0c 6f3d 18d0 c4bd
00000040: df5c ad3d 5ac5 243d 573e 13be 6297 963c
00000050: 71fa 553e 8441 85bd e90e 7abe 5e21 813e
00000060: 2dc2 cc3e 8721 8f3e 6f7f 553e 11f0 0fbf
00000070: a070 ea3d a2f0 6f3e e09e d73e c077 e43b
00000080: 6885 3a3d bfe2 d73c 3e9e 80bc a604 02bd
00000090: 6399 00be 9b65 5cbc b368 793d 1da5 d83c
000000a0: 9f68 263d f2ce aa3d eee4 02bd 20a1 913d
000000b0: e291 7bbd ad17 af3d fcb5 a1bc d64e a9bc
000000c0: e727 3c3d 4c5f 5c3e 0d3a 3d3d d73d 083d
000000d0: eced 3c3d 81fa 98bb 3427 6abc 937d 9d3c
000000e0: 5332 f43d f245 173d 7806 e93c 122c 793d
000000f0: c12a 4a3c e5fd 0dbd cdd0 4b3d 3212 65bd
00000100: 7bbe 673d 5b34 06bc 4375 6dbc 880b 65bd
00000110: 1d6e 34bb 5e7d 383d 3c53 873d a857 653e
00000120: 5744 24bd 0834 623d 953d 3a3d fcd5 c03c
00000130: 733a 023c ca35 743c 9784 3a3e 132d 873b
00000140: df05 d13c 80ce 063c 5070 f53c c7d2 af3d
00000150: 7b3f 093d 3b05 1c3d e16d b2bb 8685 633c
00000160: 3d29 bc3d f466 fc3d fa48 22be 2a8e b43d
00000170: 32bd 4cbc 4481 783d 1bae 353d 2904 df3d
00000180: ff1a 523d 91ca 353e 6faf 2d3e c3fb c03d
00000190: 23c3 28bc b20e 04be 2212 cebd 8a04 bcbc
000001a0: 34b2 90bd 3600 263e 5502 773d d3e3 b23c
000001b0: 4dd1 313d 9191 8c3d 88ff 8d3c f295 0a3e
000001c0: 79a8 c03d 9433 943e e4d1 643d fe6b 733e
000001d0: 323f 863e adc9 073e 280d bc3e 8556 653e
000001e0: ddbd bf3d 5b66 d4bc 46e4 bf3c 41ae 873d
000001f0: bc42 0fbe a5ff f63c 16ff cd3d e0d2 91bc
00000200: 291f b8bc 489e 223e ad2f 873d 6919 223e
00000210: 1523 fcbc b459 74bd fdb5 853d c789 3e3d
00000220: d85a a8bc 10df 9a3d 2f50 753d ecc2 033d
00000230: eb04 653d 421e bc3b 20de ba3c 5264 333c
00000240: 2689 533c 7c80 513c 1547 383c c8c0 0e3d
00000250: edd0 093c aa61 eb3c e03c 083c e66e 5f3d
00000260: 554e 6b3d dba1 543d 8694 1f3c 2895 333c
00000270: 8c25 2a3d b539 273d e639 9e3d 954b 7b3d
00000280: fce5 e63c b7cf 1b3d db02 523d 0706 83bb
00000290: af55 67bb a16c 823d 8f75 b83c 6019 c5bb
000002a0: d052 113c 9c7d 733c 2a7d 86bb 58c8 2e3d
000002b0: 8f39 b93d 5599 b43d 614a 533d f96b 7e3d
000002c0: af26 f53d 974a ed3d cedb be3d 649d cb3d
000002d0: 83fa 033e f040 2cbe 2088 9d3d d335 12bd
000002e0: f88e 8cbb f6b8 bbbd a905 e93b db7c 103d
000002f0: c6a5 533e 3b2f d83d a4b1 a03d 8d8f 19be
00000300: 1d0c 74bc f620 9fbd d5f8 043e 9f9a 53bd
00000310: fce6 be3b 055b c73d da41 fabd 0bfc ed3c
00000320: 07a9 593e 9a98 9fbd 4403 c73d e24c b73e
00000330: 1d58 493e 0fc9 603e e400 833e 2000 3b3e
00000340: 2f25 673e 1963 5c3d 2aec 1f3d 522a 12bd
00000350: 04cc 6a3c caee 573b 8779 cf3a 034b 763d
00000360: e908 b2bc 7648 03bd 288f 8e3d 280c febc
00000370: e926 293e 9acd 3a3c 898b 763d e27a 633c
00000380: 4999 333c 520a 8e3b ee4a 3f3d 0818 86bd
00000390: 34c9 563c 7ec6 c23c 4445 8b3d cbfa 33bc
000003a0: e026 be3b 61e2 a3bb a0c5 46bc fea8 6f3c
000003b0: 3619 ebbb 857e 54bc 7dc8 ad3d b8ef 113d
000003c0: f43b a13c 3f29 4e3b cb75 333d 6eb3 fc3b
000003d0: eba5 2e3c d239 203d a9a2 723d 4668 b23d
000003e0: d803 b83d 3212 ca3d 2ea0 7b3d b341 663d
000003f0: d94c 933d 7ac7 533b e39a 183d a44b f13c
0.040664703 0.18343577 0.10163727 -0.24397674 -0.06097105 -0.04213793 0.033264887 0.14720309
0.034111436 0.056769498 -0.06789419 -0.05680583 -0.06592538 -0.043311793 0.058361508 -0.09610003
0.084649794 0.04022727 -0.1437925 0.018382732 0.20896317 -0.06506637 -0.2441975 0.2522077
0.39991894 0.27955267 0.20849393 -0.5622569 0.11447263 0.23431638 0.421134 0.006972283
0.045537382 0.026353238 -0.015700456 -0.031742714 -0.12558512 -0.013451959 0.060890865 0.02644592
0.04062712 0.08340253 -0.031956606 0.0711081 -0.06141842 0.08549438 -0.019740097 -0.020667475
0.04593649 0.21520728 0.04619794 0.0332621 0.046125337 -0.0046685343 -0.014291573 0.019224918
0.11923661 0.03693194 0.028445467 0.060833044 0.012339295 -0.03466596 0.049759675 -0.055925556
0.05657814 -0.008191193 -0.014493289 -0.0559192 -0.0027531453 0.045041434 0.066076726 0.2239672
-0.040104236 0.055225402 0.045468885 0.023539536 0.007948506 0.014905402 0.18214642 0.0041252463
0.025515495 0.008227944 0.029960781 0.085851245 0.033507805 0.038090926 -0.0054452275 0.013886815
0.09187553 0.12324324 -0.15848151 0.08816178 -0.01249628 0.060670152 0.044355493 0.10889465
0.051295277 0.17753054 0.16961454 0.0942302 -0.0103004305 -0.12896231 -0.10062052 -0.022951383
-0.070652395 0.16211018 0.06030496 0.02183715 0.043412495 0.06863702 0.01733376 0.13533762
0.094071336 0.289456 0.05586423 0.23771665 0.2622009 0.13260527 0.36728787 0.22396286
0.093623854 -0.025927713 0.023424279 0.06625033 -0.13990301 0.030151198 0.100584194 -0.017800748
-0.022475796 0.15880692 0.0660089 0.15830006 -0.030778447 -0.05965586 0.06528852 0.046518113
-0.02055113 0.07562077 0.059890922 0.032168314 0.055912893 0.0057409117 0.022810996 0.010949211
0.012911117 0.012786981 0.011247416 0.03485182 0.008411628 0.028733093 0.008315295 0.05454912
0.05744775 0.05191217 0.009740001 0.010960855 0.041539714 0.040826518 0.07725887 0.061351378
0.028185837 0.03803989 0.051272254 -0.0039985212 -0.0035298874 0.063683756 0.022516994 -0.006014988
0.008869842 0.014861491 -0.004104276 0.04267153 0.090441816 0.08818308 0.051584605 0.06211469
0.11970269 0.115864925 0.09319268 0.09942129 0.12888531 -0.16821647 0.076919794 -0.035695862
-0.004289504 -0.09166138 0.0071112704 0.03527532 0.20668706 0.105558835 0.07846382 -0.14996167
-0.014895466 -0.07769959 0.12985547 -0.05166113 0.0058258753 0.097341575 -0.122195914 0.029050848
0.21255885 -0.07792778 0.0971742 0.35800844 0.19662519 0.21951698 0.25586617 0.18261766
0.22572778 0.053805444 0.039043583 -0.03568489 0.014330868 0.0032948726 0.0015829065 0.06013013
-0.021732764 -0.032051526 0.06960899 -0.031011656 0.1651875 0.011401558 0.060191665 0.013884278
0.010961839 0.0043347264 0.046702318 -0.06547552 0.013109494 0.02377629 0.06800321 -0.010985087
0.005802974 -0.0050013517 -0.012132078 0.014627693 -0.0071746362 -0.012969618 0.08485506 0.035629004
0.019681908 0.003145769 0.043813508 0.0077118194 0.010659675 0.03911764 0.059237156 0.08711295
0.08985108 0.09866752 0.061432056 0.056215 0.07192392 0.0032314942 0.037257086 0.029455014

rnn.weight_hh_l0 f4 [68, 17]
00000000: b111 1ebc dfc6 d63c 44fe 41be c77c e93a
00000010: 3865 12bd 1deb 273d fd1d d5bd ec91 4a3d
00000020: 5020 abbc 3b3b 4fba fc3c 453d 4730 783d
00000030: 3384 b63d 151e bb3d 0ffd 203b 4127 903d
00000040: edfe 3abc 1ac4 203d 043d 0e3b 0cb8 29bd
00000050: 7fff aebc e935 af3d 6595 81bc 305f 1c3e
00000060: b303 c03c d8ed 593d a586 943c 50c4 29bd
00000070: 559a 68bd 9603 e4bc c4fa 8e3d b8a8 f5bd
00000080: 819b 80bd c0cf 8cbd 7a6e bd3d bb03 cebd
00000090: 97ce fdbc c769 95bd 6b57 bf3d 9417 20bd
000000a0: d293 743d 7a3e d03d d59d 1b3d de0b 203e
000000b0: fe6c 0cbd e5d1 1cbb 1ded b0bd a403 a33c
000000c0: a1a8 17be aba3 a5bc ced5 b7bd 6b13 4cbc
000000d0: 6b0e afbd 9f7b a8bd b97d ae3d 2ddf 203e
000000e0: 5e8d bbbd 1e70 a73d 9137 b93d 0ac7 d53c
000000f0: 59d0 6a3e 4eb0 2c3d 4952 ffbd ad2f b3bd
00000100: dce7 a63d ac27 07be 92c6 c9bd 68c5 dbbc
00000110: 4e50 65bd 39ad cabd 2667 f93b a11f 203d
00000120: 4f49 b33d 4c4b e5bd a0b8 c33d 28f4 bebc
00000130: e449 9c3d 01c5 913d 9f65 8fbc d201 6ebd
00000140: d851 ef3c d4f2 53bb 48d9 78bd ea89 86bc
00000150: de87 debd e7cb 0ebc 3e97 27be f659 b4bd
00000160: cbc0 19bd c2c7 af3d 911e c4bd 46e1 3b3d
00000170: 627a 0e3d 434a 463d 17e5 1f3e fa38 a43c
00000180: 35be bd3d c7f2 893d c7b0 0dbc 3f07 2cbd
00000190: 22ad 8fbd c5a7 92bd 9faf 3abc 2977 aabc
000001a0: 52ef 02bd 96cb 963d 60f8 fd3c e81b 02bd
000001b0: edd4 f33d 8475 583d a0aa b33d 1e69 45bd
000001c0: a640 cf3c 622a 61bd fa2b 0ebd 7fb3 a9bc
000001d0: 3664 d4bd 7b6e b9bc b5b7 a2bd e5d9 fdba
000001e0: ed1b afbd a4b3 5ebd 9d36 85bd 0a5b 1ebc
000001f0: e365 1f3d e6fe 45bd 7112 073e 4156 b6bd
00000200: 52c6 0e3c 3ca1 243d 062b 42bd c490 8abd
00000210: f1a4 fb3d fa12 92be 0415 15bd 67ef a2bb
00000220: a4d2 8bbd 27e5 97bc 4c8a 3a3d f92f 093d
00000230: c610 c4bb 7978 78bd 13ab 283d 8d8f 9e3d
00000240: f989 323e ae3c 653e 7f8c e93c 539e c33d
00000250: a899 9ebc 731c 18bd 01d6 303d 72e3 bbbc
00000260: 3550 8cbd 4f7b 143d 7999 09bd c846 95bd
00000270: 580a b53d c40d fc3d 20fd afbd bae6 243d
00000280: c700 ef3d 9816 d63c c8e2 9d3d 5f41 fd3d
00000290: fd93 8bbd e477 333e 4a42 a93c 5a47 d3bd
000002a0: a41a a2bd 18c5 e5bd d351 d03d 8fe4 b8bc
000002b0: a76d 9cbd 2f14 853d 6f88 ce3d ad80 cf3d
000002c0: 1b80 c5bd c134 5c3e 6329 c9bd 89c1 013d
000002d0: 22dc 81bd 184a b33d b9e7 d3bd 9cdc 883d
000002e0: c577 2ebd 92f4 65be fcb4 f23d 1bbe c4bd
000002f0: 8bb3 c43d 5a77 a03c 674d cdbc b02b abbd
00000300: e4eb 823d 6048 943e 5117 d23c 1fed 5c3e
00000310: 9fac 6bbd 9efb 0dbd 7404 ad3d e7de 1c3e
00000320: 75fd e9bd bd2c ecbd 6347 023e e113 8bbe
00000330: f9b0 ae3d 71d7 603d aed2 4cbe 4acc e23d
00000340: 2eaf 113c 70d5 cb3d b7b6 5c3d d3ca c4bc
00000350: a07f 2fbd a06d 153e 9ac6 f0bc 1847 8abd
00000360: 1329 dabd 3a46 133e adde 2dbd 4ee1 b1bc
00000370: 82ef dbbc 3eb6 943d 4b29 b2bd a2c1 4bbd
00000380: 7874 0bbd 7df3 c13d e94d b0bd dcb5 bb3d
00000390: 39fa 6bbd d7c3 e73d d240 033e 7745 643d
000003a0: 3d33 0f3d 6480 8e3d 553f 0fbe 19b5 67bc
000003b0: 3331 5d3d 92d0 04be 56c3 73bc f8a8 94bd
000003c0: 7696 00bd 5c23 a63d 3afd 033d 96ab 5dbc
000003d0: f096 263d 3535 0b3d e899 133e 2753 acbc
000003e0: a588 783d 62ba 36bd 46ed 61bd 5e4f 0cbd
000003f0: 30d5 69bd 803f 1bbd 7d81 cfbd 7b8c 6abd
-0.009647773 0.026217876 -0.18944651 0.0017813676 -0.03574106 0.040995706 -0.104061104 0.04945557
-0.020889431 -0.00079052494 0.048153862 0.060592916 0.08911934 0.09136597 0.0024564897 0.07038737
-0.011413318 0.039249517 0.0021703849 -0.041435286 -0.021362064 0.085552044 -0.015818307 0.15270686
0.023439264 0.05320534 0.01813061 -0.041446984 -0.056787807 -0.027833741 0.069814235 -0.11995071
-0.0627966 -0.06875563 0.09249587 -0.10059305 -0.030982299 -0.07295566 0.093428455 -0.039084986
0.059711285 0.101681665 0.037992317 0.15629527 -0.03428363 -0.0023928818 -0.08638976 0.019899197
-0.1481042 -0.020219645 -0.08976327 -0.0124558015 -0.08547672 -0.08226704 0.085200734 0.15710135
-0.09157823 0.081756815 0.090438016 0.026095886 0.22931041 0.042160325 -0.124668665 -0.08749328
0.081496924 -0.13198727 -0.098523274 -0.02682753 -0.055984788 -0.09896321 0.007611173 0.039092664
0.08754217 -0.11196002 0.09556699 -0.023309782 0.07631281 0.07117654 -0.017504511 -0.058107205
0.02921383 -0.0032340782 -0.06075409 -0.016423184 -0.10865758 -0.008715606 -0.16366288 -0.08806221
-0.037537377 0.08583023 -0.095761426 0.045869134 0.034784682 0.048410665 0.15614735 0.0200467
0.09264795 0.06735759 -0.008648104 -0.041999098 -0.07015444 -0.07160906 -0.01139441 -0.020808773
-0.031966515 0.0736305 0.031002223 -0.031764895 0.11905847 0.052846447 0.087727785 -0.04819595
0.025299381 -0.05497206 -0.034709908 -0.020715473 -0.10370676 -0.022635689 -0.079451956 -0.0019367306
-0.08550248 -0.054370537 -0.06504557 -0.00966526 0.038915526 -0.048338793 0.13190629 -0.089031704
0.008714275 0.040192828 -0.04740431 -0.06765893 0.122873195 -0.28530103 -0.036396995 -0.0049723866
-0.06827286 -0.018541886 0.045542046 0.033493016 -0.005983445 -0.060661767 0.041178774 0.07742224
0.17435445 0.22386429 0.028509377 0.09551682 -0.019360378 -0.037136506 0.04317284 -0.022935603
-0.06851236 0.03625041 -0.03359363 -0.07288891 0.088398635 0.12307313 -0.08593202 0.0402591
0.1167007 0.02613382 0.07709271 0.12365984 -0.06815336 0.17526203 0.020661492 -0.103163436
-0.079152375 -0.11219233 0.10171857 -0.022569923 -0.07638102 0.0649799 0.100846164 0.10131965
-0.09643575 0.21504499 -0.09822347 0.03167871 -0.06340815 0.08754367 -0.10346932 0.06682703
-0.04259469 -0.22456577 0.11850926 -0.09606572 0.096045576 0.019588161 -0.025061322 -0.08357942
0.06392649 0.28961468 0.025645884 0.2157483 -0.05753767 -0.03466379 0.08448115 0.15319405
-0.11425296 -0.11531971 0.12722544 -0.27163604 0.085298486 0.05489296 -0.20002243 0.11074121
0.008891864 0.09952819 0.053885188 -0.024022495 -0.042846322 0.145926 -0.029391576 -0.06751841
-0.106523655 0.14382258 -0.04244869 -0.021713879 -0.026847605 0.072613224 -0.08699282 -0.04974521
-0.03404662 0.0947027 -0.0860861 0.09165546 -0.057611678 0.1131665 0.12817696 0.05573031
0.034960974 0.06958082 -0.13989003 -0.014142298 0.054002 -0.12970188 -0.014878115 -0.07258791
-0.03139349 0.08112213 0.032223918 -0.013529679 0.04067129 0.03398629 0.1441418 -0.021035744
0.06067719 -0.044611342 -0.055157922 -0.034255378 -0.057088077 -0.037902355 -0.1013212 -0.05726288

rnn.bias_ih_l0 f4 [68]
00000000: 0672 1a3c 4064 823e 3118 443e f727 473e
00000010: 01f5 9d3e 1925 143e 91c4 4a3e 5b69 273c
00000020: 3993 9c3d 6519 633e 8bef 2f3e 5edd 923d
00000030: 8633 673e 3f5c 993d 2248 863e 8c21 603d
00000040: b006 373d 17ca 5b3e 2cf9 4e3e 65d8 103e
00000050: b811 5e3e 1798 623e c41e 003e 57c8 2f3e
00000060: a32b 443e a812 513e ba25 263e 7306 443e
00000070: c4c8 013e 9b93 873e 4cfa 4a3e f3ba cd3d
00000080: fdc7 873e 879f 9d3e e856 143b cdef 19bd
00000090: 7804 7b3c a859 46bd d4ba 98bb b9c2 3e3a
000000a0: ee08 bbbc 0906 4b3d ec3d 8c3d dda7 95bb
000000b0: 5597 1a3c c97b 5abd 33fe 083d 69ff 703d
000000c0: 5d82 9c3c e25a 2e3d 7630 9bbd 1aef b63e
000000d0: f155 e33e 1179 cf3e f5b5 c23e 8cb5 c73e
000000e0: d606 803e d0f8 a43e abe6 c83e 8141 a53e
000000f0: 722b d23e 92d9 c63e 8c21 aa3e 0e4d b83e
00000100: 3f8a 993e fbbb 9f3e 3a55 a73e adb4 893e
0.009426599 0.2546711 0.19149853 0.19448839 0.30850986 0.14467277 0.19801547 0.01021799
0.07645268 0.22177656 0.17181222 0.07171129 0.22578248 0.07488298 0.26226908 0.054719493
0.044684112 0.2146381 0.20212239 0.14145048 0.21686447 0.2212833 0.12511736 0.17166267
0.19157271 0.20417273 0.16225329 0.19143085 0.12674242 0.26479802 0.19822043 0.10045423
0.26519766 0.30785772 0.0022634808 -0.037582207 0.01532089 -0.048425347 -0.0046609435 0.0007276941
-0.022831406 0.049566302 0.06847748 -0.00456713 0.009435494 -0.053340707 0.03344555 0.058837328
0.01910513 0.04256714 -0.075776026 0.35729295 0.44401506 0.40522054 0.38029447 0.39005697
0.25005215 0.3222108 0.39238486 0.32276538 0.4104877 0.38837868 0.3322872 0.35996288
0.29988286 0.31198105 0.3268221 0.26895657

rnn.bias_hh_l0 f4 [68]
00000000: c371 1a3c 4664 823e 3218 443e f827 473e
00000010: 02f5 9d3e 2125 143e 91c4 4a3e ed68 273c
00000020: 2058 9c3d b318 633e 94ef 2f3e 68dd 923d
00000030: 8933 673e ee5b 993d 2148 863e 9221 603d
00000040: 8105 373d d7d8 5b3e b16c 503e a7b8 0f3e
00000050: b911 5e3e dd97 623e c41e 003e 64c8 2f3e
00000060: a42b 443e d975 533e 5725 263e 7506 443e
00000070: f0f1 013e 9993 873e f1fa 4a3e 18bb cd3d
00000080: f4c7 873e 65dc 9d3e 090b 00be 7328 943c
00000090: b0d0 493c d7f2 133d 01af e0bd 55f2 80bd
000000a0: c01d 64bc 120c 1dbc 94c0 c63d 4228 9ebc
000000b0: 376c 073d fda7 5dbc 5350 9a3d 349a a43c
000000c0: 2314 02bc 08e2 a3ba 8ca4 8abd 19ef b63e
000000d0: f155 e33e 0f79 cf3e f4b5 c23e 89b5 c73e
000000e0: db06 803e d2f8 a43e abe6 c83e 8f41 a53e
000000f0: 732b d23e 94d9 c63e 8c21 aa3e 184d b83e
00000100: 408a 993e fcbb 9f3e 3955 a73e a7b5 893e
0.009426537 0.25467128 0.19149855 0.1944884 0.3085099 0.14467289 0.19801547 0.010217887
0.07633996 0.22177391 0.17181236 0.07171136 0.22578253 0.07488237 0.26226905 0.054719515
0.044682983 0.21469437 0.20353962 0.14035283 0.21686448 0.22128244 0.12511736 0.17166287
0.19157273 0.20650424 0.16225182 0.19143088 0.12689948 0.26479796 0.19822289 0.10045451
0.2651974 0.3083221 -0.1250421 0.018085694 0.012317821 0.036120262 -0.10970879 -0.06296221
-0.013923109 -0.009585397 0.097047 -0.019306306 0.033062186 -0.013528821 0.07534852 0.020093061
-0.007939371 -0.0012503276 -0.06769666 0.35729292 0.44401506 0.40522048 0.38029444 0.39005688
0.2500523 0.32221085 0.39238486 0.3227658 0.41048774 0.38837874 0.3322872 0.35996318
0.2998829 0.31198108 0.32682207 0.26896402

FC.weight f4 [7, 17]
00000000: 8a63 a13e 956e 153f 2cb3 f63e 89d3 e3be
00000010: 5fcc 0b40 aeee e73e 6fea 49be 52ba e03e
00000020: 0308 adbe 01d6 03bf cc33 0ec0 5562 a93e
00000030: a53f 063f 151d b33e 10f5 8d3e 1b2d c7be
00000040: a503 cbbd f72d 1e3f c148 24c0 3811 ae3e
00000050: 77e8 f1be c8e8 efbe 72e7 a4bd 0f4e 483d
00000060: 9fe0 043f 5c30 61bf d97a d4be 6601 eb3e
00000070: 4e8b 823e 7d4d 163f 6da3 cebf 1ab6 e03e
00000080: 6724 00bf 80f3 53bd bd60 e33e 7b8a 0c3f
00000090: fc27 d63e 4e3b f7be bd1c e4be 15b5 bc3d
000000a0: dabe e1bd 21d4 17c0 a4de f6be d8ea f9be
000000b0: 72a6 ea3e a0c6 b53e 062c 0b3f 5219 853e
000000c0: ef53 03c0 28fd e4be e102 873d cee3 04c0
000000d0: 6d65 093f 2bb0 0dc0 3c2e f6be f04c bebe
000000e0: 4104 efbb 09dc e2bc a2f1 a73e b173 e7be
000000f0: 488b 02bf 73c7 d53e f977 c23e 83b9 f33e
00000100: b59b 813e dce1 fd3e c8c0 c7be 980e ac3e
00000110: 6a3e 653e 6097 d13e 5263 c73e 8525 ddbe
00000120: 2d88 92be 9a77 fe3e 7193 fe3d 0977 923e
00000130: 41ea 17be 4083 08bf 7e26 123f f2b6 06c0
00000140: 9f11 1cc0 8ff1 d23e cb31 ca3e 62ab 37be
00000150: d7db d1bd e162 433e ce38 f13e 3977 113f
00000160: 1b65 00bf 9d9a dfbe c917 93be 739b b0bf
00000170: ff4b f53e a5b9 cd3f 1f74 1440 db85 943e
00000180: 1d07 973e ea81 c13e 85a0 3e3d 211f 043f
00000190: 4b47 cfbe bafd 9a3e 5975 cf3e b384 033f
000001a0: 9492 173f 7235 0e40 d392 11bf beaf a93d
000001b0: 5de6 79bd e858 153f 695e b3be a3f5 06bf
000001c0: c739 9c3e 87a1 e33e 6b52 023f 7b45 ce3e
000001d0: 1c7a cd3e abca 0840 3a45 2e3e
0.31521255 0.5837186 0.48183572 -0.44497326 2.1843488 0.45299286 -0.19718336 0.4389215
-0.33795175 -0.5149842 -2.2219114 0.33082834 0.52440864 0.34983125 0.2772603 -0.389016
-0.099128045 0.61788887 -2.5669405 0.33997512 -0.4724767 -0.46857285 -0.08051957 0.048902567
0.51905245 -0.87964416 -0.41499975 0.45899504 0.25496906 0.5871199 -1.6143624 0.43888932
-0.50055546 -0.05174589 0.44409743 0.54898804 0.4182738 -0.48287433 -0.44553176 0.09214226
-0.1102273 -2.3723223 -0.48216736 -0.48811984 0.45830113 0.355031 0.5436405 0.2599588
-2.051998 -0.44724393 0.06592346 -2.076404 0.5367039 -2.2138774 -0.4808215 -0.37168074
-0.0072942083 -0.027692812 0.3280154 -0.45205453 -0.50993776 0.4175373 0.37982157 0.47602472
0.25314108 0.4958638 -0.39014268 0.33604884 0.2238709 0.40935802 0.38942963 -0.43192688
-0.2861952 0.49700624 0.12430466 0.28606442 -0.14835455 -0.5332527 0.57089984 -2.104916
-2.4385755 0.4119992 0.39491114 -0.17936471 -0.10247009 0.19080688 0.4711365 0.56822544
-0.50154275 -0.43672648 -0.28729084 -1.3797439 0.47909543 1.6072279 2.3195875 0.29008374
0.29497615 0.3779443 0.046539802 0.5161 -0.4048408 0.30271703 0.40519217 0.5137436
0.59208035 2.222012 -0.5686466 0.08285473 -0.061010707 0.58338785 -0.35032967 -0.5271856
0.3051283 0.44459173 0.5090701 0.40287384 0.40132225 2.1373699 0.17018595

FC.bias f4 [7]
00000000: 955e b4be 07a5 aebe 6a29 cdbe a557 ecbe
00000010: 8190 b5be e51b c6be 94de b8be
-0.3522841 -0.3411028 -0.4007066 -0.46160617 -0.3546181 -0.38693157 -0.36107314
