data/parameters/parameters-11.pt (torch_old, 30847 bytes, 6 tensors)

rnn.weight_ih_l0 f4 [68, 89]
0.0637383 -0.009843706 0.0865287 0.12709026 -0.08022229 0.05854696 -0.029101405 0.0029742462
0.09269262 -0.04867742 0.047018036 0.112950556 -0.057327997 0.06592758 0.01419263 0.015750889
-0.05223293 0.019636232 0.013554023 -0.12869999 0.11036582 0.0005648765 -0.067166306 0.085978344
0.15395418 0.10859651 0.044533756 0.147256 0.11402826 0.17340782 0.051954407 -0.006704399
0.06913876 -0.03167695 0.015943212 -0.00886285 0.029336661 0.08950292 0.1345383 0.024477534
0.038785927 0.05920523 0.030407716 0.062234882 0.0029916074 0.09762445 -0.019992733 -0.0029059427
0.009721081 0.01785577 0.016742894 0.029566173 -0.0036301925 -0.00335176 0.0032375338 -0.0041818907
0.008317727 -0.0040192204 -0.0019622 -0.0008421321 0.0026714955 0.04273156 0.08106359 0.028452754
-0.00804042 0.011261591 0.0058723893 0.08364497 0.07376804 0.032831784 0.008908243 0.016436664
0.08216519 0.0085000815 0.043769933 0.023282006 0.010227048 -0.0006678276 0.009743904 0.04918584
0.008823787 0.012390657 0.09109532 0.076621175 0.035509065 0.053736944 0.0012684056 0.052520283
0.08381141 0.06706817 -0.031453267 -0.049526922 0.10340132 -0.06340364 0.022228478 0.057505276
0.013132401 -0.15659745 -0.19906199 -0.024537517 0.122621626 -0.04052582 0.3829758 -0.0031478172
-0.0013016588 0.2478513 -0.2133808 0.074661456 0.22506766 -0.2714211 0.0020786305 0.4332321
-0.25169247 0.047218952 0.06808485 0.11555347 0.15119225 -0.1157539 0.02415259 0.37724215
-0.0720453 0.048501648 -0.0035152961 -0.07079909 0.0972667 -0.015002839 0.10030845 -0.050485138
-0.06275839 0.02076422 0.03444134 0.08294674 -0.029408893 -0.002772795 0.012239523 0.035772104
0.011633058 -0.021604458 -0.020617994 0.00046250643 -0.0128735155 0.0026611753 0.028067756 -0.006733484
0.007936959 0.004125934 -0.02001735 -0.009891723 -0.026919307 0.04368778 -0.0070471545 0.036799062
-0.005766716 -0.012214239 0.031599253 0.04180578 0.045920216 -0.0086557055 -0.09368767 0.00076079654
-0.030764999 0.0038594177 0.008881548 0.16480266 -0.0015710675 -0.01959468 -0.0049885507 -0.0074156737
-0.017112281 0.0061997757 0.084552765 -0.053808566 0.014197534 0.04236471 0.07448863 0.03520341
0.0019815 0.050782263 0.013007658 0.03813586 0.055321764 0.06170727 0.055232514 0.015141695
0.04049447 0.10498925 0.033306725 0.03532189 0.020576684 0.03506234 0.07716406 -0.022820933
-0.016147062 0.07496599 -0.0034588233 -0.023726067 0.04826383 0.03027247 -0.045442577 0.00068301655
0.0913254 -0.03421704 0.09736032 0.12998079 0.14140576 0.16599812 0.1340926 0.066936
0.14369187 0.020869756 0.03425168 0.032389246 0.046395697 0.04606221 0.049976226 0.024066964
0.06788982 -0.00039342316 0.029556002 0.024850987 0.024242014 0.016229432 0.021732172 0.062763244
-0.023502687 0.01396091 -0.012843066 -0.0015007273 -0.004661662 -0.0052385055 0.0023228952 0.0027756193
0.0012643888 -0.0015379224 -0.004124821 0.00041710268 -7.895257e-05 0.0012400062 0.017634612 0.04989398
0.042040486 0.04294886 0.05974756 0.053735837 0.03723144 0.02823407 0.018772377 0.035835292
0.04365537 0.012436614 0.022888929 0.014633654 0.012982236 0.01878333 0.01862507 0.020984916
00000000: 3a89 823d 7f47 21bc f635 b13d f323 023e
00000010: 954b a4bd f0ce 6f3d 1266 eebc 92eb 423b
00000020: a1d5 bd3d f961 47bd fc95 403d 9f52 e73d
00000030: c3d0 6abd 0a05 873d 3488 683c 0208 813c
00000040: 32f2 55bd 2adc a03c b111 5e3c eec9 03be
00000050: 7a07 e23d 3814 143a 7d8e 89bd 6a15 b03d
00000060: 2aa6 1d3e d967 de3d 0769 363d 47ca 163e
00000070: a687 e93d d291 313e 25ce 543d 93b0 dbbb
00000080: 9f98 8d3d b1bf 01bd 579b 823c 7d35 11bc
00000090: 7053 f03c 4f4d b73d 68c4 093e 1c85 c83c
000000a0: fedd 1e3d 2f81 723d 9a19 f93c 01ea 7e3d
000000b0: d80e 443b 54ef c73d cdc7 a3bc a171 3ebb
000000c0: 2b45 1f3c 4446 923c 6528 893c c234 f23c
000000d0: 86e8 6dbb 34a9 5bbb ce2c 543b 3e08 89bb
000000e0: 1347 083c aab3 83bb 4198 00bb 87c2 5cba
000000f0: 4214 2f3b 4a07 2f3d ab04 a63d c015 e93c
00000100: f7bb 03bc 8982 383c 2c6d c03b 0e4e ab3d
00000110: b313 973d 9f7a 063d e1f3 113c 2fa6 863c
00000120: 3946 a83d ed43 0b3c 1a48 333d e8b9 be3c
00000130: 598f 273c 2711 2fba e5a4 1f3c 1777 493d
00000140: a591 103c 2f02 4b3c 2f90 ba3d 90eb 9c3d
00000150: f471 113d 451b 5c3d a140 a63a 821f 573d
00000160: 51a5 ab3d 095b 893d 24d5 00bd bedc 4abd
00000170: 12c4 d33d c5d9 81bd 7f18 b63c a78a 6b3d
00000180: 4829 573c 155b 20be e8d6 4bbe e702 c9bc
00000190: 0c21 fb3d 67fe 25bd 6715 c43e 9c4b 4ebb
000001a0: 6c9c aaba bbcc 7d3e 7f80 5abe 1be8 983d
000001b0: 2378 663e b5f7 8abe a239 083b 99d0 dd3e
000001c0: d6dd 80be a968 413d 1270 8b3d 4ca7 ec3d
000001d0: 24d2 1a3e 6110 edbd a7db c53c e225 c13e
000001e0: 7c8c 93bd aaa9 463d e260 66bb 1dff 90bd
000001f0: c333 c73d 78ce 75bc 846e cd3d 81c9 4ebd
00000200: 7987 80bd ba19 aa3c 5d12 0d3d fbdf a93d
00000210: ebea f0bc c8b7 35bb 4888 483c c585 123d
00000220: 9598 3e3c d5fb b0bc 11e7 a8bc 907c f239
00000230: 70eb 52bc 1d67 2e3b 5aee e53c 8fa4 dcbb
00000240: 050a 023c d832 873b 6dfb a3bc e510 22bc
00000250: e185 dcbc f5f1 323d d1eb e6bb 9dba 163d
00000260: b8f6 bcbb 3b1e 48bc 386e 013d 8a3c 2b3d
00000270: d616 3c3d a9d0 0dbc 52df bfbd 3170 473a
00000280: e106 fcbc 49ee 7c3b ea83 113c 07c2 283e
00000290: 47ec cdba 0685 a0bc ff76 a3bb 2eff f2bb
000002a0: 0e2f 8cbc 7d27 cb3b 002a ad3d 5f66 5cbd
000002b0: c69c 683c 9e86 2d3d 7f8d 983d 7331 103d
000002c0: 0edc 013b 1001 503d 121e 553c 5934 1c3d
000002d0: 1399 623d c3c0 7c3d 7d3b 623d df14 783c
000002e0: 88dd 253d 9b04 d73d a26c 083d b0ad 103d
000002f0: 6f90 a83c 879d 0f3d 3108 9e3d f7f2 babc
00000300: d846 84bc c587 993d 6dad 62bb 2b5d c2bc
00000310: 4bb0 453d f9fd f73c ff21 3abd 770c 333a
00000320: d008 bb3d 2b27 0cbd d964 c73d af19 053e
00000330: accc 103e 69fb 293e 924f 093e be15 893d
00000340: f623 133e 0df7 aa3c 7d4b 0c3d 96aa 043d
00000350: 6a09 3e3d baab 3c3d dfb3 4c3d 1528 c53c
00000360: d109 8b3d 5d44 ceb9 6e1f f23c 4c94 cb3c
00000370: 3097 c63c 96f3 843c ab07 b23c 048a 803d
00000380: b588 c0bc 4dbc 643c b96b 52bc 0db4 c4ba
00000390: dbc0 98bb c5a7 abbb b73b 183b 2ae7 353b
000003a0: d9b9 a53a 1d94 c9ba 8229 87bb 93ae da39
000003b0: 5793 a5b8 b487 a23a 7676 903c a15d 4c3d
000003c0: a532 2c3d 25eb 2f3d dcb9 743d 1c1a 5c3d
000003d0: ff7f 183d 234b e73c 87c8 993c 07c8 123d
000003e0: f9cf 323d f1c2 4b3c 9081 bb3c fec1 6f3c
000003f0: 72b3 543c 80df 993c 9a93 983c 8fe8 ab3c

rnn.weight_hh_l0 f4 [68, 17]
-0.020275839 -0.028482705 -0.07193798 0.034229815 0.10307184 0.023420662 -0.049530435 0.05751197
-0.037291862 0.043747567 0.02904189 0.090735495 -0.104755536 -0.08269697 0.14232242 0.04764829
-0.094172165 -0.02256313 -0.05671934 -0.11545477 0.032436583 0.06240625 0.06197838 0.024846697
0.05758222 -0.027905377 0.073431484 -0.099899925 0.003015894 -0.06471199 -0.0906365 0.07274193
0.07011203 0.05317118 -0.022281501 -0.0715567 -0.084281825 0.020682314 0.11237156 0.0027597472
-0.044877093 0.015922254 -0.011192112 0.0711657 -0.06311623 0.04914851 -0.076099336 -0.016886199
0.08301381 -0.039180595 -0.06412833 -0.03241266 -0.010776142 -0.056868467 0.1549391 0.11839078
-0.04715345 -0.05424936 -0.020918334 -0.01905676 0.077161245 -0.030221885 0.07698062 -0.036460742
0.0042622075 0.061557624 -0.022352137 -0.07234777 -0.06705659 -0.047523264 -0.080618896 -0.016946673
0.09804725 -0.014703708 -0.09245958 0.03518881 -0.042544205 0.029817473 -0.034557972 0.044132955
-0.104218625 -0.022887945 0.12268787 0.0033621588 -0.06970659 0.024309203 -0.036483277 -0.029898701
0.021475803 0.09620518 -0.047902834 -0.20968123 -0.055487473 -0.060810246 0.10279068 0.0059655844
0.1232557 -0.19222207 0.0051920656 0.23981495 -0.0753027 -0.12123333 -0.085209794 -0.043181412
0.0060030594 -0.057279292 0.07970839 0.08575018 -0.026507339 -0.09498472 -0.0030856386 0.12117663
-0.11296289 -0.03230924 0.002694097 -0.030577615 -0.121524096 -0.08822976 0.012509091 -0.034427423
-0.093577735 -0.041686896 -0.013741152 0.108098164 0.02192203 -0.0491332 -0.0061227777 -0.052626614
0.10427788 -0.034269005 0.04666408 -0.08257273 -0.031224031 0.05550541 -0.055905215 -0.0807075
-0.026019521 -0.08387494 -0.085581556 0.0051186336 0.1021582 0.002435837 -0.14262034 0.022429502
-0.0039360314 0.12196284 -0.07202564 0.09303134 -0.1323346 -0.023972958 0.17599964 -0.032009587
-0.10023199 -0.056844905 -0.036512278 0.014356782 -0.08692149 0.016034583 0.015427236 -0.07883562
-0.032872498 0.015131836 0.09530193 -0.007088236 0.052308824 -0.13319783 0.011241265 0.048096642
-0.108063154 0.04611628 0.040743172 0.023071831 0.14307447 -0.0681471 -0.09584444 -0.042584553
0.036898855 0.08583992 0.007599397 -0.0876314 -0.18740726 -0.025355175 -0.10165468 0.07848529
-0.030491512 -0.0153364595 0.03690647 -0.07800106 -0.078612775 -0.06944554 -0.010398778 0.062461212
-0.013595864 0.038158752 -0.02266562 0.08403546 0.053073462 0.013419996 -0.04942671 -0.10657685
-0.09857786 0.1260562 -0.06463115 0.0038704094 0.006034426 -0.11759129 -0.073856734 0.17451103
-0.03952148 -0.061118748 0.047558337 0.03344004 -0.047030393 -0.005432619 -0.041130714 -0.042055946
-0.10326833 0.06322668 0.059328314 0.07573425 -0.037589304 0.030178333 -0.062096164 -0.07557659
0.036163643 0.081816524 0.062069107 -0.017779034 0.049990475 -0.019155448 0.07642407 -0.03805441
0.03874988 -0.056517076 -0.07782292 0.017913604 -0.05306762 -0.038764395 -0.0032801125 -0.054158483
-0.12285134 0.042373084 0.08697487 -0.024854373 -0.1059142 -0.02437315 0.0918035 0.06520675
-0.027672444 0.05168691 -0.08878307 -0.055864036 0.09050933 -0.043744113 -0.092217006 -0.050045185
00000000: 8419 a6bc 9054 e9bc 3854 93bd 9034 0c3d
00000010: 5417 d33d b0dc bf3c 6de0 4abd ac91 6b3d
00000020: 5abf 18bd a630 333d 42e9 ed3c 88d3 b93d
00000030: 128a d6bd 075d a9bd f8bc 113e da2a 433d
00000040: 56dd c0bd 50d6 b8bc 8a52 68bd 8d73 ecbd
00000050: 39dc 043d b29d 7f3d 0bdd 7d3d 4d8b cb3c
00000060: 55db 6b3d d199 e4bc 3f63 963d 5598 ccbd
00000070: 4ea6 453b b887 84bd a19f b9bd b9f9 943d
00000080: e596 8f3d 06ca 593d b287 b6bc 528c 92bd
00000090: f39b acbd f56d a93c 0f23 e63d e0dc 343b
000000a0: 0bd1 37bd 636f 823c 1f5f 37bc 53bf 913d
000000b0: 1543 81bd f34f 493d f8d9 9bbd ed54 8abc
000000c0: 2503 aa3d d57b 20bd b755 83bd 23c3 04bd
000000d0: 6a8e 30bc e9ee 68bd 5ba8 1e3e de76 f23d
000000e0: fa23 41bd 9434 5ebd ed5c abbc ec1c 9cbc
000000f0: b706 9e3d e393 f7bc 04a8 9d3d dc57 15bd
00000100: fda9 8b3b d923 7c3d d41b b7bc 112b 94bd
00000110: f754 89bd c1a7 42bd 851b a5bd c0d3 8abc
00000120: ffcc c83d d2e7 70bc 735b bdbd 2422 103d
00000130: d542 2ebd c643 f43c a98c 0dbd c2c4 343d
00000140: 9370 d5bd 807f bbbc c743 fb3d aa57 5c3b
00000150: 54c2 8ebd 1824 c73c 7d6f 15bd 1fee f4bc
00000160: 06ee af3c 3907 c53d c335 44bd adb6 56be
00000170: d546 63bd 2a14 79bd ec83 d23d f37a c33b
00000180: 7c6d fc3d ddd5 44be 3422 aa3b 0d92 753e
00000190: 4d38 9abd 2e49 f8bd 7982 aebd fede 30bd
000001a0: 50b5 c43b b19d 6abd 273e a33d ca9d af3d
000001b0: eb25 d9bc 5987 c2bd 6d38 4abb 742b f83d
000001c0: 1659 e7bd b256 04bd 738f 303b e87d fabc
000001d0: a0e1 f8bd ceb1 b4bd eef2 4c3c c503 0dbd
000001e0: afa5 bfbd e1bf 2abd 9222 61bc 9262 dd3d
000001f0: d495 b33c e53f 49bd 95a1 c8bb 018f 57bd
00000200: a48f d53d a85d 0cbd d622 3f3d e41b a9bd
00000210: 8ac9 ffbc a459 633d defc 64bd f949 a5bd
00000220: e426 d5bc a0c6 abbd 6245 afbd 36ba a73b
00000230: 5238 d13d 90a2 1f3b 110b 12be 13be b73c
00000240: d3f9 80bb a7c7 f93d 2e82 93bd 3787 be3d
00000250: b982 07be f062 c4bc 4039 343e 7c1c 03bd
00000260: 6e46 cdbd 34d6 68bd e68d 15bd b538 6b3c
00000270: e503 b2bd f55a 833c 85c2 7c3c 9274 a1bd
00000280: 50a5 06bd 85eb 773c a92d c33d 6f44 e8bb
00000290: c741 563d 0365 08be 482d 383c fc00 453d
000002a0: 3750 ddbd 6de4 3c3d 50e2 263d 2301 bd3c
000002b0: 1d82 123e b590 8bbd 174a c4bd 246d 2ebd
000002c0: 4123 173d d7cc af3d 5d04 f93b 1778 b3bd
000002d0: b0e7 3fbe a8b5 cfbc 5430 d0bd e5bc a03d
000002e0: 56c9 f9bc c645 7bbc 3d2b 173d 05bf 9fbd
000002f0: bcff a0bd 7739 8ebd a35f 2abc 54d7 7f3d
00000300: 30c1 5ebc 5a4c 1c3d 40ad b9bc c91a ac3d
00000310: 8f63 593d 8bdf 5b3c a973 4abd f744 dabd
00000320: 30e3 c9bd e014 013e 565d 84bd b2a6 7d3b
00000330: 6fbc c53b b4d3 f0bd 3342 97bd 05b3 323e
00000340: 47e1 21bd a757 7abd 88cc 423d 6cf8 083d
00000350: f1a2 40bd 1c04 b2bb ae78 28bd db42 2cbd
00000360: 597e d3bd fd7c 813d 3f02 733d 8f1a 9b3d
00000370: 3ef7 19bd 8d38 f73c 8c58 7ebd e6c7 9abd
00000380: 5420 143d 6c8f a73d 2d3c 7e3d 56a5 91bc
00000390: d0c2 4c3d e3eb 9cbc 3984 9c3d f1de 1bbd
000003a0: 32b8 1e3d 737e 67bd a061 9fbd 8dbf 923c
000003b0: 6f5d 59bd 6ac7 1ebd 28f7 56bb 49d5 5dbd
000003c0: 7c99 fbbd 668f 2d3d e11f b23d 669b cbbc
000003d0: 8be9 d8bd 33aa c7bc 7903 bc3d 1e8b 853d
000003e0: 52b1 e2bc a7b5 533d e6d3 b5bd b0d1 64bd
000003f0: f55c b93d 072d 33bd 45dc bcbd 2efc 4cbd

rnn.bias_ih_l0 f4 [68]
0.22251128 0.108693816 0.27504617 0.16047926 0.29340023 0.1511289 0.12063392 0.283238
0.34084398 0.15232873 0.19083978 0.2669782 0.0939901 0.17859006 0.23876172 0.32597157
0.27632338 0.19805683 0.26003206 0.12507488 0.15569319 0.1745614 0.25088742 0.25212252
0.15083548 0.1706587 0.17257693 0.24452548 0.16617106 0.25082868 0.19778198 0.10322815
0.18218556 0.2234083 -0.017274326 -0.007853342 0.0056315237 -0.018612145 0.09703806 -0.010161123
-0.042019285 -0.0081297485 -0.07657846 0.013751207 -0.04607452 0.033952117 -0.1054779 0.05647527
0.055262763 -0.08091649 0.052419327 0.34966415 0.39955214 0.3284999 0.37986785 0.39002654
0.35587162 0.4020135 0.38163272 0.45981637 0.3020111 0.40310895 0.42653242 0.31354502
0.360544 0.28820744 0.4680849 0.4160011
00000000: ffd9 633e dd9a de3d dad2 8c3e ad54 243e
00000010: 8e38 963e 89c1 1a3e eb0e f73d 9204 913e
00000020: 1a83 ae3e 10fc 1b3e 816b 433e 5eb1 883e
00000030: e27d c03d 50e0 363e f47d 743e bfe5 a63e
00000040: 427a 8d3e 69cf 4a3e ec22 853e a113 003e
00000050: 096e 1f3e 39c0 323e 5174 803e 3416 813e
00000060: 9e74 1a3e 27c1 2e3e 02b8 303e e364 7a3e
00000070: bf28 2a3e 9e6c 803e 5c87 4a3e 4869 d33d
00000080: da8e 3a3e 25c5 643e e382 8dbc 4eab 00bc
00000090: a588 b83b 7f78 98bc e4bb c63d d77a 26bc
000000a0: 6a1c 2cbd a332 05bc 2bd5 9cbd be4c 613c
000000b0: a3b8 3cbd 6011 0b3d cc04 d8bd 9d52 673d
000000c0: 355b 623d 8bb7 a5bd a6b5 563d 2e07 b33e
000000d0: 1992 cc3e 2431 a83e 0a7e c23e 8fb1 c73e
000000e0: ce34 b63e b7d4 cd3e 5d65 c33e 0d6d eb3e
000000f0: 33a1 9a3e 4c64 ce3e 7562 da3e f988 a03e
00000100: 3999 b83e ed8f 933e d3a8 ef3e 19fe d43e

rnn.bias_hh_l0 f4 [68]
0.22251102 0.10871401 0.27504665 0.16048968 0.29340103 0.15112957 0.120537855 0.2832251
0.34084392 0.15221962 0.1908397 0.26697963 0.09401415 0.17859031 0.2386655 0.3259714
0.2763233 0.19803263 0.26003635 0.12507641 0.15569453 0.17474662 0.2508836 0.25212184
0.15083306 0.1706584 0.17110145 0.24454612 0.16617385 0.2505295 0.19778168 0.10171831
0.18218625 0.22341038 -0.09388202 0.025551092 0.015429747 0.019849991 0.050081883 -0.053038195
-0.0335778 0.0002066821 0.013445491 0.03519133 0.11566568 -0.06696423 -0.046426017 -0.020837298
0.09852523 -0.04262918 0.016184289 0.3496646 0.39953938 0.32850057 0.37985379 0.39002612
0.35584643 0.40193614 0.3816333 0.45982486 0.30201033 0.40310183 0.42653424 0.3135524
0.3605443 0.28820777 0.46808422 0.41599974
00000000: eed9 633e 73a5 de3d ead2 8c3e 6857 243e
00000010: a938 963e b6c1 1a3e 8ddc f63d e102 913e
00000020: 1883 ae3e 76df 1b3e 7b6b 433e 8eb1 883e
00000030: 7e8a c03d 61e0 363e bb64 743e b9e5 a63e
00000040: 3f7a 8d3e 11c9 4a3e 7c23 853e 0814 003e
00000050: 636e 1f3e c7f0 323e d173 803e 1d16 813e
00000060: fb73 1a3e 13c1 2e3e 3835 2f3e 4c6a 7a3e
00000070: 7a29 2a3e 6745 803e 4887 4a3e b051 d03d
00000080: 088f 3a3e b1c5 643e 3745 c0bd 8650 d13c
00000090: 0dcd 7c3c 739c a23c a922 4d3d 943e 59bd
000000a0: e088 09bd ceb8 5839 7a4a 5c3c c924 103d
000000b0: 21e2 ec3d 8b24 89bd 3529 3ebd fbb2 aabc
000000c0: 99c7 c93d ef9b 2ebd ea94 843c 3d07 b33e
000000d0: 6d90 cc3e 3a31 a83e 327c c23e 81b1 c73e
000000e0: 8131 b63e 93ca cd3e 7165 c33e 2a6e eb3e
000000f0: 19a1 9a3e 5d63 ce3e b262 da3e f189 a03e
00000100: 4399 b83e f88f 933e bca8 ef3e ebfd d43e

FC.weight f4 [7, 17]
0.81635755 0.40982074 -0.83259535 -0.38688797 -0.5498143 0.67644024 0.604935 0.6842506
-0.59178394 -0.54438686 -0.28255898 -1.7625929 -0.5734886 -0.82154614 0.37900662 0.23922996
0.58331627 0.38061127 0.6901849 0.5233997 -0.50016916 -1.1314255 -0.6451893 -1.5770972
0.5408152 -0.508774 0.2946697 -0.28501236 0.39414623 -0.59490496 1.1131673 -0.40340203
0.7084679 -0.4105757 0.3620072 0.36962414 0.91068953 1.715473 -0.4270541 0.23446183
0.5797083 0.05768937 -0.09076791 0.25435513 -0.31569353 0.2359909 0.03353229 0.1709069
-0.106405035 -1.9504498 0.169905 -0.4049761 0.21122223 0.5261905 -0.43641114 -0.13611175
0.6253311 0.31603453 -0.19834884 -0.37344956 0.44412053 1.8931986 0.14787629 0.5872024
-0.95711476 -0.9391821 0.21333365 -1.2717216 -1.3012581 0.26019734 0.5050852 -0.16622432
1.230224 0.582676 0.52139187 0.8357647 -0.20209913 -1.1029143 -0.3299722 0.5867049
0.45794347 0.83585083 -0.2424355 0.63059795 0.8219004 0.25285584 0.52651685 -0.7336973
-0.15591362 -0.109134234 0.43312055 -0.096645415 -0.8331596 2.1437788 0.7347244 -0.2791576
0.38139823 0.88751084 -0.024807127 1.0217981 0.52649134 0.48277038 0.80696815 -1.9830612
0.23437251 -0.30555755 0.30629233 -1.2178025 0.5039832 -1.118879 -0.6965014 -0.03964475
-0.034799516 0.2804014 -0.23638117 0.03346192 -0.09241068 0.45292443 0.6532821
00000000: cffc 503f 06d4 d13e f824 55bf 2e16 c6be
00000010: a1c0 0cbf 302b 2d3f 05dd 1a3f 0c2b 2f3f
00000020: 277f 17bf f05c 0bbf 92ab 90be a59c e1bf
00000030: 26d0 12bf d950 52bf 280d c23e b3f8 743e
00000040: 3754 153f 7bdf c23e f5af 303f 86fd 053f
00000050: 160b 00bf 8dd2 90bf 202b 25bf 52de c9bf
00000060: dd72 0a3f 033f 02bf f2de 963e 24ed 91be
00000070: 89cd c93e b14b 18bf 447c 8e3f b68a cebe
00000080: 275e 353f fa36 d2be 0259 b93e 603f bd3e
00000090: f322 693f 9f94 db3f d6a6 dabe c316 703e
000000a0: c367 143f b04b 6c3d 87e4 b9bd d63a 823e
000000b0: 95a2 a1be 99a7 713e 2859 093d 3802 2f3e
000000c0: e2ea d9bd 57a8 f9bf 94fb 2d3e 0759 cfbe
000000d0: a44a 583e 6cb4 063f 4871 dfbe e160 0bbe
000000e0: b315 203f 47cf a13e f51b 4bbe c834 bfbe
000000f0: c463 e33e 5554 f23f e26c 173e e652 163f
00000100: 7905 75bf 3d6e 70bf 2374 5a3e c6c7 a2bf
00000110: a08f a6bf 9638 853e 434d 013f b536 2abe
00000120: fb77 9d3f 412a 153f f079 053f adf4 553f
00000130: 13f3 4ebe 4c2c 8dbf 1ef2 a8be 4b32 163f
00000140: 9177 ea3e 52fa 553f 0341 78be de6e 213f
00000150: 1168 523f 5276 813e cfc9 063f 96d3 3bbf
00000160: d2a7 1fbe c581 dfbd fac1 dd3e 08ee c5bd
00000170: f349 55bf ac33 0940 e616 3c3f bfed 8ebe
00000180: a146 c33e e933 633f 5138 cbbc 48ca 823f
00000190: 23c8 063f ae2d f73e 7795 4e3f f3d4 fdbf
000001a0: 59ff 6f3e 0a72 9cbe 59d2 9c3e f4e0 9bbf
000001b0: 0b05 013f 6d37 8fbf ea4d 32bf 8962 22bd
000001c0: f089 0ebd c690 8f3e e80d 72be 5e0f 093d
000001d0: d041 bdbd b6e5 e73e 7f3d 273f

FC.bias f4 [7]
-0.40282115 -0.44641164 -0.36823648 -0.022625456 -0.37896103 -0.45843643 -0.61922795
00000000: 933e cebe 1190 e4be 7e89 bcbe 0559 b9bc
00000010: 2e07 c2be 2eb8 eabe b985 1ebf
