data/parameters/parameters-8.pt (torch_old, 30835 bytes, 6 tensors)

rnn.weight_ih_l0 f4 [68, 89]
00000000: f33c f13d 9473 6a3c f35c f33c cb47 253c
00000010: 4498 9bbb cb8d 3f3c 94f7 4b3d 6a8f bebc
00000020: aa6e 77bc e0b4 be3c 09b2 5b3d 3a76 0b3e
00000030: bd6c 233d 3e1b 563c f5ae a63b b7e2 4ebb
00000040: ee05 c73d def9 f73c f60e a83c 1bd4 6e3d
00000050: 0795 4c3d 262c 0080 b135 cd3d 9ea2 153d
00000060: b337 e73d 350f 183e 61f9 303e 1b7f 483e
00000070: 3d0d fc3d 69f7 1d3e bb67 4d3e 3951 79bc
00000080: 24be 933d e76c a53c 3bea 70bc e891 323d
00000090: f949 4b3d 601d 393d 8d13 a83d 841d 013c
000000a0: 5268 f03c 2967 323d 8b7d b93c 789c 9b3b
000000b0: 8178 823b f618 a6ba 2820 433b edf7 383c
000000c0: 564b 2ab9 65ed 0cbb c10c 443b b00b 543b
000000d0: 4244 ca39 65c8 77b9 6c3a 07ba edae 223b
000000e0: ab03 dd39 8ca7 df39 79a2 96ba 94f9 06ba
000000f0: 53f2 64bb 067f 883d f2f6 e5bb 218d e53c
00000100: 4fb2 0a3d 2ed3 963c 9c13 183d c392 593d
00000110: dd44 b03c 6f2c a83c 477b 3a3c 504b ef3b
00000120: 2ffd 5d3c 47b2 553d a5e9 0a3d 4425 a4bb
00000130: 753a f93b 1138 df3b a747 fcb8 d7a8 043b
00000140: 2055 043d b5e5 663c bad4 ac3d ac7e a9b9
00000150: 3511 e43c 760f 663d 432f 093d c021 333d
00000160: 13ed 793d e035 033e 3d65 a43d ffd3 5f3d
00000170: 2f73 97be 3b14 b4bd 2f32 873d 5835 213e
00000180: 0c3b 8a3d 369c b0bd f371 3a3e 77d0 50be
00000190: 3418 b7bc e418 4d3e 5e8a 26bd 2653 11bd
000001a0: 3c4c 723d 7e1c b8bd 86cb 583d 402a d7bc
000001b0: 6531 1ebe edd6 363e 6e09 0080 4c5f 59be
000001c0: abc3 573e 07e4 453e 7e45 d03d d25e 023e
000001d0: 76bf 74be 3a3e f03c d615 093e d415 6b3e
000001e0: b0d3 0c3e ee10 87bc b701 2e3c 4533 bf3d
000001f0: 5c7c fbbd e63d bcbb d497 cd3d c812 a7bc
00000200: 93a2 403d 2b37 fc3c 399f 753d 814e e2bd
00000210: 37c0 063c 4a48 0e3d fb55 a93d 48b1 3a3c
00000220: 5bd5 713c 491c babb 0eea c4bb fb57 c13c
00000230: b688 5cbb c19a 5bba 554a f4ba 0a5b 94ba
00000240: 7ef8 ed39 1fa9 b53b 6d90 4b3b 93b7 c63a
00000250: dfee 54ba 8a9b 6e3c 2af2 633d 05b8 e1bc
00000260: 6fcc 043d 4f24 133d 12b0 2dbd 3d20 6c3d
00000270: dc1f f73b 84af c63d a8e1 07bb 262e 163b
00000280: d13d ae3d 16c3 1cbd 33af ff3c 0277 963c
00000290: 91e6 99b9 f326 183b af74 293c a95c 683d
000002a0: 93cc 713b 60df b03c 71ea 5fbb f2dc 343d
000002b0: b957 5fbd 13a8 3e3d 383d 313d 9bde a9bd
000002c0: 61f4 7c3d b33b 663c 41de 633e ad04 23bd
000002d0: 03e8 a0bd 6d89 09bd ad71 6a3e 8340 21be
000002e0: 5f64 79bc fc1f 6c3c 3550 11be a930 103d
000002f0: ec66 9e3b 41f2 a33e 0782 ddbc ff0c 4cbd
00000300: 6064 9c3d 8bc4 d23c 90d4 863b 1997 84bd
00000310: 0b7e febc 683c 3c3e 5574 16be 431c 0080
00000320: ab58 b13e 2de7 95be a095 813e 5e03 c2bb
00000330: e9b6 c8bc 00df dd3d f2e4 4bbc dae3 583d
00000340: 5afb bebd ddea 56bd 2824 d8bc 9662 113c
00000350: d5bc b63c 970b 413d 8775 2fbc d223 5c3d
00000360: 9240 aabb 9642 8f3b 0a83 4bbd deb2 2abd
00000370: 505d 48bd 90a8 963c a429 92bc 9bd5 dfbc
00000380: 3345 81bc dba6 2abc 30bb 76bb 7b37 6d3c
00000390: c7ec 8dbc f2b5 a739 4cbc 573c 0240 babb
000003a0: 06e8 9d3a 8555 503b 7d87 8ebb 62ac 8dbb
000003b0: c847 8f3a e1f1 93bb 8b63 113c 7137 90bd
000003c0: 4846 643d 9fe3 163d 4b4a 423d a6c2 b7bd
000003d0: 3ddd 903d a990 973d 61be c3bb 5aa3 ccbc
000003e0: 7d59 18bc 907b 15bb 1641 8d3d ff1c f7bc
000003f0: b6eb 0ebb 82ac 1d3c 3b26 7639 14c5 cfba
0.11779203 0.014309783 0.029707408 0.010087918 -0.004748376 0.011691521 0.049796656 -0.023261745
-0.015102068 0.023279607 0.053636584 0.13619319 0.039898623 0.0130680185 0.0050867745 -0.0031568238
0.09717928 0.030270513 0.020514946 0.05830775 0.04994681 -1.5837e-41 0.100200064 0.036532037
0.11289921 0.14849551 0.1728263 0.19579737 0.123072125 0.1542641 0.20059101 -0.015217119
0.07214001 0.02019353 -0.014704282 0.04359618 0.049631093 0.04519403 0.08206854 0.007880572
0.029346619 0.043555412 0.022642871 0.004748877 0.0039816503 -0.0012672234 0.0029773805 0.011289579
-0.00016240528 -0.0021503803 0.0029914828 0.00323556 0.00038579298 -0.00023630408 -0.0005158547 0.0024823502
0.00042155138 0.00042658707 -0.0011492512 -0.00051488844 -0.0034934476 0.06664853 -0.0070179636 0.028021397
0.033861455 0.018411245 0.037128076 0.05311848 0.021517212 0.020529 0.011381931 0.007302679
0.013549133 0.05217197 0.033914227 -0.005009325 0.0076058456 0.0068121036 -0.00012029643 0.0020242238
0.032307744 0.014092852 0.08439012 -0.0003232857 0.027840236 0.05616709 0.033492338 0.04373336
0.061017107 0.1281352 0.08027122 0.054645535 -0.29580066 -0.08792921 0.06601369 0.15743005
0.067495435 -0.08623545 0.1820753 -0.20392023 -0.022350408 0.20029026 -0.0406593 -0.035479687
0.059154734 -0.089898095 0.05292847 -0.026265264 -0.1544853 0.17855425 -3.383e-42 -0.21227759
0.21070735 0.19325267 0.101695046 0.12731484 -0.23901162 0.029326547 0.13387236 0.22957546
0.13752627 -0.016487565 0.010620526 0.09335951 -0.12279579 -0.0057446836 0.100387245 -0.020394698
0.047030043 0.030788025 0.0599663 -0.1105013 0.0082245385 0.03473691 0.082683526 0.011394806
0.014760341 -0.0056796414 -0.006009347 0.023601523 -0.0033650822 -0.0008377247 -0.0018637875 -0.0011318636
0.00045389304 0.0055438424 0.0031061426 0.001516091 -0.0008122753 0.014563451 0.055650868 -0.027553568
0.032421526 0.0359233 -0.04240424 0.057647932 0.0075416397 0.09701446 -0.0020733867 0.002291569
0.08507884 -0.038271986 0.031211471 0.018367294 -0.0002935422 0.0023216575 0.010342761 0.056728993
0.0036895617 0.021590889 -0.0034166838 0.044156022 -0.05452702 0.046547007 0.043271273 -0.08294412
0.061756495 0.014052319 0.22252752 -0.03979938 -0.07856753 -0.033578325 0.22894926 -0.15747266
-0.015221684 0.014411923 -0.14190753 0.035202656 0.0048340466 0.32020763 -0.027039541 -0.04981708
0.076363325 0.025728485 0.004114695 -0.06474132 -0.031065961 0.18382418 -0.14692815 -1.0138e-41
0.3463796 -0.29277936 0.25309467 -0.0059208116 -0.02450128 0.108335495 -0.012444722 0.05295167
-0.09325285 -0.052470077 -0.026384428 0.008873602 0.022306839 0.047130194 -0.010709173 0.0537451
-0.0051956857 0.0043719513 -0.049685515 -0.041674487 -0.048917115 0.018390924 -0.017842121 -0.027323535
-0.015780067 -0.010415758 -0.0037648194 0.01447856 -0.017324818 0.00031988282 0.013167452 -0.0056839
0.0012047298 0.0031789255 -0.0043496476 -0.004323528 0.0010931427 -0.004514918 0.008873831 -0.070418246
0.055731088 0.03683817 0.047434133 -0.08972673 0.07073448 0.074006386 -0.0059736227 -0.024980236
-0.009298679 -0.0022809245 0.0689718 -0.030165194 -0.0021807975 0.009623649 0.0002347463 -0.001585158

rnn.weight_hh_l0 f4 [68, 17]
00000000: 6bb4 8e3c e9b7 9338 b3a4 c83d 2e59 1b3d
00000010: 843c f83b 7b94 3e3d 1206 753d 3f8b 04bd
00000020: 6a78 303e 0ad5 eb3c 43a3 953c f69f 91bc
00000030: 365b 52bd 1b6e 0c3c a812 44bc c65a 503d
00000040: c288 5d3c f165 07bb 3d14 ba3d b1f1 693d
00000050: d0f4 833d d45a 74bc a55a fd3c a638 ae3d
00000060: 49e2 47bc 5532 ba3c ed94 2abb a442 9c3c
00000070: 1b7f d03d e61e 903d 3d19 533c bed1 f2bc
00000080: 488c 943b 7296 193d 7a39 0cbc af3a cb3d
00000090: 2ac6 1e3e 3e2b 57bd 9fd6 143d f256 c13c
000000a0: 16f4 2c3e 22da 233d 6447 1b3e 0e82 28bd
000000b0: d434 39bd 4ece 4c3d ec48 663d a5d9 4f3d
000000c0: 2b4b c7bc 705b a63d 08a1 df3c 0125 d33b
000000d0: a8f7 203c 5741 9e3d 4c51 aa3c 21e9 0a3c
000000e0: fa84 a83d e5aa 963d e663 5dbd 5898 473e
000000f0: 7da9 733c c0cb f23c 2029 af3c a35a 93bd
00000100: c515 b0bc b410 453d 58ce 943c 7d81 3a3d
00000110: 1e6b 9f3c 11d8 003a 028b 013e 8b27 903a
00000120: 2a3e b83d f464 1f3d c8f1 aa3d 467a c3bd
00000130: de1e 083e af91 25bd c100 8cbc 28d9 b5bc
00000140: 6666 67bc 7eb5 abbb b199 163c a257 603d
00000150: 6269 623d 3110 b83d 2341 f7bc 00b8 cb3d
00000160: 7141 3abd bead 003d c042 403e e219 5cbc
00000170: ede6 36bc 526b 0f3e 2d22 1cbd 1ecc 303d
00000180: 1c3e d7bd e650 02be 28d4 df3d 1b07 d5bd
00000190: 24da 833c 4465 afbc ec8c b0bc 0f5b bbba
000001a0: 788a 8a3d 803e 3c3d c017 833d 9741 bb3d
000001b0: c1a7 4c3d 1dce 2fbd 7c3c 343e 7d3e c73c
000001c0: bfa6 223b ceb6 a23b a964 14bd b65e 3bbd
000001d0: 0913 613d b8fa c23a fc9a 3fbb 0f4f 8d3c
000001e0: 2609 9d3d 812e 1e3d 23f2 153d 3107 113c
000001f0: 7b04 c13d 4a38 ed3c 485f b6bd 8495 5d3e
00000200: 80ca b93c ce43 77bd 1544 883c 2169 a5bb
00000210: 0dd0 32bd 68a3 733d 3ce9 dbbb 3605 f03c
00000220: e526 ad3b 6f1e c93b a1bd 423d 7fa9 56bc
00000230: 1bd9 003d af5c 843d 82f4 d63c 6637 36bd
00000240: b967 063e 114a 083d 02a7 3fbd ed1d c7bc
00000250: 8c43 54bd 5f8f f83a fb1e 0b3c 26b0 cd3c
00000260: 011a 2c3d 66e7 883d fbe5 e93c 3942 083e
00000270: 8a7e 2b3d 0c8b 933d db0b ed3d f0ce 3e3d
00000280: c9e5 aebd 6274 523e f14e 1c3d fae2 ffbc
00000290: 9317 39bc 5505 22bd e856 6d3c 89e9 d33c
000002a0: 06c8 a43c 1e72 e33c 63c2 e53c 4aa8 b03c
000002b0: d573 023e 4b21 1a3d 059a 903d 400f a73d
000002c0: c123 853c 665c 2ebd 053a 6b3e 1ba3 513a
000002d0: f1a9 f6bc e886 2ebd dc36 9ebd 186a f93c
000002e0: 6574 e5bc 3a8f 2a3d a25f 543c 83ea a73c
000002f0: f918 5bbc fe3e 1b3e ec7b 353d 4410 cb3d
00000300: 96a7 3e3d 6e91 893c 136c cf3a daaf 043e
00000310: bf85 0fba 7ce3 75bd cdf5 d3bc 1704 20bc
00000320: 533a 58bd e15e 763c c701 853d 91dc 4e3d
00000330: 4b5c 853c 10a0 4f3d 7639 943d f727 e93b
00000340: 9532 7f3d 029a de3d 9c41 783d 7d58 9fbd
00000350: ac37 553e 1a0c 29bc 7506 883c 3704 e5bc
00000360: c1ee 4cbd bbfc f63c c275 133d 42a1 91ba
00000370: 6b0b e03c 2a24 883b d077 813b fdbb e93d
00000380: e9db ff3c a939 873d db1a 023d 82d8 103d
00000390: 7e8c b5bc 2245 353e c7b1 25bd 7315 203c
000003a0: 3ded c3b9 79e9 8abd a24e 213d f4c8 423d
000003b0: c423 363d c9f9 80bb 1fb3 8c3a e001 2abc
000003c0: 4305 0e3e 08bb 893d 9a71 e83d 735c e33d
000003d0: 3fbb 6c3d d89f a8bd e189 283e a5e6 8ebc
000003e0: 899a f63b 9002 9e3c 2640 89bc 8b7d 8fbd
000003f0: 4f5a ad3d 6a12 89bc 8188 2f3d 9d44 ee3c
0.017420014 7.043762e-05 0.09797039 0.037926845 0.0075755734 0.04652832 0.059820242 -0.032359358
0.17233434 0.028788108 0.018266326 -0.01777647 -0.051356517 0.008571173 -0.011967339 0.05086782
0.013521375 -0.0020660127 0.090858914 0.05711526 0.06443179 -0.014914233 0.030927012 0.085068986
-0.012199947 0.022729078 -0.0026028708 0.019074745 0.101804934 0.070371434 0.012884435 -0.029641028
0.0045333244 0.03749699 -0.008558625 0.099233024 0.15505281 -0.052531473 0.03633749 0.023601029
0.16889986 0.04000295 0.15163952 -0.041139655 -0.045216396 0.050001435 0.056221887 0.05074467
-0.024327835 0.08122909 0.027298465 0.00644362 0.009824671 0.07727306 0.020790718 0.008478434
0.08228488 0.07356814 -0.05405035 0.19491708 0.014871952 0.029638171 0.021381915 -0.07195022
-0.021494756 0.048111632 0.018164799 0.045533646 0.019460257 0.0004915009 0.12650684 0.0010998113
0.08996232 0.038914636 0.08346897 -0.09544806 0.13293025 -0.040422138 -0.017090203 -0.022198275
-0.014123535 -0.0052401414 0.009191916 0.054771073 0.055276282 0.08987463 -0.030182427 0.099472046
-0.045472566 0.031415693 0.18775463 -0.013433905 -0.011163455 0.14005783 -0.03811853 0.04316341
-0.10509893 -0.12726173 0.109291375 -0.10401746 0.016095228 -0.021410592 -0.021551572 -0.0014294105
0.06764692 0.045958042 0.06401014 0.0914337 0.04996467 -0.042921174 0.17601198 0.024321789
0.0024818627 0.0049656397 -0.03622881 -0.04574462 0.054949794 0.0014875745 -0.0029236665 0.017249612
0.076677606 0.03861857 0.036607873 0.008851812 0.09424683 0.028957505 -0.08904892 0.21639067
0.022679567 -0.060367398 0.016634027 -0.0050479327 -0.043655444 0.05948201 -0.0067111533 0.02929936
0.0052841776 0.006137661 0.047544125 -0.013101934 0.031457048 0.064629905 0.026239637 -0.044486426
0.13125505 0.03327376 -0.04679013 -0.024306262 -0.05182223 0.0018963626 0.008491273 0.025108408
0.042016987 0.06684761 0.028552046 0.13306512 0.041868724 0.072042555 0.11574527 0.04658407
-0.08539922 0.20552209 0.038161222 -0.03123616 -0.011297124 -0.039555866 0.014486052 0.025868194
0.02011491 0.027764376 0.028046792 0.021564621 0.12739499 0.037629407 0.07060627 0.081572056
0.0162524 -0.042568587 0.22971351 0.0007997022 -0.030110331 -0.042609125 -0.07725307 0.030446097
-0.028009603 0.041640498 0.012962254 0.020497566 -0.013372653 0.15160748 0.044307634 0.09915212
0.04654654 0.01679298 0.0015825055 0.12957707 -0.0005474947 -0.0600314 -0.025874043 -0.0097666
-0.052789997 0.015037269 0.064944796 0.050503317 0.01627936 0.050689757 0.07237522 0.00711536
0.0623041 0.108692184 0.060609445 -0.0778055 0.20822018 -0.010317827 0.016604641 -0.027956111
-0.05003238 0.030149808 0.036000974 -0.0011110681 0.027349195 0.0041547017 0.0039510503 0.11412809
0.031232791 0.06602795 0.031763893 0.035362728 -0.022161718 0.17702153 -0.040452745 0.009770739
-0.00037370055 -0.067828126 0.03938163 0.047554925 0.044467703 -0.0039360267 0.0010734535 -0.010376424
0.13869195 0.067251265 0.11349793 0.11101618 0.05779576 -0.08233613 0.16458847 -0.017443964
0.0075257462 0.019288331 -0.016754221 -0.07006367 0.084644906 -0.016732413 0.04285479 0.029085452

rnn.bias_ih_l0 f4 [68]
00000000: 1c4e 6e3e 839b 0a3e 8bde 0b3e 58f7 833e
00000010: 3dea 413e 2bf6 243e c82e 603e 8859 443e
00000020: 3e64 693e ad96 8a3e f1f3 943e 0f60 3d3e
00000030: 6260 843e a220 653e 7be1 463e 45e8 7a3e
00000040: 3e40 8d3e b55a 2c3e 7d7f 4a3e d0b4 be3d
00000050: 87a4 5b3e c7ba 453e b097 313d 703a 733e
00000060: ecc7 4f3e bed0 453e db0e 503e 5b4f 273e
00000070: d44a 883e be99 893d d35f 143e e97e 5d3e
00000080: b337 7d3d b9b6 373e 49e6 a4bd abc1 7c3c
00000090: 1b42 943d 1dda 8f3d 018f 9a3d f0ba db3d
000000a0: 478e e83c c3ff 173d 37f9 c23d 3c66 633d
000000b0: 9814 98bd bdad f6bc ea89 69bd 05a4 6a3c
000000c0: 1c7b 01bc f95e 5abd 2c99 713d 34b6 b13e
000000d0: 625e b43e c792 8a3e 5460 c63e 5c38 a03e
000000e0: 075f 8a3e 2351 bc3e b1fc af3e acb8 ac3e
000000f0: a984 cf3e 8943 d23e fa34 b23e 9676 ac3e
00000100: 291d bb3e e852 ba3e 0497 9a3e 279a c93e
0.23271984 0.13535886 0.13659112 0.25774646 0.18937011 0.1610953 0.21892846 0.19174778
0.22792146 0.27068081 0.29092363 0.18493675 0.25854784 0.2237573 0.19421951 0.24502666
0.27588075 0.16831477 0.19775195 0.09311831 0.21449481 0.19309531 0.04335755 0.23752761
0.20291108 0.1931791 0.20318167 0.16338865 0.2661959 0.06718777 0.14489679 0.21630444
0.061820697 0.17940797 -0.08051736 0.015427033 0.07239171 0.07024024 0.07546807 0.10729015
0.028388156 0.037109148 0.0952019 0.05551742 -0.07425803 -0.030112142 -0.05701629 0.014321332
-0.007902887 -0.05331323 0.058983967 0.34709322 0.35228258 0.27065107 0.38745368 0.31293
0.27025625 0.36780652 0.34372476 0.33734643 0.405309 0.4106715 0.34806043 0.33684224
0.36545685 0.36391377 0.3019334 0.3937542

rnn.bias_hh_l0 f4 [68]
00000000: c34e 6e3e c49b 0a3e 1d12 0c3e 55f7 833e
00000010: 77ea 413e 0901 253e 5a2f 603e 9c59 443e
00000020: 6064 693e d696 8a3e b0f3 943e 0f60 3d3e
00000030: 0460 843e f046 653e 43e3 463e 5ae8 7a3e
00000040: 3840 8d3e b85a 2c3e 7e7f 4a3e d6b6 be3d
00000050: 8da4 5b3e cdba 453e 22c1 313d 213c 733e
00000060: 36d0 4f3e 24d1 453e 12ac 503e 484f 273e
00000070: 924b 883e c499 893d d05f 143e 8c80 5d3e
00000080: 4b32 7d3d dbed 373e b862 c93c fa2f 513d
00000090: c70e c43d 4b71 793a 6679 003e 03cb 953d
000000a0: ac80 a43b 1ac6 0d3d bae4 c23d 92af 963d
000000b0: e428 123e f712 9ebd 24ba d2bc 0e31 a43c
000000c0: ef39 b73d b906 2d3d 2aea 0d3e 30b6 b13e
000000d0: 475e b43e b192 8a3e 5360 c63e 5c38 a03e
000000e0: 065f 8a3e 2751 bc3e 55fc af3e 9fb8 ac3e
000000f0: 9684 cf3e 7a42 d23e eb34 b23e 9576 ac3e
00000100: 6819 bb3e 9753 ba3e 3296 9a3e 249a c93e
0.23272233 0.13535982 0.13678785 0.25774637 0.18937097 0.16113676 0.21893063 0.19174808
0.22792196 0.27068204 0.2909217 0.18493675 0.25854504 0.22390342 0.19422631 0.24502698
0.27588058 0.16831481 0.19775197 0.09312217 0.2144949 0.1930954 0.043397076 0.23753406
0.2029427 0.19318062 0.2037814 0.16338837 0.26620156 0.067187816 0.14489675 0.21631068
0.06181554 0.17961828 0.024583206 0.051071145 0.09573131 0.0009515478 0.1254631 0.07314112
0.0050202217 0.034612752 0.095162824 0.07357706 0.14273411 -0.07718461 -0.025723524 0.020042922
0.08946597 0.04224274 0.13858858 0.3470931 0.35228178 0.27065042 0.38745365 0.31293
0.27025622 0.36780664 0.34372202 0.33734605 0.40530843 0.41066343 0.34805998 0.3368422
0.3654282 0.363919 0.30192715 0.39375412

FC.weight f4 [7, 17]
00000000: 43de d6be b2aa 59be 802b b53e 614e d9be
00000010: 986a 3dbf 186d 9cbe 5e15 fdbe bb35 c73d
00000020: f618 92bd 092f 3abe 0c39 f6bf 757d c03e
00000030: e8fa acbe 4328 2c3f 12de 583b 6e54 9b3f
00000040: 6f05 2bbf 50db 123c aa86 9bbd da2e 80be
00000050: f298 bd3f 9ffa f5be 4530 21be d626 4b3e
00000060: 24c6 06bf 1f58 79be e2d5 d43f 96f5 db3d
00000070: 01ab 233f 98e0 e3be 6cd9 e23d b5b2 b7be
00000080: 8aeb ddbe 9332 4dbe 908e 73be fa38 0fbf
00000090: 02fe 9dbe f133 513e 4af2 b5be 30b3 7cbe
000000a0: 8298 213e 3b8c 753e 0f85 dfbd 5d40 0abf
000000b0: b7f1 b93e 028e 82be 3d0d 1bbf d76a dbbf
000000c0: 2814 ad3f 209e 4b3e 4036 bb3e bd6d fcbe
000000d0: 0216 983f 506d 2bbe 2231 41bf 4ecc efbe
000000e0: b906 d6bd 9a57 fdbd 32a6 be3e caa3 acbe
000000f0: 465b 943e ade9 1f3f dbf8 d9be d2e7 dabe
00000100: 0fd9 bd3e bbdb f0be 8097 3fbd ea72 c13f
00000110: ddb0 9f3e 18fb 4d3e 06fb 723f e3b0 01be
00000120: 1113 2ebe 295a 73be 4634 ad3f f6ac bc3e
00000130: 0a20 00bf 84cd e2be 7f3f ed3e 92c4 083f
00000140: 0e4b e33f 26b7 b53d c623 f9bb 4063 a2be
00000150: b8ae 2dbe a5fd b53f 1d3c 05bf cc52 01bf
00000160: 6467 02bd b54a 81be 8393 7c3f c2eb 7dbf
00000170: 6c49 e23e 4ba9 45be f887 3bbf 4616 a53e
00000180: f5b1 4bbf 73ee 273e e779 163f d6c6 66be
00000190: ce73 acbe b1e0 1abf c1b8 64bf 7f78 f1be
000001a0: 7aa9 e4be fb24 25bf 72d4 983f b93b 22bf
000001b0: a845 e0be e9b7 70bf 081e 65be 808d 11bf
000001c0: d989 0b3f 74c0 083f e186 93be 66e2 883e
000001d0: 7f97 88be 254b 3cbf a1d4 e6be
-0.41966447 -0.21256521 0.3538475 -0.4244261 -0.73990774 -0.30551982 -0.49430364 0.09727045
-0.07133667 -0.18182005 -1.9236159 0.37595716 -0.33785176 0.67248935 0.0033091349 1.2135141
-0.66805166 0.008963421 -0.075940445 -0.25035745 1.48123 -0.4804277 -0.1574107 0.19839033
-0.5264609 -0.24350022 1.6627772 0.10740201 0.63932806 -0.4450729 0.11076626 -0.3587853
-0.43343765 -0.20038824 -0.23784852 -0.55946314 -0.30857855 0.2042997 -0.35536414 -0.2467773
0.15780833 0.23979275 -0.10914051 -0.5400446 0.36317226 -0.25498968 -0.60567075 -1.714198
1.3521776 0.19884539 0.36564827 -0.49302474 1.1881716 -0.16740918 -0.75465596 -0.4683556
-0.10450501 -0.12370224 0.37236172 -0.3371871 0.28975886 0.62465936 -0.42572674 -0.4275499
0.37079665 -0.4704264 -0.04677534 1.5113194 0.31189623 0.20115316 0.9491428 -0.12665133
-0.16999461 -0.23764862 1.3531578 0.3685071 -0.5004889 -0.4429742 0.46337506 0.5342494
1.775728 0.088728234 -0.0076031415 -0.31716347 -0.16961181 1.4218031 -0.5204485 -0.50516963
-0.031836882 -0.2525231 0.98662585 -0.9918786 0.4419664 -0.19302861 -0.73254347 0.32243556
-0.79568416 0.16399555 0.5877976 -0.22536787 -0.33682102 -0.604991 -0.8934441 -0.47162244
-0.4466055 -0.6450955 1.1939833 -0.6337238 -0.43803144 -0.94030625 -0.22374737 -0.56856537
0.54507214 0.5341866 -0.28813842 0.26735228 -0.26678082 -0.7355216 -0.45084098

FC.bias f4 [7]
00000000: e20d d7be eb7d 79be 0a7d 9cbe 69c5 98be
00000010: 2688 b3be 8878 82be d154 49be
-0.4200278 -0.2436444 -0.30564147 -0.29838112 -0.3506481 -0.25482583 -0.19661261
