data/parameters/parameters-10.pt (torch_old, 30842 bytes, 6 tensors)

rnn.weight_ih_l0 f4 [68, 89]
00000000: 6ff2 8f3d 483d eb3c bddd a73d 9f1e 933d
00000010: 8c54 813c 1b2b 5a3c b23b 393c 4162 f03b
00000020: c9c9 013d c846 773d 406d a0bc 704f fc3d
00000030: 3341 183c 0925 a63d 332c 0d3c 6988 b9bc
00000040: 32ce f43d 36fc b5bb b87c e13b 14b2 363d
00000050: 4170 453d b488 7bb9 f606 7c3d df04 303d
00000060: 7447 143e f1e0 313e 3862 533e 8744 4b3e
00000070: 2061 de3d 7aa0 023e 645c 113e e121 2dbd
00000080: 2567 3e3d 3ca3 f73c 6458 373d e192 573d
00000090: 1fc6 313d 2949 7b3a 5eea b43d 7f0d 013d
000000a0: 99ea 0c3d 1081 383d 5cac 423d d7d1 fa3c
000000b0: b25c 7abb 5099 043d 3dd5 5c3c 36c2 e13a
000000c0: 7bd7 3fbc e61e 023c 2238 8c3c 2528 e83b
000000d0: 10aa d83b ac75 293b 7763 863b ec9d d9ba
000000e0: b4e7 03bb 88f3 91b7 3b59 acba 8a8d 0a3b
000000f0: 7585 07ba 8eb3 943c 0dd8 a23d b1f6 6e3d
00000100: 801f af3c db8c 6f3d 86d1 143d aeaa 163d
00000110: 2a02 0b3d f6c4 273d 6b80 ed3b 61fc a13c
00000120: 0b1d 053d 355c a13d 16fc 3b3c c898 423c
00000130: cb59 283c c667 223c ef41 893c ea32 1a3c
00000140: ecbd 0d3d fc7c 203b 942c 683c f0b2 b43d
00000150: 1b8d 733d adce 1a3d c0d5 b83d a2af c13d
00000160: 8e1a 153d 9981 853d cbcf b73d a65a 883d
00000170: f2f9 653c 9fd7 133d 2c1b 2b3d 9c64 b738
00000180: 26bc 1c3d c599 d93c 749b 2f3d 1507 893d
00000190: 0397 013d 89b4 a83c dbc8 b13d a3c6 1aba
000001a0: 3459 893a 1fda 5a3d 0dbc 0a3d a0b2 943c
000001b0: 7b37 833d 13a1 d73b 48f9 7138 d245 a73d
000001c0: 12d6 d03c 12af 2d3e 03f8 793e 7061 363e
000001d0: 0037 2c3e a56e 873d a47e 2a3e b115 053e
000001e0: 88ad 203d 4058 1e3d eb65 ec3c 0eec 443c
000001f0: 08bb 8e3d 801e b83c 0c8a 8e3d 2837 013e
00000200: 36ef 273c 685e c83b 325b 853d e1e8 793d
00000210: 1ddd d03c a4da 3e3d f8c3 623c dae8 263b
00000220: 29f6 953c 6e58 d33b e8dc 03bb d7c2 ff3b
00000230: 5ec7 303c 84c1 903a c315 7b3b 96e5 c1ba
00000240: 074e f73a 2c70 aa39 fc3a 56ba b2fc 11bb
00000250: 7072 e6ba 522a 5f3b 3d58 813d 5614 393d
00000260: e455 213d d613 243d 413e 4f3d b124 6b3d
00000270: 8dec 3a3d c901 183c ac30 e93b e3c6 4d3c
00000280: c5a8 b63c 87fd c23c 7566 0d3d 5811 823d
00000290: 5072 dab9 ea13 d33b c932 6d3b f999 183c
000002a0: 5d7f dc3b b085 523c f573 2d3d c26f b33d
000002b0: abbf 923d e8e2 863d 0e0b 963d a6e2 763d
000002c0: 0076 af3d a220 9f3d fb6d 483e ef7d 0cbd
000002d0: 6c61 863c e05a 703c 46bd 6f3e 6d1e a1be
000002e0: 0eaf 563d c17d 243e ae3c 57be f984 80bd
000002f0: f6bc 573d 10b7 9b3e 099b 39be b906 dd3d
00000300: 8566 17bd eb77 373d a354 483c 31d3 95bc
00000310: 067b cf3c 8944 073e da64 1cbe af9d 0b3b
00000320: 6d24 943e eeb1 8cbe 4579 b13d 7da7 7e3d
00000330: 6dad d0bb e247 d2bd fe09 4d3c 4801 e3bd
00000340: 6381 ea3d f72a 0d3d 7f9e 71bd d955 9f3c
00000350: 13a5 8dbc 9510 55bd da8f 35bc e2a6 cb3d
00000360: 5245 19bc dff9 78bc 2215 52bd a822 eebc
00000370: 1f64 b03b fb78 b93d ec7a 0cbd 689e 10bc
00000380: a95a 08bd 8c40 1ebb 1317 9b3a 7e2e 603b
00000390: 67c7 58bc 2dc3 d83c ffb8 5dbc 4bd6 98bb
000003a0: d675 20bb 9330 863b e0d8 1ebc 2356 40bb
000003b0: 1f2b 403c 6df5 c8bb 78d0 4abc 082d 0d3b
000003c0: 8c32 c53c e4c7 5d3d 73a0 a53c 6bc4 cebd
000003d0: 21ee fb3d 8505 f23c 6c3b ccbc 8f5a 46bd
000003e0: add4 d1bc ba4b 423c 9663 703d ba78 65bc
000003f0: ff4c 19bd 53f1 9f3b aa5c 60bc 6ca9 0d3c
0.070286624 0.028715745 0.0819659 0.07183575 0.015787385 0.013315941 0.011305736 0.0073359315
0.031686578 0.060370237 -0.019583344 0.12319839 0.009292888 0.08112533 0.008616495 -0.022648053
0.11953391 -0.0055537475 0.0068813227 0.044603422 0.048202757 -0.00023988151 0.061530076 0.042973395
0.14480382 0.17370965 0.20642936 0.1985036 0.10858369 0.1275653 0.141954 -0.042268638
0.046485085 0.030229203 0.04476203 0.05263031 0.043401834 0.0009585792 0.088337645 0.03150701
0.034403417 0.04504496 0.047527656 0.030617638 -0.0038202223 0.032372773 0.013478574 0.0017224017
-0.011709089 0.007941937 0.01711661 0.0070848637 0.00661207 0.0025857491 0.0041012126 -0.001660285
-0.002012712 -1.739875e-05 -0.0013149151 0.0021141493 -0.0005169728 0.018152025 0.07951365 0.058340732
0.021377325 0.05848394 0.03633263 0.036783867 0.03393761 0.04095932 0.0072479746 0.019773664
0.0324984 0.07878915 0.011473676 0.011877246 0.010275315 0.009912437 0.016755072 0.009411553
0.03460495 0.002448856 0.0141707845 0.08823192 0.05946074 0.037794758 0.090251446 0.094573274
0.036402278 0.065188594 0.0897518 0.06657915 0.014036642 0.036094304 0.04177396 8.74486e-05
0.03826537 0.02656258 0.04287286 0.06690804 0.031638157 0.020593898 0.08680888 -0.0005904233
0.0010478855 0.053430673 0.033870745 0.018151581 0.064070664 0.006580481 5.769104e-05 0.08167614
0.025492702 0.16961315 0.24411015 0.17810607 0.16817856 0.06612901 0.16649872 0.12996556
0.039227992 0.03865838 0.028857192 0.01201917 0.06969267 0.022475481 0.06959924 0.12618697
0.010249903 0.0061147697 0.06511535 0.061013106 0.02549606 0.04659523 0.013840668 0.002546838
0.018305855 0.0064497506 -0.0020120684 0.007805209 0.01078972 0.0011044 0.0038312532 -0.0014793153
0.0018867858 0.000325085 -0.00081722415 -0.0022275862 -0.0017581712 0.0034052324 0.06315658 0.04518541
0.039388552 0.04005798 0.05059648 0.05740804 0.04563575 0.009277769 0.007116398 0.012559625
0.022297272 0.023802532 0.03452154 0.06350964 -0.0004166537 0.006441583 0.00361936 0.009314054
0.00672905 0.012849256 0.042346913 0.087615505 0.07165464 0.06586248 0.07326327 0.060274743
0.085674286 0.07769896 0.19573204 -0.034299787 0.016403876 0.014670104 0.23412046 -0.31468526
0.05241304 0.16063596 -0.21019241 -0.062753625 0.05267044 0.30413103 -0.18125547 0.10792298
-0.036963005 0.044792097 0.01222721 -0.01828918 0.025327217 0.13209738 -0.15272847 0.0021303704
0.2893404 -0.274795 0.086657085 0.062171448 -0.00636833 -0.10267617 0.012514589 -0.11084229
0.1145046 0.034464803 -0.058989044 0.019450115 -0.017290628 -0.052017767 -0.01108166 0.0994394
-0.009354906 -0.015196293 -0.051289685 -0.02906926 0.005383029 0.09056278 -0.034296915 -0.0088268295
-0.033289585 -0.002414736 0.0011832438 0.00342074 -0.013231135 0.026460255 -0.013532876 -0.0046642176
-0.0024484298 0.004095146 -0.009695262 -0.0029348216 0.011729031 -0.0061327727 -0.012378804 0.0021541733
0.024071954 0.05414571 0.02021811 -0.100960575 0.12301279 0.029543648 -0.024930678 -0.048426207
-0.025614107 0.011858875 0.058688723 -0.014005834 -0.037426945 0.004881063 -0.013693968 0.00864635

rnn.weight_hh_l0 f4 [68, 17]
00000000: 4a28 21bc 9c7e 9b3d f300 d7bd 2030 de3b
00000010: 850f d83d a306 c3bd 4e29 8c3c 2974 183b
00000020: c143 093c ab29 e83a b955 8fbc e5a0 b839
00000030: b981 9d3b f184 bbbc 8190 a5bd b7a0 223c
00000040: 6b20 0fbd d9e0 06bd 4842 3d3d a857 eabd
00000050: b109 4f3d 73be fb3d d517 98bd b153 3f3d
00000060: fbcd 053d 491b 673c e8ca d43b a4ed 563c
00000070: ffde 3a3d ba1c 10bd e3f8 a9bc 8b6b e5bd
00000080: 4b49 2b3d 616a 1d3b cab6 b7bd bbe7 9abc
00000090: 09cf 11be b886 db3d 34a2 633d 0278 0d3e
000000a0: ceba 8bbd 023a 943d 8081 a8bd 2200 cfbb
000000b0: 6083 783d 4cf2 0ebd ad13 2abe f38a 39bd
000000c0: 417a 81bd 4106 5ebd 61af 5ebd 1722 2a3c
000000d0: bf67 233e c4aa 4ebe d6bc 4fbd 63af 94bd
000000e0: d9a0 aabd b016 4c3c 6972 adbc 8322 86bd
000000f0: 6bc2 693d 24a0 abbd 8e4f 613c a110 043e
00000100: 1c4d 35bd 6eb6 2bbe 71a0 66bd 8dd5 843c
00000110: 06f6 49bd f08e 923d 252f cabd 54a4 663d
00000120: 8710 ad3d 21de 75bd 5c86 3f3d a088 cf3c
00000130: e386 b63c 574d d63c 0028 f1bc 3762 d73c
00000140: bbca 3ebc 34e5 0c3d 17c6 b6bd ff9b 583d
00000150: 949c fbbc f1f1 753d 543b 603c d3c1 f6bd
00000160: 2167 c6bb 65b7 883d 25b5 aabc 9732 dd3c
00000170: b509 953d ad65 29bd 77a2 043d bfe2 913c
00000180: cba0 98bb ea4e bdbc 1a4a cd3b 55b7 18be
00000190: f7f2 723d 7015 ac3d 4f5c 4fbd 0223 483d
000001a0: 2074 edbd 2e82 993d 33dc 123e 979b e4bd
000001b0: f983 2c3d 9ff9 f83a df3e 96bc 442c 4bbb
000001c0: 44c0 5bbc acfb a63d 09d8 0bbd a855 d73c
000001d0: 396e 9abd 6ccf 1c3d 6cbe 06bd a4e6 b7bd
000001e0: 0e9f 1f3d d726 cebc 1faa 643c 5f6d 513e
000001f0: 1637 07be 34c1 5e3c 0ff3 e3bc e877 06bd
00000200: 0b09 7bbc 58db 6b3d 49ec 803d 8a92 6bbd
00000210: 9b22 393b b311 6fbc a842 693d 00f2 833c
00000220: 9326 d5bb 9a48 d93c 0ab8 9cbd 02f1 1c3c
00000230: 4eb5 773d e3a2 c7bd d6e2 673d fedb c239
00000240: 20e4 86bd 37dc 293d 207c 64bd 276e 913d
00000250: 3ce0 233c 499e 8c3c 7e66 01be c2d4 f63c
00000260: ce61 c1bd 3da6 a23d d464 c93c bafa 3abd
00000270: e8a8 51bd 6559 f43c 3fc8 b63d 1634 2ebd
00000280: f6fb 78bb d619 d13c 0b95 b63d 40d9 f23d
00000290: d8a2 3f3d 3ac5 a03d e1e0 ef3d 27e2 55bd
000002a0: 814b 35bc 1fe2 1fbd edc9 0dbd 5487 083d
000002b0: 6cfb 42bd 0474 293d c2a6 153e 2c1d 9dbd
000002c0: 489d a5bd 574e 323d db6b 80bd 7ac2 663d
000002d0: 9968 ffbb 0c14 843d c440 f9bd 8311 ab3d
000002e0: d972 54bd 2f5c 1b3d 1628 24bd 4d05 8c3b
000002f0: ddbe 5b3d 468f 01be d8c3 063d fef8 143e
00000300: fe28 90bd 11cb 7b3d 9e9f b53d 1f63 46bb
00000310: ae97 0ebd c6d8 9b3c 5d8a d93d 90b8 0dbe
00000320: ade7 30bd 8e25 aabd 92f6 6b3c 203d 483d
00000330: d35d 46bc c985 1b3d 8276 08be bea4 7abc
00000340: 44fb 133e 6535 913c 8745 333d f500 b13c
00000350: 8cbd bb3c 449a 48bd 3512 a13d e80c dbbc
00000360: f26f 17be 5cb2 ef3d b386 bebc 34f8 4dbd
00000370: 087d 72bd ee02 4b3c 17df 98bb f9ab 4cbd
00000380: 3858 463d 16ae 683e ea7d 06be 52a9 093d
00000390: 277f c33b 7f51 51bd 53cd f0bc 54b8 ffb9
000003a0: c088 0e3d 1515 11bd e4a5 833c 1401 9bbd
000003b0: 8856 273d 93e3 bfbc e604 c5bc 0ea3 3f3d
000003c0: 510a 8e3d 1e5e f63d de51 943d 0fa8 0bbe
000003d0: a637 df3b ca23 913d e595 81ba e242 85bd
000003e0: 678f f2bc 3fe7 88bd 3c6d 5b3a 1f1b 113e
000003f0: c07f 0fbe 1538 143d beaf 4ebd bb10 4ebd
-0.009836266 0.07592508 -0.10498228 0.0067806393 0.10549835 -0.0952275 0.01710954 0.0023262596
0.00837797 0.0017712613 -0.01749693 0.0003521509 0.004806724 -0.02289054 -0.080842026 0.009926013
-0.034943026 -0.032929275 0.04620579 -0.114425 0.05054635 0.12292185 -0.074264206 0.046710674
0.03266714 0.014105626 0.006493915 0.013118181 0.045622822 -0.035183646 -0.020748561 -0.11202153
0.041817944 0.0024019706 -0.08970411 -0.018909326 -0.14239134 0.10719055 0.05557461 0.1381531
-0.068227395 0.072376266 -0.08227825 -0.0063171545 0.060672164 -0.03489904 -0.16609068 -0.045298528
-0.06322146 -0.054205183 -0.054366473 0.010384104 0.15957545 -0.2018233 -0.050717197 -0.07260015
-0.083314605 0.012456581 -0.02117272 -0.06549551 0.057070177 -0.08380154 0.0137518775 0.12896968
-0.04426299 -0.1676881 -0.056305353 0.01621511 -0.04930689 0.071561694 -0.09872273 0.05630906
0.08450418 -0.06002629 0.046758994 0.025333703 0.022281116 0.026159925 -0.029438019 0.02629195
-0.011645014 0.034398273 -0.089245014 0.052883144 -0.03071431 0.060045186 0.01368602 -0.12048688
-0.0060547744 0.06675605 -0.02083833 0.027001662 0.07277242 -0.04135673 0.0323815 0.017808316
-0.00465784 -0.023108918 0.006264937 -0.14913686 0.05931374 0.084025264 -0.05062514 0.04886151
-0.11594415 0.07495533 0.14341812 -0.11162489 0.042118046 0.0018995291 -0.018340526 -0.0031001726
-0.013412539 0.08153471 -0.034141574 0.026285961 -0.075405546 0.03828375 -0.032896444 -0.08979538
0.038970046 -0.025165005 0.013956576 0.20451878 -0.13204607 0.013595868 -0.02782586 -0.032829195
-0.01532198 0.05758223 0.06295068 -0.057512797 0.0028249386 -0.014591622 0.056948334 0.016106606
-0.0065048425 0.026523877 -0.0765229 0.009578945 0.06047564 -0.09747865 0.056612812 0.0003716647
-0.0658648 0.04146978 -0.055782437 0.07101088 0.010002192 0.01716532 -0.12636754 0.030130748
-0.09442483 0.07941864 0.024584211 -0.045649268 -0.051186472 0.029827783 0.08924913 -0.04253014
-0.0037991977 0.025525015 0.089151464 0.118578434 0.04678616 0.07850118 0.11712814 -0.05221763
-0.011065365 -0.039034005 -0.0346164 0.033332184 -0.047603056 0.041370407 0.14614394 -0.0767158
-0.0808664 0.043531742 -0.06270572 0.05633781 -0.0077944514 0.06449136 -0.12170556 0.083529495
-0.05186734 0.03792971 -0.04007729 0.004273093 0.05364882 -0.1265231 0.032901615 0.14548108
-0.07039069 0.061472956 0.08868335 -0.0030271483 -0.03481262 0.019024264 0.10622094 -0.13839936
-0.043189693 -0.08307944 0.014402049 0.04888642 -0.01210733 0.037969384 -0.13326457 -0.015298067
0.14451319 0.017725656 0.04376748 0.021606902 0.022917531 -0.048975244 0.07864801 -0.026739553
-0.14788797 0.11703941 -0.023257589 -0.050285533 -0.05920127 0.012390835 -0.0046652663 -0.049968693
0.048423976 0.22722659 -0.1313397 0.033608742 0.0059660855 -0.05110311 -0.029394781 -0.00048774725
0.034798384 -0.035420496 0.016070314 -0.07568565 0.040854007 -0.023423946 -0.024050187 0.04678636
0.069355614 0.1202967 0.072421774 -0.13638328 0.0068120537 0.07086904 -0.0009886591 -0.065068975
-0.029609395 -0.06684732 0.0008370464 0.14170502 -0.14013577 0.036186296 -0.05046057 -0.050308924

rnn.bias_ih_l0 f4 [68]
00000000: 95c3 953e 6722 a13e 170f 343e c7e3 3d3e
00000010: f634 883e 274b 7f3e 2dbd aa3e 0f55 353e
00000020: 7fe7 3a3e 4f51 033e c0fa 253e 4c04 a73e
00000030: fdc2 2f3e e94a 863e 743f 873d 8886 863e
00000040: 839e 8a3e f00d 183e abf1 1c3e bae2 623e
00000050: 46bf 7f3e 108a 433e 66cb 5a3e ba92 313e
00000060: b885 6a3e 32f0 813e 4b34 6b3e 08d6 663e
00000070: 2e09 843e c497 f03d 2e09 123e 8af4 123e
00000080: 1166 353e 428f 7a3e 4a9b 27bd 6862 eb3d
00000090: 9714 cfbd 8489 32bd 31d8 f13d 82ff 973c
000000a0: e6e8 7b3b cb2c 0bbd 3053 053b f14a 7a3c
000000b0: 5281 a43c fd6c ac3c 33f0 06bc 3e9c e239
000000c0: ee1e 27bd 934e 5c3d 64b4 93bd b567 c83e
000000d0: 8585 d43e b9a5 8d3e d5c2 d13e cb07 b83e
000000e0: 1075 e13e d630 d73e 526a cb3e 349d ca3e
000000f0: dd8c a43e 823a c53e f433 f53e ad77 a73e
00000100: 1181 d03e 1c60 7a3e 674c d93e 08e6 e03e
0.2925078 0.3147156 0.17583881 0.18543921 0.26602906 0.24931012 0.33347455 0.17708229
0.18252371 0.12823986 0.16208935 0.32620466 0.17164226 0.26229027 0.066038996 0.26274514
0.2707406 0.14849067 0.15326564 0.22156802 0.24975309 0.19095635 0.21366653 0.17341128
0.22902572 0.25378567 0.22969167 0.22542584 0.25788254 0.11747697 0.14261314 0.14351097
0.17714716 0.24468711 -0.04091958 0.11493379 -0.10111349 -0.043588176 0.11808813 0.018554453
0.0038438379 -0.033978265 0.0020343773 0.0152766565 0.020081196 0.021048063 -0.008235979 0.0004322249
-0.04080098 0.05378587 -0.07212141 0.39141622 0.41508117 0.276655 0.40968958 0.35943446
0.44034624 0.42029446 0.39729553 0.3957306 0.3213872 0.385212 0.478912 0.32708493
0.4072347 0.24450725 0.42441103 0.439255

rnn.bias_hh_l0 f4 [68]
00000000: 9ac3 953e 2422 a13e 4a14 343e 29ec 3d3e
00000010: f534 883e f84a 7f3e 26bd aa3e 0355 353e
00000020: e7e6 3a3e d451 033e 1cfb 253e 5904 a73e
00000030: d3c2 2f3e cf4a 863e f936 873d a778 863e
00000040: b59e 8a3e ce0d 183e 97f1 1c3e b3e2 623e
00000050: da12 803e d789 433e 5de0 5a3e b592 313e
00000060: 3187 6a3e 5ef0 813e eb32 6b3e ecd7 663e
00000070: a608 843e 2a97 f03d 4c09 123e 3bf4 123e
00000080: c9df 353e 2f8a 7a3e d86a c63d 90a5 d63d
00000090: d362 adbd a425 e63d bcc5 243c d3f8 e0bb
000000a0: ce4e d63c fc7f 533d 049f 0b3d 18cf 103d
000000b0: 5f85 14bd bbaa de3d 86ee cabc e9f5 113e
000000c0: cb6b eebd 3416 833d aa24 fbbc 6e67 c83e
000000d0: 7c84 d43e baa3 8d3e cfc2 d13e ed07 b83e
000000e0: 4d74 e13e 9c30 d73e 3c6e cb3e 579d ca3e
000000f0: 4b8e a43e c23a c53e fc36 f53e 1a78 a73e
00000100: 3f81 d03e 1060 7a3e 014e d93e 03e6 e03e
0.29250795 0.3147136 0.17585865 0.18547119 0.26602903 0.24930942 0.33347434 0.1770821
0.18252145 0.12824184 0.16209072 0.32620504 0.17164163 0.2622895 0.06602282 0.26263925
0.2707421 0.14849016 0.15326534 0.22156791 0.25014383 0.1909555 0.2137465 0.1734112
0.22903134 0.25378698 0.22968642 0.22543305 0.25787848 0.11747582 0.14261359 0.14350979
0.17761149 0.24466775 0.096883476 0.10480797 -0.08466115 0.11237648 0.010056909 -0.0068655997
0.026160624 0.051635727 0.034087196 0.03535375 -0.036260005 0.10872408 -0.02477194 0.14253964
-0.116416536 0.06400719 -0.030657131 0.3914141 0.41507328 0.27663976 0.4096894 0.35943547
0.44034043 0.42029274 0.3973254 0.39573166 0.3213981 0.3852139 0.47893512 0.32708818
0.40723607 0.24450707 0.42442325 0.43925485

FC.weight f4 [7, 17]
00000000: d05d 3b3f 15ad 22bf 4b54 8eba 7675 b0bf
00000010: bd19 0d3d 9474 30bf b1d0 57bf e9c4 11be
00000020: 9899 76bf b0b4 273e 6906 b43f cdb4 b4be
00000030: c83d b03e 382e 71be 363a 333e 4536 65bf
00000040: 773a db3e 38ad 09be 4762 01bf e893 d93e
00000050: 4fda b33f 1053 67bf 23d8 c9be 8fd7 56bf
00000060: b7a4 aa3b 9729 d63d 3a36 193f 47e9 fa3a
00000070: 103f 8ebc 973c 52bf 1bf9 e13f 50d6 14bf
00000080: 4bab 70bd 65b0 6a3e 7f58 43bf 2017 7dbe
00000090: 0b4c c13e 2e0e 273d 85f6 42bf 692a dabe
000000a0: 4ebe 873f 40c3 3abe f30c 99bd 1dde f8be
000000b0: 3af3 3dbe cebe eb3f 1210 9f3f 90e5 63be
000000c0: 25be 2b3f 58ac 0abe 1d7d f33e 7a93 23bf
000000d0: c1d6 cabe d4ea 363d 06d3 a6bd 9314 3fbd
000000e0: 0273 c03c cf13 2c3f 8374 8bbf 00cd 80be
000000f0: 657b d03e 5476 a3be 5679 32bf 3992 43bf
00000100: c5e7 dbbe 4af8 303e 5748 bbbe ae0e fcbf
00000110: a5ec 29bf 89c1 e6be a970 52bf e038 983d
00000120: e822 3b3e 19b9 ff3f 2af3 95be d66a ab3f
00000130: 683b 5abe 18a5 aabe f527 03bf bb53 92be
00000140: c71a 41be 6848 d4be 2287 b33e f121 a5be
00000150: 570e e73e 280d a53f 24f4 22bf e881 343f
00000160: 29dd 42bd aa04 353f 5493 573d b5d2 0e3f
00000170: 204a b9be 55c9 a53e 2941 d9be 3bfb 08bf
00000180: 257c 40bf 78d3 ca3e 8712 92be fd8b dabe
00000190: cdc9 d63f a467 323f 9365 b5be e1fd e53f
000001a0: 03a8 bf3d 6e02 e5bd ae4b b33e d355 55be
000001b0: 45d2 dabe 73ff fabe 0926 b83f 4103 573e
000001c0: f27b 48be c013 14bf cb88 4a3e 34e0 a0be
000001d0: 235c 053f 3825 eabe 89e2 253f
0.7319002 -0.6354535 -0.0010858861 -1.3785846 0.034448374 -0.68927884 -0.8430281 -0.14235272
-0.96328115 0.1637752 1.4064456 -0.3529419 0.34422135 -0.23552787 0.17502674 -0.89535934
0.42818043 -0.13444984 -0.50540584 0.42495656 1.4050997 -0.9036112 -0.39422712 -0.83922666
0.005207624 0.104571514 0.5984837 0.0019143008 -0.017364055 -0.821237 1.7654146 -0.58139515
-0.058757108 0.22918852 -0.7630691 -0.24715853 0.3775333 0.040785007 -0.7615741 -0.4261048
1.0604951 -0.18238544 -0.07473173 -0.4860696 -0.18549815 1.8417604 1.2426779 -0.2225554
0.6708701 -0.13542306 0.4755639 -0.63896906 -0.3961697 0.044657543 -0.08145718 -0.04665048
0.02349234 0.67217726 -1.0894932 -0.25156403 0.40719143 -0.31926215 -0.69716394 -0.76394993
-0.42950264 0.17282215 -0.36578628 -1.969198 -0.66376716 -0.4506953 -0.82203156 0.07432723
0.18275034 1.9978362 -0.29287082 1.3391979 -0.21311724 -0.33329082 -0.51232845 -0.28579506
-0.18857871 -0.41461492 0.35064036 -0.32252458 0.45128128 1.289464 -0.6365378 0.7051072
-0.047574196 0.7071024 0.052630737 0.55790263 -0.36189365 0.32380167 -0.42432526 -0.5350835
-0.7518943 0.39614463 -0.2852976 -0.42684928 1.6780335 0.69689393 -0.35429057 1.7968103
0.093582176 -0.11182104 0.35018677 -0.2083352 -0.42738548 -0.49023017 1.4386607 0.20997335
-0.19578531 -0.57842636 0.19778745 -0.31421053 0.52093714 -0.4573152 0.6479879

FC.bias f4 [7]
00000000: 1adf d6be e4aa e0be 19c8 a1bd efbf f0be
00000010: ed87 aebe 2556 12bf 8836 b5be
-0.41967088 -0.4388038 -0.07899494 -0.47021434 -0.34088078 -0.57162696 -0.35393167
