data/parameters/parameters-13.pt (torch_old, 30840 bytes, 6 tensors)

rnn.weight_ih_l0 f4 [68, 89]
000000 d9 91 34 3d 49 b8 7c 3d 50 c8 2b 3d fd b6 cf 3d
       0.044084404 0.061699186 0.04193908 0.10142324
000010 2f 48 a5 3c 82 a8 8f 3c c1 f1 1f 3c 9a 1c 6a 3d
       0.020176021 0.017536405 0.0097622285 0.057156183
000020 46 ed 7f bd c2 1e 43 3d be ab 5b 3d 71 60 f1 3d
       -0.06248214 0.047636755 0.053630583 0.11785973
000030 2e 01 a2 3d f0 87 63 3b d6 9d af bc b4 61 75 3b
       0.07910381 0.0034718476 -0.021437567 0.0037442269
000040 70 ea 9e 3d 8d ee 04 be 0b 08 8e 3c 71 e4 e4 ba
       0.07759559 -0.12981625 0.01733782 -0.00174631
000050 cd d1 af bd 2d 9a 0e 3b 6f ab 49 3d e8 8b 38 bd
       -0.08584938 0.0021759376 0.049235757 -0.0450553
000060 af 30 27 3e 42 7c de 3d 37 41 94 3d 1a ab 2b 3e
       0.16327165 0.10863544 0.07239001 0.16764489
000070 04 04 dd 3b d0 91 eb 3d f4 70 44 3e 10 06 b3 bb
       0.0067448635 0.11502421 0.19183713 -0.005463369
000080 b3 a9 82 3d b7 08 ff 3c fc 67 97 3d a2 75 8b bc
       0.06380024 0.031132085 0.0739288 -0.017023865
000090 21 b1 15 3c e1 e2 8f 3d 67 91 d4 3d 5d 60 e0 3c
       0.009136469 0.070256956 0.10379296 0.0273897
0000a0 67 85 0f 3d e4 43 67 3d 04 c0 ba 3c cf 45 b1 3c
       0.03503933 0.05646123 0.022796638 0.021639733
0000b0 db 8a 0c 3d 7d 8a 7e 3d 64 32 44 3c 7f 83 b0 3c
       0.03431211 0.06214379 0.011974905 0.021547077
0000c0 61 1e a6 3c d7 92 00 bd 8c d1 b4 3c b5 b0 db 39
       0.020278158 -0.031390037 0.022072576 0.00041902592
0000d0 50 0d 9e 3b db ee df 3b 99 c4 cd 3b db bb 12 bc
       0.0048233643 0.0068338937 0.00627954 -0.008955921
0000e0 fa aa db 39 47 0d 9f bb 22 83 80 ba e6 a0 ed bb
       0.00041898323 -0.0048538777 -0.0009804706 -0.0072518466
0000f0 82 aa 02 3d 70 88 5f 3d 60 e6 8e 3d f4 c0 12 3d
       0.03190089 0.054573476 0.06977534 0.035828546
000100 c6 55 26 3b f2 95 0b 3d 6b cc 57 3d 40 18 64 3d
       0.0025380715 0.034078546 0.052685183 0.05568719
000110 85 a5 1e 3d 72 32 95 3d 7e c3 0c 3d a0 1e 7e 3d
       0.03873207 0.07285012 0.034366123 0.062040925
000120 9a a7 77 3d 64 71 85 3b 83 dd 83 3c df ea c5 3c
       0.06046257 0.004072355 0.016096836 0.024159847
000130 08 d5 de 3c 45 b6 9c 3a 79 6f 1a 3d 22 53 f1 3c
       0.02720119 0.0011956176 0.037703965 0.029458586
000140 63 eb 8f 3c 0c c0 3b 3c 21 fd aa 3d a9 bf df 3d
       0.017568296 0.011459362 0.08349062 0.10925228
000150 31 78 81 3d 71 c4 9a 3c 96 98 42 3d 15 7b 4a 3d
       0.06321753 0.018892499 0.0475088 0.049433786
000160 30 21 9b 3d b1 e8 a5 bd 4f cf d5 bd c4 70 04 bd
       0.075746894 -0.08101023 -0.104399316 -0.032334104
000170 ca 26 22 be 76 41 1d 3f d6 81 7d be 25 5b b2 3b
       -0.1583511 0.6142801 -0.2475656 0.005442994
000180 a7 90 80 3d 3c 69 af bd a6 b9 ba bc 2f 33 15 be
       0.0627759 -0.08564994 -0.022793602 -0.14570306
000190 e9 7f 67 3e e8 cb da bd c8 93 8e 3d 6a e0 c1 3b
       0.22607388 -0.10683423 0.06961781 0.005916645
0001a0 b0 f7 0d bd 14 b1 62 3d 7f 69 ce 3d ef f3 59 bd
       -0.03466004 0.055344656 0.100787155 -0.05321115
0001b0 77 9f 2f be 17 26 c2 3e 57 b2 6e bb 57 33 11 bf
       -0.17150675 0.37919685 -0.0036422217 -0.56718963
0001c0 d5 64 de 3e 2a 66 16 3c 21 b2 6b 3e 32 ca aa 3d
       0.43436304 0.009179631 0.2301717 0.08339347
0001d0 39 e1 01 3d eb 66 66 3d 5f ad 39 be d2 83 34 3e
       0.03170893 0.056250494 -0.18132542 0.1762841
0001e0 e8 d4 64 bc 59 2c 9e bd 32 de 8e bd 25 5c 82 bc
       -0.013966776 -0.077233024 -0.06975974 -0.015913079
0001f0 cb 32 90 3d e3 ab 4d bd 62 22 52 3d 3f 05 f7 bd
       0.07040938 -0.050212752 0.05130232 -0.120615475
000200 c1 c1 d7 3b 60 f8 57 3c 4e 4a 27 bd d1 d1 63 3d
       0.0065843766 0.013181776 -0.040842347 0.05562002
000210 20 d5 38 3e 6d 04 3b bb 1a a6 88 bb 24 07 d4 3d
       0.1805005 -0.0028536574 -0.0041701915 0.103529245
000220 5c 87 9c 3d 1a 86 c4 bc ce 06 15 3d 77 e7 81 bc
       0.07643005 -0.023989726 0.036383443 -0.015857441
000230 85 f1 29 3c 97 17 2e 3d ff 52 7a 3c 7c f7 73 bc
       0.010372524 0.042502966 0.015278577 -0.014890548
000240 19 ef d0 3c 78 71 ad 3b b1 fa 98 3c 34 4c 0f 3c
       0.025504636 0.0052930675 0.018674226 0.008746196
000250 cb 6f 5d 3c 47 c4 35 3c e6 c5 80 bb e3 b1 bf bc
       0.013515423 0.011094159 -0.0039298413 -0.023400253
000260 a6 7e 82 bd a4 fb 81 bd 52 3e 1b 3e 52 fd d3 bc
       -0.063718125 -0.06346825 0.15160492 -0.025877628
000270 7a 9d b1 bc 2f 4f 03 3e 00 f3 5a 3c fd cf 54 3c
       -0.021681536 0.12823175 0.0133636 0.012989041
000280 f5 4c 8d 3c 7c 94 55 3e be 4a a5 3d a9 b6 a4 bb
       0.01724861 0.20857424 0.080708966 -0.0050266576
000290 b5 8e 5a 3d 7b 97 29 3d 01 86 a5 3c f9 46 ce 3c
       0.053358752 0.04140423 0.0202055 0.025180327
0002a0 14 12 1b 3e 09 83 91 3d cf 4c 25 3d 90 46 33 3d
       0.15143615 0.07105071 0.040356454 0.043768466
0002b0 40 6a 25 bc 00 bd 1c 3d ae 14 57 39 b0 11 7f bd
       -0.010096133 0.038266182 0.00020511702 -0.062272727
0002c0 3a 1c 87 3d d8 a5 2a 3d 4d 91 e6 3d b7 66 9f 3c
       0.06597181 0.041662067 0.11258183 0.019458158
0002d0 be f5 98 bc 3c 44 cd bd af 25 23 bd b0 26 7e 3e
       -0.018671867 -0.1002278 -0.03983086 0.24819446
0002e0 be 5b 54 be 35 4e 94 3d ac 5f 27 be 56 6a ae bd
       -0.20738122 0.07241479 -0.1634509 -0.08516376
0002f0 19 6a 5b bc 80 f2 19 3e 52 27 8a 3e 5e 9a 4b be
       -0.013391995 0.15033913 0.26983124 -0.19883105
000300 76 57 8f bd a3 e4 a6 3c 5b 93 5f 3e 88 3c 02 be
       -0.06999104 0.020372694 0.21833555 -0.12718403
000310 a3 6b 04 3e 5e 61 93 3e 16 30 c5 be 22 2f fc 3b
       0.12931685 0.28785223 -0.3851325 0.0076960484
000320 0c 68 fc 3e 5d 9b d7 be df b0 38 3d ee 12 27 3e
       0.4929813 -0.4211072 0.045090552 0.16315815
000330 33 e2 f3 3d ab 3e ad bd 33 70 41 3e 2f 25 cf 3e
       0.119083785 -0.084592186 0.18890457 0.40458056
000340 22 35 5a 3e 54 f5 be bc 15 70 11 bd cb 0f 2f bd
       0.21309331 -0.023310341 -0.03550728 -0.04273967
000350 e4 e7 2e be f4 48 57 3e 94 4b de bc c2 7c d6 3d
       -0.17080647 0.21023923 -0.027135648 0.104730144
000360 85 5d 13 3d 67 39 82 3d c8 b4 2f bd 4f 1c 27 bd
       0.03597786 0.06358605 -0.042897016 -0.04079848
000370 d9 a7 70 bd f8 5d 0f 3e b2 63 74 3d b3 4b 74 be
       -0.058753822 0.1400069 0.05966539 -0.23857002
000380 25 b6 bd bd b1 9e 1d 3d c9 18 7d 3c 47 47 36 3d
       -0.09263257 0.038481418 0.015447804 0.04450157
000390 eb 88 a5 bd f8 bb fe 3c d2 ad 2c 3d 80 cb e2 bc
       -0.08082756 0.03109549 0.042157955 -0.027684927
0003a0 b8 84 31 bc 2e ec a2 3a cd 71 86 3c 43 d1 82 3c
       -0.010834865 0.0012430006 0.016411686 0.015968924
0003b0 d2 d8 81 bd 4d 3f a6 3c a8 12 01 be af 1d 46 bd
       -0.06340183 0.020293856 -0.12604773 -0.048368152
0003c0 4b 5e d2 bc f1 e0 33 3d 0e 62 12 bd 9a 0a a3 bd
       -0.025679728 0.043915693 -0.035738043 -0.079610065
0003d0 13 ba 02 bd 68 6e 41 3e cc 61 e3 bc 59 1d 19 3d
       -0.031915735 0.18889773 -0.027756594 0.037381504
0003e0 97 32 73 bc 1e 27 05 bd 3b 3f af 3c a9 ec 05 3e
       -0.0148436045 -0.03250801 0.021392455 0.1307856
0003f0 b5 f7 2f 3e 4f 15 12 bd 57 94 36 bc 50 0c 7b 3c
       0.17184336 -0.035664853 -0.011143765 0.01532276

rnn.weight_hh_l0 f4 [68, 17]
000000 70 48 7d 3d 7f 7b 56 3d 01 92 60 bd 87 7d 14 bc
       0.06183666 0.05236387 -0.05482674 -0.009063131
000010 54 bb 05 be 75 ab df bc 7c c7 db b9 1d dc 2e bd
       -0.13059741 -0.027303437 -0.00041919562 -0.042690385
000020 59 a8 f6 3d 8f 16 46 bd 60 57 a4 ba ba e8 f3 3c
       0.120438285 -0.048361357 -0.0012538247 0.029774059
000030 04 bf 98 bd ab 7d a1 3d bf 65 bf bd c8 2e f9 bd
       -0.07458308 0.078852974 -0.093455784 -0.12167126
000040 4a f3 8e 3c 85 8b e7 bd b0 61 97 3e 3c b0 c1 bc
       0.017449994 -0.11305908 0.29566717 -0.023643605
000050 6f ac b5 3d 1b 43 23 3d 5d d5 98 3d 6b 2f 82 3d
       0.0887078 0.03985892 0.07462571 0.063567005
000060 d1 dd d2 bb 37 35 eb bc d4 f0 3b bd fc 14 55 3c
       -0.006435134 -0.028711898 -0.04588397 0.013005491
000070 44 91 2d bd 66 21 07 be 15 c0 35 3e 79 16 d4 bd
       -0.042374864 -0.13196334 0.17749055 -0.10355849
000080 7f 23 4b be 1a fb ea 3d 5b 4a a6 3b eb 95 10 be
       -0.1983776 0.11473675 0.005074782 -0.14119689
000090 8c 05 59 be 6f 3d 00 bc 6c 8a 9d bc df 3b b1 3d
       -0.21193522 -0.007827147 -0.019231044 0.08653998
0000a0 a9 fc f2 3c 07 9d 91 bd ec e2 b6 bd 93 b2 a6 3d
       0.029661493 -0.07110029 -0.08930001 0.08139529
0000b0 54 a5 47 bd 5a d4 99 3c f5 93 1d 3e 72 62 ec 3d
       -0.048741654 0.018778015 0.15388472 0.115422145
0000c0 07 51 b9 bc 39 e9 1c bd af c4 a3 bc df 2a e3 bc
       -0.022621645 -0.038308356 -0.019991247 -0.027730403
0000d0 1a 28 39 bd d2 08 6d 3d 86 37 04 3d 59 89 3b bc
       -0.04520426 0.05786974 0.032279514 -0.01144632
0000e0 12 58 fd 3d c6 5f 51 3c 5b a9 5f 3d e2 83 02 3e
       0.12370314 0.012779182 0.05460487 0.12745622
0000f0 4e 29 f3 3c 3e 33 00 be 1d be c9 bc 31 de 2f be
       0.029682782 -0.12519547 -0.024626786 -0.17174603
000100 2a 36 be bd 2b 2b 29 bd 46 9e 1c 3d e3 44 4d bd
       -0.09287675 -0.041300934 0.03823688 -0.050114524
000110 49 37 09 3d d3 1a 6f 3d 15 10 92 bd 3d 0b a0 3d
       0.03349999 0.05837519 -0.07131974 0.078146435
000120 25 98 82 bd a2 44 96 3b cf 2d 9e bc dd f2 02 be
       -0.063766755 0.0045858184 -0.019308953 -0.12787957
000130 f5 e7 89 3d 63 26 f3 3c 14 ea 8c bd 6e 66 e3 3c
       0.067336954 0.02968139 -0.06880584 0.027758803
000140 4b 94 52 bd 3a 3f a0 3c d8 e4 d6 bc d2 97 c1 bd
       -0.051410954 0.019561399 -0.026232168 -0.094527856
000150 68 20 02 3d 5a 0f 1f 3b 83 de 8a bd 36 56 2c be
       0.031769186 0.0024270625 -0.06780722 -0.16829762
000160 fc c8 dd 3c 76 79 bf 3d e7 63 92 3d 57 f0 12 bc
       0.027073376 0.09349339 0.07147961 -0.008968434
000170 d2 06 83 bd 94 31 3a be a4 f2 fb bb eb cb c2 bc
       -0.06397785 -0.18182975 -0.007688837 -0.023778876
000180 08 cd c7 bd 4f 21 20 be ca 0c b3 3c ac 2d 52 b9
       -0.097559035 -0.15637706 0.021856684 -0.00020044175
000190 38 33 29 3d 66 f2 1b 3d 0f 59 2d bd 52 50 ff bd
       0.04130861 0.038072966 -0.04232126 -0.12466492
0001a0 03 1e 7d bc ba 0b 12 be 30 80 5b bd 21 47 e9 3d
       -0.01544905 -0.14262286 -0.053589046 0.1139052
0001b0 ba 81 e1 bc aa 96 75 bb 71 c7 04 3d 6a 29 e8 3c
       -0.027527679 -0.0037473836 0.032416765 0.02834006
0001c0 48 18 03 bc a2 58 25 bd cd 9f 67 bc 93 39 b0 3d
       -0.008001395 -0.04036773 -0.014137221 0.086047314
0001d0 e1 e2 df bd a0 fc d5 bc 6b f4 71 bd 5d fe b0 3c
       -0.109319456 -0.026121438 -0.059070986 0.021605665
0001e0 32 d2 37 3c bf 35 d9 bd 76 8c 4f 3c e5 2d ba bd
       0.011219548 -0.106059544 0.012667766 -0.09090785
0001f0 2c de d0 3c 69 19 47 bd 3c 25 22 be a2 36 52 3e
       0.025496565 -0.048608217 -0.15834516 0.20528653
000200 59 bc b7 3c 9f ae 30 bd 4d 15 7a bc 70 ea 78 bd
       0.022428678 -0.04313528 -0.015263868 -0.060770452
000210 26 41 88 3d 0d e2 b5 bd b4 bd 46 bd 6b 98 0a bd
       0.06653051 -0.088810064 -0.04852076 -0.033836763
000220 50 ad c2 3d d7 1d e6 bc 35 f1 f5 bd e4 72 2f bd
       0.09505713 -0.0280904 -0.12008897 -0.042834178
000230 a7 11 f9 bc 52 23 6e 3d de d5 42 bc bd 5e 32 bc
       -0.030403925 0.058139153 -0.01189181 -0.010886845
000240 2a 18 85 3e 42 87 ff bb 7f e6 d6 3c 29 8b 01 bd
       0.25994998 -0.0077981064 0.026232956 -0.031626854
000250 1f 5d a7 3d 87 86 5c 3d a8 0a b5 bc 31 c2 1c 3c
       0.08172058 0.053839233 -0.022099808 0.009567783
000260 ef 97 0e 3d 59 6b b6 3b 91 63 51 3d 3d 7f e5 bd
       0.034812864 0.005566996 0.051120345 -0.112059094
000270 5b 89 06 3d 54 3f 30 bd df 80 0e 3c 34 1e 3a 3c
       0.032845836 -0.043029144 0.008697717 0.01135974
000280 12 6c b6 bd 57 b0 8e 3c d3 57 9a bc 95 18 c6 bc
       -0.089073315 0.01741807 -0.018840706 -0.024181644
000290 7c 5e 74 bd 8b 0c a7 bd bf 4a 79 bb a4 51 a8 bd
       -0.05966042 -0.08156689 -0.0038038937 -0.08218697
0002a0 02 b3 94 bd eb ea 3d bd 6a be 39 bd 28 74 49 bb
       -0.072607055 -0.046366613 -0.04534761 -0.00307394
0002b0 b0 63 a9 3d bd 3d e9 3c bf f4 1a bd 6a 8a e2 3b
       0.08270967 0.028471822 -0.037831064 0.006913473
0002c0 d5 a9 1e 3d 6c 58 37 bd 90 85 09 3e f5 19 86 3c
       0.038736183 -0.04476206 0.13429856 0.0163698
0002d0 95 d6 41 bd 03 f8 2d bd d4 3f c6 bd dc 79 d4 3c
       -0.047323782 -0.04247285 -0.09680143 0.025937013
0002e0 54 85 03 bd 33 0c be bc 69 98 bd 3c 74 36 03 3e
       -0.032109573 -0.023199176 0.023143964 0.12813741
0002f0 ed c6 b4 3d 66 e4 5d bd f7 4d d2 3b 13 8d 0e be
       0.088270046 -0.054172896 0.0064179855 -0.13921003
000300 54 c0 b2 bc a4 92 ed bd 3b 98 17 be 55 a3 79 bc
       -0.021820225 -0.11600235 -0.14804165 -0.015236695
000310 61 df e6 bd 5f a0 61 bb 37 97 fa bb ca d7 61 bd
       -0.11273075 -0.0034427864 -0.0076474207 -0.055137433
000320 4d ef 9f bd ce cd 02 3d 58 24 cc 3c fd a9 94 3d
       -0.07809315 0.031934552 0.024919674 0.07258985
000330 2b 6f e3 3c e3 d4 0d 3d d2 cf dd bd 0e be 36 3d
       0.02776297 0.034626853 -0.10830654 0.044614844
000340 1e b9 96 bd 5c 3d 03 3d 99 27 73 bd 95 b9 b4 bd
       -0.07359527 0.03204094 -0.059363935 -0.088244595
000350 2a e8 c2 3d 4f 42 61 3c c4 6c 08 bd e2 54 72 3c
       0.09516938 0.013748719 -0.033306852 0.014790745
000360 b8 87 77 bd 17 14 3d 3d 4e e7 52 bd 5b e3 3f bd
       -0.060432166 0.046161737 -0.05149012 -0.046847682
000370 9e 95 d3 bc 5a 0c 86 3c 8b fe 3a 3d 78 5d 9b bd
       -0.025828179 0.016363312 0.045652907 -0.07586187
000380 78 19 b2 3c 1f 7f 1f be a4 28 33 3d 18 69 2b bb
       0.02174066 -0.15575837 0.04373993 -0.002615517
000390 58 2f b8 bc 0c 74 80 3d 2b 0d 0a 3d b5 b5 36 bd
       -0.022483513 0.06272134 0.033703964 -0.044606883
0003a0 f1 a9 c4 3b a4 40 3c bd 63 c7 be 3d 02 71 e2 bd
       0.006001704 -0.045960084 0.09315374 -0.11056711
0003b0 eb 51 da bd d1 24 9a bd 77 8f 46 bd ab db a4 3d
       -0.10660156 -0.075265534 -0.048476662 0.08049711
0003c0 4e a9 a0 bd 9a 48 22 3e 09 5f d9 bd c8 5f 7a bd
       -0.07844792 0.15848008 -0.1061383 -0.0611265
0003d0 81 3a 4d 3d da 07 d3 bd ce d6 f2 3d 01 b8 2c 3e
       0.05010462 -0.10304232 0.11857377 0.16867067
0003e0 ac f2 2d be 8e c1 05 be d1 6d 1c 3c 9b 8f f1 bd
       -0.16987103 -0.13062117 0.009547667 -0.11794969
0003f0 dc 26 90 bd 76 45 86 be a5 06 4f 3b 17 98 ad 3d
       -0.07038662 -0.2622487 0.0031589654 0.084762745

rnn.bias_ih_l0 f4 [68]
000000 0b 5f 99 3e e1 2f 2d 3c 14 f7 fe 3b 4b 39 83 3e
       0.29955325 0.010570497 0.007780919 0.2562965
000010 03 fb 9f 3e d4 e0 0d 3e 26 f5 d9 3d f2 f4 09 3e
       0.31246194 0.13855296 0.106424615 0.13472345
000020 bd 89 ed 3d 1a ef 8e 3e 4f 25 57 3e 14 bb 3b 3e
       0.11598537 0.27916795 0.21010326 0.18333083
000030 e0 39 a4 3e 5d 09 85 3e 24 a9 fe 3d 8c ee 3b 3e
       0.32075405 0.25983706 0.12434605 0.18352717
000040 9d a3 99 3e 72 5f 48 3e a3 c9 53 3e 7e e7 8f 3e
       0.3000764 0.1956766 0.20682387 0.28106302
000050 19 09 42 3e 6c 19 ef 3d 54 d8 84 3e 96 d4 8c 3e
       0.18948783 0.11674771 0.25946295 0.2750594
000060 d1 eb 0c 3e f0 c2 4a 3e d1 7e 59 3e eb eb 1a 3e
       0.13761832 0.19800925 0.21239783 0.15129058
000070 99 9a 4b 3e a0 55 55 3e ed 6a 6a 3e d4 a0 64 3e
       0.19883193 0.20833445 0.22892351 0.22326976
000080 61 95 50 3e 00 c1 e3 3d 9f 63 40 3d e6 ff 10 3d
       0.20369484 0.11120796 0.046970006 0.035400294
000090 a4 3b 2b bd c7 46 9f 3d b9 23 a0 3d ef 75 6d bd
       -0.041804925 0.077771716 0.078193136 -0.0579738
0000a0 3e 0b 72 bd cc 4d 31 bd 02 32 2f 3e 1b d1 79 bd
       -0.059092753 -0.043287084 0.1710892 -0.060990434
0000b0 8d ac fe 3a 40 1d 10 bc 4e 8f 91 bd c2 74 4f 3d
       0.0019430086 -0.008796036 -0.07107411 0.05064846
0000c0 f9 60 cd bd b7 68 ee 3b a8 5c 8d bb b2 6a d4 3e
       -0.10028262 0.0072756666 -0.004314024 0.41487652
0000d0 08 b1 c4 3e 5e 97 bf 3e 36 df c2 3e 86 2b dc 3e
       0.38416314 0.37420171 0.3806092 0.43001956
0000e0 00 24 da 3e d3 87 be 3e a9 a5 cb 3e 31 94 a2 3e
       0.4260559 0.37213 0.39774826 0.31753686
0000f0 22 f9 c2 3e 53 65 99 3e cc 90 b2 3e af ae ef 3e
       0.38080698 0.29960117 0.34876096 0.4681296
000100 db 0b db 3e 38 85 cf 3e 2f 6e c5 3e 78 18 d0 3e
       0.42782483 0.40531325 0.38560626 0.40643668

rnn.bias_hh_l0 f4 [68]
000000 e4 5e 99 3e 88 41 2c 3c f2 f6 fe 3b 4c 39 83 3e
       0.29955208 0.010513671 0.007780903 0.25629652
000010 4d fb 9f 3e 20 df 0d 3e 86 f3 d9 3d d5 46 0c 3e
       0.31246415 0.13854647 0.106421515 0.13698895
000020 ce 89 ed 3d 19 ef 8e 3e 4f 25 57 3e 48 be 3b 3e
       0.1159855 0.27916792 0.21010326 0.18334305
000030 e2 39 a4 3e 83 09 85 3e 19 e3 fd 3d e1 ee 3b 3e
       0.3207541 0.2598382 0.12396831 0.18352844
000040 4e a4 99 3e 90 5f 48 3e 04 e0 53 3e 14 e8 8f 3e
       0.30008167 0.19567704 0.20690924 0.2810675
000050 84 db 41 3e 6d 16 ef 3d b3 de 84 3e 27 d1 8a 3e
       0.18931395 0.11674199 0.25951156 0.27112696
000060 7b e7 0d 3e 13 e7 49 3e 8e e2 59 3e bd ec 1a 3e
       0.13857834 0.19717054 0.2127783 0.15129371
000070 ec 9a 4b 3e 77 53 55 3e d1 6b 6a 3e fc b9 64 3e
       0.19883317 0.2083262 0.22892691 0.22336572
000080 64 95 50 3e 84 c4 e3 3d 17 12 cf 3a 99 59 30 bc
       0.20369488 0.11121467 0.0015798238 -0.010763549
000090 b0 6e d6 3d 89 7c 41 bd bb 6e 9c bd 02 3e 17 3d
       0.10470331 -0.047237907 -0.07638308 0.03692437
0000a0 c0 d3 a8 3c e8 6d 70 bc 11 80 cd 3d 0b 48 64 bc
       0.020608783 -0.014674641 0.10034192 -0.013933192
0000b0 fa 49 4c bd 1f 7a 9b 3c 03 7a 98 bd f7 58 3b 3d
       -0.049875237 0.01897913 -0.07445147 0.04573914
0000c0 e1 34 d2 bc 5e 9c a8 3d 6d 33 4b 3d ae 6a d4 3e
       -0.02565998 0.0823295 0.04960959 0.4148764
0000d0 d6 b0 c4 3e e1 96 bf 3e cb dd c2 3e db 2a dc 3e
       0.38416165 0.374198 0.3805984 0.43001446
0000e0 15 24 da 3e 71 88 be 3e af a7 cb 3e 4d a2 a2 3e
       0.42605653 0.37213472 0.3977637 0.3176445
0000f0 dc fc c2 3e c3 64 99 3e 4d 91 b2 3e 53 ae ef 3e
       0.3808354 0.29959688 0.3487648 0.46812686
000100 24 08 db 3e 3a 85 cf 3e 4b 6c c5 3e b4 14 d0 3e
       0.42779648 0.4053133 0.38559183 0.40640795

FC.weight f4 [7, 17]
000000 f2 b9 48 bf 6a a2 8a 3e 6b 89 38 3d 2d af e7 be
       -0.7840873 0.27077037 0.045052927 -0.45250836
000010 d7 a6 f7 3f 64 26 a4 bd 68 b1 bd be e5 94 f4 bf
       1.934779 -0.08015135 -0.37049413 -1.9107939
000020 39 8e a5 3d 83 18 4b 3e b6 f4 72 3e 09 84 aa 3e
       0.080837674 0.19833569 0.23726162 0.3330386
000030 71 eb ae 3e 89 b1 e3 be fb 1f de 3e 0f 9e 18 3e
       0.34164003 -0.44471386 0.43383774 0.14904045
000040 a6 81 d3 be a7 d3 27 bf fc 56 c2 3e eb d5 a5 bd
       -0.4130985 -0.6555733 0.3795699 -0.08097442
000050 10 9a 00 bf 23 29 12 bf 2b f1 a6 be 15 75 20 bf
       -0.5023508 -0.5709402 -0.32605872 -0.62678653
000060 99 87 02 3f bf ef e9 be 59 01 a7 be 0b 92 4f 3f
       0.50988156 -0.45690724 -0.32618216 0.8108222
000070 55 80 b3 bf ff 94 21 3f 46 8e cf be 6d 6a 04 c0
       -1.4023539 0.63117975 -0.40538234 -2.0689957
000080 ca 32 99 3e b5 b9 72 be 34 4d 9b bd f6 02 cb 3e
       0.2992156 -0.23703654 -0.07583085 0.39650697
000090 a8 88 6a bc 6f d6 1b bf 0f c6 13 be 19 0c f0 3f
       -0.014314808 -0.60874075 -0.14431022 1.8753692
0000a0 4e 87 04 3f fa 52 a2 3e 13 53 1f 3c be 89 ec 3e
       0.5176896 0.3170393 0.009724396 0.4619884
0000b0 71 fc e2 be 67 9d b3 bc c9 5d cd 3e 0c bf 9a be
       -0.44333223 -0.021925641 0.40110615 -0.30223882
0000c0 20 91 a2 3e a8 15 88 3e 9e 18 03 40 a8 f8 79 3f
       0.31751347 0.26579022 2.0483775 0.97645044
0000d0 91 b0 ea 3e da 9c 3b 3e 86 ce 25 bf 5f 16 c4 bd
       0.45837834 0.18321553 -0.64768255 -0.095745794
0000e0 80 66 53 bf 95 96 8f 3f 7a 21 2a 3f 25 62 1f 3f
       -0.8257828 1.1217829 0.6645733 0.6225913
0000f0 f5 89 a4 bf 8e d9 94 bd fd 01 0d 3f 85 a4 74 3f
       -1.2854601 -0.07268058 0.5508116 0.95563537
000100 7e 6f 2b bf b1 93 f0 3e cb 45 99 bf bc 01 c9 be
       -0.66967 0.4698768 -1.1974424 -0.39259136
000110 06 37 95 3f 1d a7 fa bf 8a 84 1c bf 5a c3 c7 3e
       1.1657417 -1.9582249 -0.6113974 0.3901623
000120 2a 8d 25 bf da 5b ef be a6 12 13 bf f2 d9 01 3e
       -0.64668524 -0.46749765 -0.5745033 0.12680796
000130 95 98 e7 3d f3 23 1a 3f 06 db 65 3e 37 a3 d0 3e
       0.113083996 0.60211104 0.22446832 0.40749523
000140 3a bc 3d 3e eb bc 25 bf 4d 8d 15 3f a7 6c b6 3f
       0.18528834 -0.6474139 0.5841873 1.4251908
000150 62 88 96 be ea 39 c9 be b1 2e 2a 3f 2e d4 42 bf
       -0.29400927 -0.39301997 0.66477495 -0.7610501
000160 a3 64 72 3f 6d 31 26 be 93 24 f1 be 0b ea d1 3b
       0.9468481 -0.16229792 -0.47098216 0.006406074
000170 d5 29 1d 3f 24 48 20 bf 85 fe 58 3f 13 b0 53 3e
       0.61391956 -0.6261008 0.84763366 0.20672636
000180 98 1e 44 3f 32 fd 00 3f ae 19 0b 40 a3 23 90 3e
       0.7660918 0.50386345 2.1734424 0.2815219
000190 10 6d 1e bf b7 0f 87 be a7 11 27 bf dc f9 5e 3d
       -0.61885166 -0.26379177 -0.6526131 0.054437503
0001a0 ee f2 db 3f d3 f3 81 bd 23 50 99 be 13 0b a5 be
       1.7183511 -0.06345334 -0.29943952 -0.3223501
0001b0 e6 87 73 bd 76 6b 08 3f 99 07 4a bf 51 48 e4 3e
       -0.059455775 0.5328897 -0.78917843 0.44586423
0001c0 e1 fd dc be 3c f3 cb 3d 76 66 fc bf 29 7e f4 be
       -0.43162444 0.09958503 -1.9718769 -0.47752503
0001d0 1b 63 e3 3e 85 97 95 be d2 1f 1d bf
       0.4441155 -0.29217163 -0.6137668

FC.bias f4 [7]
000000 c8 e7 c3 be 8c 24 0b bf 47 28 af be ae 2c 12 bf
       -0.38262773 -0.5435264 -0.34210417 -0.57099426
000010 40 5f 6c be 07 b9 0f bf 4f 36 3e be
       -0.2308321 -0.56141704 -0.18575405
