data/parameters/parameters-3.pt (torch_old, 30840 bytes, 6 tensors)

rnn.weight_ih_l0 f4 [68, 89]
0.042764664 0.053415537 0.101383425 3.3773e-41 3.083e-42 -2.356e-42 3.468e-41 0.008895261
-0.0010603863 0.0038588105 0.012687506 0.04656959 0.053990357 0.07256018 0.006361212 0.014847384
0.06331903 0.050407894 0.031593844 0.043570638 0.059238885 4.441e-42 0.077194706 0.059048932
0.12737952 0.115661144 0.14255434 0.10853906 0.12608643 0.13351227 0.13662751 0.011982036
-0.001288383 0.0022443086 -0.000379354 0.0053941784 0.0017021504 0.01406862 0.017037708 -0.0001838151
-0.0006531572 2.8302e-41 6.8151014e-05 0.0026106345 0.00063984893 0.0012386477 6.7126e-41 -2.3327e-41
3.7905e-41 2.1661e-41 1.7378e-41 -5.941e-41 -1.3026e-41 -5.1882e-41 -1.8909e-41 1.6605e-41
-2.2882e-41 1.5124e-41 1.9897e-41 -2.1843e-41 -7.17e-42 0.031501062 0.02024007 0.021245046
0.03883054 0.03389234 0.025192592 0.037085522 0.020083688 0.01514069 -0.007560553 0.0041886913
0.011881202 0.017571429 -0.00016874033 3.53e-43 -2.8664e-41 7.407e-42 1.7585e-41 9.355e-42
-1.7471e-41 1.1313e-40 0.03149434 0.020241302 0.021245014 0.038830835 0.033892322 0.025192587
0.037070766 0.05831314 0.030625058 0.12581475 -1.023e-41 -1.1236e-41 -2.0959e-41 -1.785e-41
0.01012366 -0.004247594 -0.00072944845 0.02495318 0.054460526 0.0482599 0.08190907 -0.0021721493
0.001928532 0.09014425 0.053264417 0.017121462 0.057547394 0.0692326 1.5142e-41 0.07192811
0.07143583 0.1363101 0.10323209 0.16271137 0.13365138 0.115533724 0.12241626 0.14158028
0.00075940037 0.0010673251 -0.001349542 -0.0047095623 0.006092715 0.018689716 0.012936238 0.028707197
0.0016395996 0.0008531924 -9.334e-42 -0.00036281056 6.851924e-05 -0.00016695178 -0.0022138548 4.9448e-41
-1.01311e-40 2.7875e-41 1.056e-41 1.3235e-41 9.312e-42 -2.481e-41 -1.14289e-40 -1.20659e-40
-9.3436e-41 1.36671e-40 -2.4838e-41 1.284e-42 -1.04621e-40 1.168e-41 0.028759954 0.040484414
0.029729899 0.039630078 0.02097423 0.031295974 0.025115745 0.0031016269 0.029219987 0.01006487
-0.0015423208 0.015113189 0.007653324 0.013001876 5.241e-42 5.4417e-41 -2.3126e-41 6.815e-42
-3.633e-41 2.5422e-41 -1.3342e-41 0.028750958 0.0405067 0.029733185 0.039627664 0.020973012
0.031295367 0.025112323 0.048757546 0.07408336 0.081392586 -4.4645e-41 -1.8543e-41 -8.129e-42
3.8096e-41 -0.0076595945 0.004752622 0.0022500951 0.042527955 0.0325241 0.06036275 0.06946019
-0.00258875 0.045881186 0.06212397 0.038376033 0.036108717 0.051011845 0.056297813 -2.7681e-41
0.08666921 0.055519793 0.14509997 0.13018157 0.15250969 0.12800963 0.13430628 0.13321984
0.1504606 -0.0027248068 -0.0017811422 0.017013421 -0.005771473 0.0077348514 0.05435074 0.00050204626
0.033180255 -0.0009734014 2.9869572e-05 -1.406e-42 0.0016365233 0.00084644835 0.0037295746 0.0030586394
-8.111e-41 2.368e-41 -4.6356e-41 -5.5305e-41 -1.923e-41 2.3105e-41 -6.43e-42 -2.7632e-41
1.0902e-41 -3.8857e-41 -3.2397e-41 -2.1353e-41 -1.3803e-41 -6.8494e-41 -5.56e-42 0.022707509
0.03456837 0.04316788 0.020361232 0.02063545 0.03012108 0.03581681 0.0020933303 0.015653353
0.020229168 -9.825879e-05 0.000842581 0.020946281 0.0026127528 2.1922e-41 -2.991e-41 -1.6881e-41
00000000: 002a 2f3d 40ca 5a3d 1da2 cf3d 255e 0000
00000010: 9808 0000 9106 0080 ac60 0000 6ebd 113c
00000020: a9fc 8aba 19e4 7c3b 42df 4f3c c1bf 3e3d
00000030: fe24 5d3d 6f9a 943d b771 d03b 7142 733c
00000040: 68ad 813d 8278 4e3d 8c68 013d 2077 323d
00000050: 79a4 723d 610c 0000 4218 9e3d 4bdd 713d
00000060: c76f 023e c0df ec3d c4f9 113e ba49 de3d
00000070: cd1c 013e 71b7 083e 15e8 0b3e 4d50 443c
00000080: f6de a8ba 4015 133b 08e4 c6b9 a6c1 b03b
00000090: b11a df3a 1280 663c aa92 8b3c 7dbe 40b9
000000a0: a338 2bba e54e 0000 4cec 8e38 2e17 2b3b
000000b0: 89bb 273a 1f5a a23a 1fbb 0000 0741 0080
000000c0: aa69 0000 623c 0000 7130 0000 9ca5 0080
000000d0: 5024 0080 a090 0080 b634 0080 4a2e 0000
000000e0: c93f 0080 292a 0000 7737 0000 e43c 0080
000000f0: fd13 0080 4207 013d 81ce a53c 170a ae3c
00000100: c60c 1f3d b2d2 0a3d b260 ce3c fde6 173d
00000110: 8c86 a43c a810 783c 84be f7bb 4a41 893b
00000120: 60a9 423c f5f1 8f3c e3ef 30b9 fc00 0000
00000130: e74f 0080 a614 0000 0531 0000 141a 0000
00000140: b430 0080 5c3b 0100 3600 013d 16d1 a53c
00000150: 060a ae3c 150d 1f3d add2 0a3d af60 ce3c
00000160: 84d7 173d c2d9 6e3d 67e1 fa3c 95d5 003e
00000170: 841c 0080 521f 0080 6d3a 0080 c231 0080
00000180: b5dd 253c 672f 8bbb 7538 3fba 9d6a cc3c
00000190: 0012 5f3d 2cac 453d f1bf a73d 9e5a 0ebb
000001a0: ccc6 fc3a 8c9d b83d ca2b 5a3d 4f42 8c3c
000001b0: d1b6 6b3d d2c9 8d3d 362a 0000 0c4f 933d
000001c0: f34c 923d e094 0b3e 596b d33d cf9d 263e
000001d0: e8db 083e f29c ec3d 60b5 fa3d 6cfa 103e
000001e0: 7f12 473a 7de5 8b3a 1ee3 b0ba ac52 9abb
000001f0: 66a5 c73b 2d1b 993c 84f2 533c 5b2b eb3c
00000200: d5e7 d63a c6a8 5f3a 051a 0080 9c37 beb9
00000210: fdb1 8f38 c70f 2fb9 5216 11bb d789 0000
00000220: 6a1a 0180 b44d 0000 701d 0000 e524 0000
00000230: f519 0000 2945 0080 973e 0180 5950 0180
00000240: 7604 0180 fc7c 0100 3d45 0080 9403 0000
00000250: a423 0180 8f20 0000 ff99 eb3c fcd2 253d
00000260: 1e8c f33c 2653 223d 26d2 ab3c 3530 003d
00000270: 89bf cd3c aa44 4b3b c15e ef3c 20e7 243c
00000280: b327 caba 4f9d 773c bcc8 fa3b d205 553c
00000290: 9c0e 0000 b197 0000 7740 0080 ff12 0000
000002a0: 4665 0080 de46 0000 3125 0080 2187 eb3c
000002b0: 5aea 253d 0293 f33c 9e50 223d 98cf ab3c
000002c0: 922f 003d 5cb8 cd3c feb5 473d 04b9 973d
000002d0: 28b1 a63d 747c 0080 b133 0080 a916 0080
000002e0: 326a 0000 56fd fabb e2bb 9b3b 5576 133b
000002f0: cb31 2e3d fe37 053d ee3e 773d 2541 8e3d
00000300: 05a8 29bb e9ed 3b3d b475 7e3d 3030 1d3d
00000310: bce6 133d ccf1 503d 8998 663d 2a4d 0080
00000320: a07f b13d b968 633d 1695 143e 514e 053e
00000330: 802b 1c3e f514 033e 9687 093e c86a 083e
00000340: 5812 1a3e ac92 32bb 3775 e9ba bb5f 8b3c
00000350: a01e bdbb a374 fd3b e29e 5e3d c19b 033a
00000360: 05e8 073d dd2b 7fba 6b90 fa37 eb03 0080
00000370: 9c80 d63a 30e4 5d3a e16b 743b 7473 483b
00000380: 1ae2 0080 0342 0000 3981 0080 2b9a 0080
00000390: 9b35 0080 6840 0000 ed11 0080 074d 0080
000003a0: 641e 0000 516c 0080 4f5a 0080 863b 0080
000003b0: 7a26 0080 efbe 0080 800f 0080 1905 ba3c
000003c0: 9097 0d3d ced0 303d 99cc a63c ad0b a93c
000003d0: 7cc0 f63c a6b4 123d 4130 093b 763b 803c
000003e0: a4b7 a53c 4910 ceb8 a7e0 5c3a 8997 ab3c
000003f0: b83a 2b3b 1c3d 0000 6053 0080 0f2f 0080

rnn.weight_hh_l0 f4 [68, 17]
-0.0081800055 -0.016650902 -0.017313095 0.004895465 -0.0017516243 0.005973648 0.018531715 -0.074217886
-0.09563791 0.006408603 0.028341118 -0.049729906 -0.007551458 0.0022994787 -0.059087038 0.09565186
0.0133972615 -0.01827678 0.004542241 -0.015759157 0.0104594035 -0.008944822 0.027341107 0.019088257
-0.08796119 -0.106954016 0.037689876 0.010212801 -0.04416098 -0.0013309 -0.015744425 -0.06226505
0.106955454 0.016385335 -0.026881771 -0.021411471 -0.0026545408 0.020069957 0.0039847572 0.009525231
0.022540493 -0.077767566 -0.09552772 0.020873606 0.020381892 -0.057184625 0.011918733 -0.008978619
-0.051055305 0.09552134 0.012228956 -0.024023134 -0.0061953054 -0.0029243801 0.020521026 -0.0071538887
0.015332284 0.026968008 -0.08312661 -0.11108139 0.0331669 0.027301103 -0.054056626 0.0057001994
-0.004586839 -0.060027774 0.1111089 0.00235671 -0.015671955 -0.011350585 -0.021842632 0.009529292
-0.00764124 0.024996554 0.013443309 -0.0771254 -0.09230491 0.016634468 0.013892111 -0.027338896
0.0057384213 -0.019060176 -0.050674945 0.092306465 0.018055297 -0.018207151 -0.011587888 -0.021180142
0.010723537 -0.012247205 0.014233168 0.012441173 -0.09117799 -0.106113814 0.025086014 0.002025866
-0.04231032 0.0059141326 -0.016424162 -0.05425855 0.10610639 0.013115651 -0.007829338 -0.008367168
-0.010630103 0.012356644 -0.013407753 0.016303062 0.004245646 -0.073408075 -0.09323051 0.016790528
0.024436051 -0.037621528 -0.0067709065 -0.020747941 -0.05453658 0.093228005 0.035897147 -0.021378797
-0.016179552 -0.02138972 0.034950614 -0.008983666 0.02448321 0.032154754 -0.10883781 -0.13134556
0.036084976 -0.00115238 -0.009494783 0.011719526 -0.023626154 -0.06503006 0.13134615 0.012814718
-0.0031152612 -0.009815042 -0.010295457 0.0073920516 -0.0068182824 0.0061594862 0.003410514 -0.02655313
-0.0351216 0.01564213 0.0068315845 -0.02153793 0.0037277779 -0.004649628 -0.0139543265 0.035111245
0.0034774079 -0.003483188 -0.044513788 -0.035126586 0.014243203 -0.002628393 0.026155625 0.03414082
-0.111952 -0.14127499 0.05388784 0.03478204 -0.07058723 0.006861419 -0.046086326 -0.08496137
0.1412659 0.05080051 -0.018040393 -0.038275477 -0.008948277 0.013915638 0.02206352 0.018675579
0.025641229 -0.06163247 -0.10032275 0.04541426 0.00956577 -0.042718034 0.0023005772 -0.006585572
-0.075969815 0.10032445 0.03236435 -0.008940884 -0.057513356 -0.04462636 0.0056682485 0.0033572759
0.030248908 0.018554326 -0.09204503 -0.13638593 0.08470767 0.023406554 -0.11563572 0.02757046
-0.041829813 -0.083508216 0.13638212 0.053810433 -0.0126782 -0.025344564 -0.012118763 0.03285622
0.0051390715 0.020316117 0.033444293 -0.08508812 -0.11292477 0.028489813 0.03910754 -0.03685001
-0.0036261624 -0.0012146934 -0.04967338 0.11292106 0.00802756 -0.015034185 -0.0133576095 -0.014760539
0.01506738 -0.0062658666 0.019016664 0.02755279 -0.087140836 -0.11286294 0.028506095 0.029061494
-0.039058093 -0.00022435041 -0.0051352507 -0.06368337 0.11283979 0.012890035 -0.058131244 -0.02983149
0.008519874 0.054931697 0.020618493 0.02583781 0.047781132 -0.10739367 -0.15238774 0.027928801
0.033294164 -0.05845661 0.020559976 -0.011176757 -0.08239319 0.15238282 0.016493322 -0.0030803403
00000000: 6e05 06bc 7967 88bc 31d4 8dbc 236a a03b
00000010: c296 e5ba 97be c33b d3cf 973c 8cff 97bd
00000020: cfdd c3bd 42ff d13b a22b e83c 96b1 4bbd
00000030: 3972 f7bb dab2 163b 4005 72bd 1fe5 c33d
00000040: 3080 5b3c 30b9 95bc 14d7 943b 5919 81bc
00000050: eb5d 2b3c 4d8d 12bc 75fa df3c fa5e 9c3c
00000060: ff24 b4bd b50a dbbd b360 1a3d 9853 273c
00000070: 25e2 34bd 9871 aeba 74fa 80bc a309 7fbd
00000080: 760b db3d 8a3a 863c 2937 dcbc 1c67 afbc
00000090: cef7 2dbb c069 a43c 9192 823b b70f 1c3c
000000a0: d7a6 b83c 9a44 9fbd 0aa4 c3bd 20ff aa3c
000000b0: edf7 a63c 6d3a 6abd ca46 433c 0f1b 13bc
000000c0: 5e1f 51bd b1a0 c33d f65b 483c 2acc c4bc
000000d0: fd01 cbbb f5a6 3fbb b61b a83c 2b6b eabb
000000e0: 4334 7b3c 03ec dc3c 493e aabd a47e e3bd
000000f0: 04da 073d 90a6 df3c 7b6a 5dbd bdc8 ba3b
00000100: 324d 96bb afdf 75bd 108d e33d 0873 1a3b
00000110: 7962 80bc cef7 39bc 52ef b2bc bf20 1c3c
00000120: 5e63 fabb 93c5 cc3c 5341 5c3c ecf3 9dbd
00000130: 5b0a bdbd 0245 883c bd9b 633c d2f5 dfbc
00000140: 5e09 bc3b 1624 9cbc 8890 4fbd 2c0b bd3d
00000150: b4e8 933c 2a27 95bc 20db 3dbc fa81 adbc
00000160: c6b1 2f3c 80a8 48bc 3c32 693c 10d6 4b3c
00000170: 87bb babd 3352 d9bd 2f81 cd3c 64c4 043b
00000180: 964d 2dbd 57cb c13b f78b 86bc 373e 5ebd
00000190: 4f4e d93d 07e3 563c a046 00bc 7216 09bc
000001a0: e229 2ebc 8573 4a3c 31ac 5bbc 008e 853c
000001b0: 0f1f 8b3b f956 96bd a3ef bebd 4a8c 893c
000001c0: 1d2e c83c 0819 1abd 7bde ddbb 96f7 a9bc
000001d0: c061 5fbd 53ee be3d e308 133d 9622 afbc
000001e0: fb8a 84bc 7e39 afbc 6028 0f3d 3a30 13bc
000001f0: 0391 c83c b4b4 033d 5ce6 debd 737f 06be
00000200: d7cd 133d 750b 97ba 0290 1bbc 4103 403c
00000210: a38b c1bc 7b2e 85bd 9b7f 063e d3f4 513c
00000220: 6929 4cbb 45cf 20bc 47ae 28bc 0639 f23b
00000230: e66b dfbb 84d5 c93b ee82 5f3b f385 d9bc
00000240: abdb 0fbd ed23 803c 7cdb df3b 5070 b0bc
00000250: bc4d 743b e85b 98bb b0a0 64bc cfd0 0f3d
00000260: 39e5 633b 3346 64bb 1754 36bd e5e0 0fbd
00000270: 535c 693c 1e41 2cbb 5244 d63c 3fd7 0b3d
00000280: 1747 e5bd 64aa 10be 7fb9 5c3d 9d77 0e3d
00000290: 0a90 90bd c1d5 e03b 04c5 3cbd 3a00 aebd
000002a0: 02a8 103e 3214 503d 72c9 93bc bfc6 1cbd
000002b0: cb9b 12bc 6bfe 633c 8ebe b43c 87fd 983c
000002c0: 8e0d d23c 5472 7cbd 0476 cdbd 4e04 3a3d
000002d0: bfb9 1c3c 1bf9 2ebd 48c5 163b c8cb d7bb
000002e0: 1096 9bbd e876 cd3d 7b90 043d c97c 12bc
000002f0: 2093 6bbd 21ca 36bd b7bc b93b be05 5c3b
00000300: 8fcc f73c 3eff 973c 1b82 bcbd c1a8 0bbe
00000310: 377b ad3d 1abf bf3c 6cd2 ecbd 72db e13c
00000320: bd55 2bbd 5b06 abbd c1a7 0b3e 5468 5c3d
00000330: 3ab8 4fbc 679f cfbc c78d 46bc 3e94 063d
00000340: a865 a83b fc6d a63c e2fc 083d ae42 aebd
00000350: 1a45 e7bd 7863 e93c 3a2f 203d 09f0 16bd
00000360: e9a4 6dbb 5936 9fba 5076 4bbd 2843 e73d
00000370: 0786 033c f151 76bc e0d9 5abc 30d6 71bc
00000380: 2cdd 763c e651 cdbb d6c8 9b3c 63b6 e13c
00000390: e576 b2bd af24 e7bd 9d85 e93c 5f12 ee3c
000003a0: 61fb 1fbd 9b3f 6bb9 9b45 a8bb 6d6c 82bd
000003b0: 8c18 e73d ba30 533c 071b 6ebd 2b61 f4bc
000003c0: f196 0b3c 0f00 613d 1de8 a83c d1a9 d33c
000003d0: 26b6 433d 36f1 dbbd 880b 1cbe f1ca e43c
000003e0: 765f 083d 3370 6fbd 656d a83c b71e 37bc
000003f0: c3bd a8bd 3e0a 1c3e 011d 873c 89df 49bb

rnn.bias_ih_l0 f4 [68]
0.19767094 0.21478966 0.20424993 0.2054335 0.216181 0.19596799 0.21833229 0.21712923
0.121289626 0.19807024 0.20754668 0.15772498 0.2219119 0.20143396 0.22908083 0.121271096
0.22785275 0.15392625 0.1580367 0.15259543 0.13474534 0.16213045 0.15160316 0.1638176
-0.06053478 0.07524424 0.11595458 0.12948623 0.11456456 0.15697484 0.12227823 -0.02762475
0.075243466 0.1520523 -0.033543173 -0.05020001 -0.03726251 0.067582406 0.028074972 0.0035458468
0.02968154 -0.087199055 -0.14222257 0.075630434 0.015910812 -0.089161806 0.02172411 0.019582579
-0.056969285 0.14224051 0.02124825 0.271191 0.2807324 0.25974587 0.2649626 0.27633426
0.26773563 0.28246886 0.2489845 0.18123898 0.28082952 0.24824229 0.2833866 0.27907407
0.2480918 0.25674304 0.1812169 0.3004553
00000000: 406a 4a3e d2f1 5b3e e526 513e 295d 523e
00000010: 8d5e 5d3e d5ab 483e 8092 5f3e 2057 5e3e
00000020: b266 f83d edd2 4a3e 1e87 543e a882 213e
00000030: e03c 633e b444 4e3e 2a94 6a3e fb5c f83d
00000040: 3b52 693e d89e 1d3e 5fd4 213e fa41 1c3e
00000050: affa 093e 8605 263e dc3d 1b3e cdbf 273e
00000060: 51f3 77bd a719 9a3d 9879 ed3d 0a98 043e
00000070: d3a0 ea3d 03be 203e 026d fa3d 4d4d e2bc
00000080: 3f19 9a3d 99b3 1b3e 9164 09bd 879e 4dbd
00000090: 93a0 18bd a568 8a3d 7cfd e53c 7061 683b
000000a0: b326 f33c 6b95 b2bd cba2 11be 21e4 9a3d
000000b0: 6457 823c 779a b6bd c3f6 b13c a56b a03c
000000c0: a058 69bd 7fa7 113e cf10 ae3c 8cd9 8a3e
000000d0: 28bc 8f3e 69fd 843e 2ea9 873e af7b 8d3e
000000e0: a514 893e c29f 903e cbf5 7e3e b696 393e
000000f0: e3c8 8f3e 3a33 7e3e 0c18 913e cce2 8e3e
00000100: c70b 7e3e d373 833e ec90 393e 47d5 993e

rnn.bias_hh_l0 f4 [68]
0.19764781 0.2148397 0.20425032 0.20542504 0.2161462 0.1959762 0.21833654 0.21712635
0.121287964 0.19806989 0.20753793 0.15772697 0.22191195 0.20139807 0.22907718 0.12128731
0.22785217 0.15392065 0.15805209 0.15259759 0.13472755 0.16212258 0.15156317 0.163805
-0.06053918 0.075243354 0.1159544 0.1294873 0.11456461 0.15697496 0.12228619 -0.027624289
0.07524321 0.1520248 -0.033543352 -0.05020005 -0.037262578 0.06758306 0.02805549 0.003546198
0.029680569 -0.08719906 -0.14222316 0.07563053 0.015910823 -0.089162126 0.021722587 0.019582883
-0.056975532 0.14223638 0.02124753 0.27121347 0.28062218 0.25975856 0.26494312 0.27632284
0.26774636 0.2824333 0.24896173 0.18123336 0.28082576 0.24828964 0.28338525 0.2790742
0.24808338 0.2567672 0.18121417 0.30048314
00000000: 3064 4a3e f0fe 5b3e ff26 513e f15a 523e
00000010: 6e55 5d3e fcad 483e 9d93 5f3e 5f56 5e3e
00000020: d365 f83d d5d2 4a3e d384 543e 2e83 213e
00000030: e33c 633e 4c3b 4e3e 3593 6a3e 7b65 f83d
00000040: 1452 693e 609d 1d3e 68d8 213e 8b42 1c3e
00000050: 05f6 093e 7603 263e 6033 1b3e 7fbc 273e
00000060: eef7 77bd 3019 9a3d 8079 ed3d 5298 043e
00000070: daa0 ea3d 0bbe 203e 2f71 fa3d 554c e2bc
00000080: 1d19 9a3d 64ac 1b3e c164 09bd 919e 4dbd
00000090: a5a0 18bd fd68 8a3d a1d4 e53c 5467 683b
000000a0: aa24 f33c 6c95 b2bd f3a2 11be 2ee4 9a3d
000000b0: 6a57 823c a29a b6bd 91f3 b13c 486c a03c
000000c0: 2d5f 69bd 6aa6 113e 4d0f ae3c 7edc 8a3e
000000d0: b6ad 8f3e 13ff 843e a0a6 873e 307a 8d3e
000000e0: 0d16 893e 199b 903e d3ef 7e3e 3d95 393e
000000f0: 65c8 8f3e a43f 7e3e df17 913e d0e2 8e3e
00000100: 9209 7e3e fe76 833e 3590 393e edd8 993e

FC.weight f4 [7, 17]
0.61843044 -0.44265813 0.40448344 0.6103768 0.5758416 -0.5992267 0.8952155 -0.15632765
0.19762057 0.2539467 0.44141716 0.7658593 -0.5459093 0.44557494 0.2311701 -0.19732226
-0.18307622 -0.29169598 0.8634382 0.66435945 0.2362746 0.026885236 0.4427765 -0.5903895
-0.32757205 0.2598236 -0.40107974 0.75064874 -0.9782722 -0.43433776 0.59554636 0.8901465
-0.25979108 0.019546784 0.31246066 -0.47697744 -0.7133889 -0.46607685 0.48316222 0.6523386
-0.4593218 1.1842835 0.18428403 -0.3131923 0.08086596 0.12432151 -0.31131592 0.4065701
-0.76588595 -0.18495876 0.62121326 -0.67506665 -0.57437384 0.22124416 0.62105775 0.3345446
-0.4069006 -0.47465402 -0.20177773 0.22464238 -0.5045165 -0.39302453 0.06176035 0.6802681
-0.6482587 0.17247511 -0.22452533 0.49930826 -0.5918006 0.41880098 0.16342717 -0.56724215
0.5003975 0.49371755 0.25940248 0.26570138 0.18131445 0.9118944 -0.6040417 0.16025482
0.6864956 0.17767622 -0.2716615 -0.18142276 -0.903086 0.48297587 -0.107470416 -0.64222693
-0.5275115 -0.7681586 -0.5610769 0.25631282 -0.08805543 0.10785795 -0.80973643 0.4643833
-0.06456254 0.73156685 -0.29595876 0.3886526 -0.107864216 -0.86486906 0.45089346 0.56615186
0.37697515 -0.43243474 -0.6377662 -0.3627555 -0.10772223 -0.6315913 0.23497754 0.47235462
-0.62380916 0.10486481 -0.6860209 -0.6732183 -0.66021276 -0.23463863 0.66214323
00000000: 7551 1e3f 16a4 e2be 7418 cf3e a741 1c3f
00000010: 5b6a 133f ec66 19bf d82c 653f 5b14 20be
00000020: 0c5d 4a3e 4d05 823e 6e01 e23e 5b0f 443f
00000030: b6c0 0bbf 6622 e43e dbb7 6c3e d90e 4abe
00000040: 5578 3bbe 2d59 95be 490a 5d3f 7613 2a3f
00000050: f8f1 713e 6d3e dc3c 9ab3 e23e c423 17bf
00000060: 86b7 a7be 9907 853e 535a cdbe 842a 403f
00000070: 0c70 7abf 8561 debe ba75 183f a4e0 633f
00000080: 5603 85be 9420 a03c d8fa 9f3e 6336 f4be
00000090: a8a0 36bf a0a1 eebe 0a61 f73e aaff 263f
000000a0: 3a2c ebbe 9a96 973f f4b4 3c3e be5a a0be
000000b0: 0d9d a53d 479c fe3d cd64 9fbe f529 d03e
000000c0: 1a11 44bf d465 3dbe d507 1f3f 2bd1 2cbf
000000d0: 2a0a 13bf d48d 623e a4fd 1e3f 6e49 ab3e
000000e0: 4755 d0be da05 f3be d29e 4ebe a708 663e
000000f0: fe27 01bf 833a c9be 6cf8 7c3d 0d26 2e3f
00000100: 48f4 25bf 519d 303e f8e9 65be 55a5 ff3e
00000110: 3e80 17bf 156d d63e 7459 273e c836 11bf
00000120: 0d1a 003f 8cc8 fc3e 67d0 843e 030a 883e
00000130: 7faa 393e e971 693f 7aa2 1abf d719 243e
00000140: 2dbe 2f3f c1f0 353e 3717 8bbe e3c6 39be
00000150: a530 67bf 9d48 f73e 7319 dcbd fc68 24bf
00000160: fe0a 07bf 0ba6 44bf bca2 0fbf 6f3b 833e
00000170: 6856 b4bd a1e4 dc3d e34a 4fbf a6c3 ed3e
00000180: 5d39 84bd f747 3b3f e887 97be 79fd c63e
00000190: eae7 dcbd 0f68 5dbf 82db e63e 54ef 103f
000001a0: e302 c13e 1668 ddbe a544 23bf 17bb b9be
000001b0: 799d dcbd f8af 21bf f49d 703e 77d8 f13e
000001c0: f5b1 1fbf 5dc3 d63d 119f 2fbf 0958 2cbf
000001d0: b403 29bf 1c45 70be 3882 293f

FC.bias f4 [7]
-0.31505448 -0.22878116 -0.3005039 -0.3682043 -0.3098131 -0.39564556 -0.3056031
00000000: d24e a1be 9c45 6abe a6db 99be 4685 bcbe
00000010: d39f 9ebe 0e92 cabe 0278 9cbe
