data/parameters/parameters-7.pt (torch_old, 30840 bytes, 6 tensors)

rnn.weight_ih_l0 f4 [68, 89]
000000 a1 c4 d9 3c 92 9c 3e bb 06 be cc bd 5c 59 3c 3d
       0.026583018 -0.0029085022 -0.099971816 0.045983657
000010 82 b7 03 3d 20 41 ce 3d 47 f7 3e 3d 69 8b 4c bd
       0.03215743 0.10071015 0.04662254 -0.04993764
000020 2f ca 25 3e 99 c7 74 bc 0e d7 ef 3d a5 1c 5d bd
       0.16190408 -0.014940166 0.1171094 -0.053982396
000030 89 01 59 3d 42 25 7e bd f8 44 01 be 79 33 ae 3d
       0.05297998 -0.06204725 -0.12623966 0.085059114
000040 89 27 c1 3d e2 d4 c1 3d c2 cd 65 bd 35 4f 04 3d
       0.09431369 0.09464432 -0.05610443 0.0323021
000050 f7 14 34 3e 1b 05 00 00 79 0d 89 bd 31 33 3b 3e
       0.17586122 1.831e-42 -0.06692023 0.18281247
000060 5e e6 e9 3d 3d 94 c1 bc b9 e5 95 be 73 b3 7a 3e
       0.11420892 -0.023630256 -0.29276827 0.24482517
000070 86 34 f8 3d 45 7a 56 3e 6d ae dc 3c c3 8f c0 bd
       0.12119393 0.2094508 0.026938641 -0.0940242
000080 c2 f7 d2 bc a0 0b 83 bc 6c 5c a0 3c b7 e1 b5 3d
       -0.025752906 -0.015996754 0.01957532 0.08880942
000090 ee 5b f6 bc c9 2f f0 3a 4f ec 38 be 48 f3 6a 3c
       -0.030073132 0.0018324788 -0.18058895 0.014340229
0000a0 02 8e 01 3d e0 ee 94 bc 4f 31 3f bb c3 32 4c 3c
       0.03162957 -0.01818031 -0.0029173677 0.012463274
0000b0 2f a4 8b 3c 90 0c f1 3b 9e 4b 73 3c 6f 66 84 3c
       0.017046062 0.007356234 0.0148495715 0.016162125
0000c0 ff 4c 2d 3c a5 a1 1b 3c a2 38 2b 3c 73 5c 01 3c
       0.010577439 0.009498988 0.010450514 0.007895577
0000d0 e9 54 0f 3c 4d 46 ba 37 06 37 b1 39 20 53 16 ba
       0.0087482715 2.2205664e-05 0.00033801066 -0.00057344325
0000e0 27 de 03 b9 b0 8a aa 39 da b9 f2 b7 d7 5a a7 ba
       -0.00012575892 0.00032528257 -2.8935192e-05 -0.0012768161
0000f0 f9 98 10 bc e6 bb c8 3c ba 66 bb 3b eb a2 96 3d
       -0.008825534 0.02450366 0.005719033 0.07355293
000100 47 5e 05 3c 11 3e 36 3d bf 75 9c 3c 8f 98 58 3c
       0.008140153 0.044492785 0.019099114 0.013219967
000110 02 4a 14 3d 51 08 62 3c 09 f3 2f 3d 00 b9 67 3c
       0.03620339 0.013795928 0.042956386 0.0141432285
000120 b7 1a 25 3d 4f 26 e5 bb 17 f8 97 3c 5b 47 40 3b
       0.04030868 -0.006993092 0.018550916 0.0029339406
000130 1e 2e 16 bb 57 04 8a 3c bb 01 d9 39 b4 29 b7 bb
       -0.0022915672 0.016847773 0.00041390755 -0.005589688
000140 a3 e3 86 ba a6 e7 54 b9 ab ea f9 3c ff d3 6a 3c
       -0.001029123 -0.00020304191 0.030507406 0.01433277
000150 a8 11 83 3d e9 36 23 3c 70 0d 8f 3d 5a 96 40 3d
       0.06399852 0.009961822 0.06984985 0.047018386
000160 e9 08 54 39 c7 34 1a 3c 56 3f 70 bd 0e 61 c3 3d
       0.00020221215 0.009411997 -0.05865415 0.09539996
000170 9e ea 2b bd 95 fe c0 3c 85 f9 8e 3c 2f 8a 72 3e
       -0.041971795 0.023558894 0.017452965 0.23685525
000180 24 48 42 3d 7b 45 ae 3c 17 6a f6 3d 63 3b 82 bc
       0.04743208 0.021273365 0.12031954 -0.015897458
000190 b1 0d d0 3c 63 d8 5e 3d df d6 e5 3c cd e8 6d 3c
       0.025397154 0.05440558 0.02805656 0.014520836
0001a0 07 06 4a bc b7 43 9f 3d b5 7e 0b 3d dc a6 15 3d
       -0.012330539 0.077765875 0.034056384 0.036536083
0001b0 16 60 1c 39 3c d9 9e 3d eb 40 00 00 e2 7f 22 3d
       0.00014913114 0.07756278 2.3288e-41 0.03967274
0001c0 08 b8 ac 3d 64 a0 b2 3d 16 35 a2 3d 21 77 a7 3d
       0.08433539 0.08721998 0.079202816 0.08177019
0001d0 3f fb 20 3e ed 1d da 3d 6d bf 5f 3d fb 9f 2a 3e
       0.15720843 0.10650239 0.054625917 0.1666259
0001e0 ed 81 19 3c 70 c9 43 3d a8 88 6f 3d ef d5 98 ba
       0.009369356 0.047799528 0.058479935 -0.0011660437
0001f0 4d 93 7f 3d 88 11 37 3d 82 9d d3 bb 22 b2 af 3d
       0.062396336 0.044694453 -0.0064579854 0.08578898
000200 a2 0e 3e 3b 31 15 56 3c 7f d6 6a 3b 7c a1 44 bb
       0.002900042 0.013066576 0.0035833416 -0.0030003479
000210 dd a7 70 3c 40 18 92 3c 21 53 17 bc 8b 17 0f ba
       0.014688459 0.017833829 -0.009236128 -0.0005458525
000220 e1 1e 02 3b a7 de 64 bb 74 8e 05 bb ef da 89 ba
       0.001985483 -0.003492275 -0.0020379098 -0.0010517518
000230 52 a0 e5 ba d5 44 87 3b 6c f2 63 ba f6 c2 93 39
       -0.0017519093 0.0041280785 -0.00086954865 0.00028183282
000240 d9 90 4d 3a 25 9a 6f ba e3 c9 2c ba c8 df 24 3a
       0.00078417134 -0.0009140096 -0.0006591363 0.00062894495
000250 d9 57 ee b7 a1 54 29 3b 28 24 77 3d 9e 93 24 3d
       -2.8412718e-05 0.0025837796 0.060337216 0.04017984
000260 59 fd 1e 3d 41 dd 9e 3c e9 da 44 3d 0d 15 8b 3d
       0.03881583 0.019392611 0.04806033 0.067911245
000270 00 b8 35 3d 4d 6a 54 3c b0 42 51 3c d0 3f 9a 3c
       0.04436493 0.012964797 0.012772247 0.018829256
000280 e6 05 0e bb 16 d6 aa 3c c0 6d 76 3c be f6 52 3d
       -0.0021670996 0.020854037 0.015040815 0.051504843
000290 f1 60 b4 b9 d1 78 76 39 96 e8 69 3b 88 f2 33 bb
       -0.00034404502 0.00023505396 0.003569161 -0.0027457792
0002a0 9e af 49 bb 1f 1b 9f 3b ac 15 d3 3c 6a 61 74 3d
       -0.0030774842 0.004855528 0.02576717 0.059663214
0002b0 5c 78 54 3d bb af 36 3d f3 9d bf 3c 28 fd 31 3d
       0.051872596 0.044601183 0.023390746 0.04345432
0002c0 63 28 82 3d e3 ba 25 3d 72 bd 49 bd 88 46 8b 3d
       0.063553594 0.040461432 -0.049252935 0.06800562
0002d0 da b8 71 bd 66 a0 51 3d cb ed 0a be 90 b0 5a 3e
       -0.05901418 0.05117836 -0.13567273 0.21356416
0002e0 0c 1e 93 3d 48 60 36 bd 93 35 c6 3d be db ce 3c
       0.07183465 -0.044525415 0.09678187 0.025251266
0002f0 51 a6 50 bd a3 c1 71 bc eb 7f d6 3d d5 b7 5a 3d
       -0.05093986 -0.014755639 0.10473617 0.053397972
000300 76 a9 df 3c ea 88 b6 bb 53 69 14 3e 6f 3c 53 bd
       0.027302485 -0.0055705206 0.14493303 -0.051571306
000310 f9 df b3 3b 17 26 b4 3c f1 3a cb 3d 2a 09 00 00
       0.005489346 0.021990819 0.099233516 3.287e-42
000320 11 06 60 3e ac a8 c5 bd 16 71 bd 3d 75 62 c8 3d
       0.21877314 -0.09651312 0.09250085 0.09784404
000330 ea ba 9e 3d a0 39 14 3e 8b 11 d1 3d e4 c8 fa 3d
       0.07750495 0.14475107 0.10208424 0.12245348
000340 9b 0d e8 3d 48 61 8f 3d 0b 39 38 bd b6 64 d8 3c
       0.1133072 0.07000977 -0.044976275 0.02641521
000350 eb d6 08 bc fa 58 42 3d 70 e3 b3 3b 87 59 46 bc
       -0.008352022 0.047448136 0.005489759 -0.012106306
000360 ce 14 5a 3d 76 d2 34 3b 8a 69 fd 3b 11 e8 b8 3c
       0.053242497 0.0027591265 0.0077335285 0.022571595
000370 e2 6a b5 3c 1c f3 38 bc 23 ee a6 bc be 5a 55 3d
       0.022145692 -0.011288431 -0.020377224 0.05208849
000380 ed a0 1c bc 14 0b 1d bc 5e 7c e6 b9 46 f5 9b 3b
       -0.009559852 -0.009585161 -0.0004396168 0.0047594635
000390 30 de 52 3b 1e 5b a4 3b ee ba af bb 9f 58 34 b9
       0.003217589 0.005015745 -0.00536286 -0.00017199152
0003a0 67 dd 24 39 5d 0b ed ba 10 4a 1e 3a f6 f2 b7 38
       0.00015722738 -0.0018085052 0.0006038258 8.771375e-05
0003b0 fa f3 31 b9 72 ab 8f 39 df 69 dc bb 79 70 11 3d
       -0.00016970924 0.00027402822 -0.006726488 0.035507653
0003c0 7a de 0a 3d ad d3 84 3d d5 67 b5 bb 50 14 84 3d
       0.033903576 0.064856865 -0.0055360594 0.06449187
0003d0 48 2f 5a bb c3 fb 03 3d 41 2a 12 3c 0b 25 b0 3c
       -0.0033292342 0.03222252 0.008921207 0.021502038
0003e0 09 4d 99 3c 0d ea 87 3b 04 4b bb 3c 26 58 91 3b
       0.018713491 0.004147774 0.022862919 0.004435557
0003f0 25 e1 84 3a 18 45 96 bb da 9d 3b 3b 25 eb 78 39
       0.0010137899 -0.0045858733 0.0028628022 0.00023738721

rnn.weight_hh_l0 f4 [68, 17]
000000 6b 47 96 3d d2 72 db bc d6 21 69 bd 25 5f 23 3d
       0.07337841 -0.026788149 -0.056917034 0.03988566
000010 eb 96 ed 3c 4d 3e cd bd fa 20 15 3d 1c 64 4b bc
       0.029002627 -0.100216486 0.036408402 -0.012414005
000020 77 ac 2d 3d e0 1c b1 bd 0c 28 3c bc 91 4d 4b 3e
       0.042400803 -0.086480856 -0.011484157 0.19853808
000030 ce f4 3c 3d 7c 03 20 3d 0b 35 c4 3c 68 0f 2c be
       0.0461319 0.039065823 0.023951074 -0.16802752
000040 31 f5 81 bb 69 9b 6b bc 5a a4 34 3d a4 56 1f bd
       -0.0039659967 -0.014380314 0.04410205 -0.038900986
000050 f5 de bb 3d f2 41 a6 3d 0d 73 ac bd 42 15 4f 3d
       0.09173385 0.08118047 -0.08420382 0.050557382
000060 9b 17 1f bd 51 13 60 3d f5 63 fa bd a6 b1 47 bd
       -0.03884087 0.05470592 -0.122260965 -0.048753403
000070 1d 2b 58 3e f6 d6 b5 bc 8a 34 b0 3d c3 82 40 3d
       0.21110196 -0.022197228 0.08603771 0.046999704
000080 e8 4d 61 be 1a 30 6e bc 68 75 14 3d 14 c5 1c bd
       -0.22002375 -0.0145378355 0.03624478 -0.038273886
000090 7e 5f cf bd b5 62 80 3d b3 96 81 3d e3 9e f8 bd
       -0.101256356 0.06268827 0.06327572 -0.1213968
0000a0 92 96 cf 3b 88 93 43 bd 5d 90 78 3c 19 d9 c6 bd
       0.006335088 -0.04774812 0.015171138 -0.09709377
0000b0 9c c2 27 bc 35 43 26 3e cb 29 c6 3c 37 fe 23 3d
       -0.01023927 0.16236575 0.02418985 0.04003736
0000c0 5d 37 11 3c 47 37 3d be ce a4 db 3c 67 94 d2 3b
       0.008863297 -0.18478118 0.026811983 0.0064263823
0000d0 54 53 4b 3c 8c e8 41 bd 0d 4d 8c 3d 34 e1 aa 3d
       0.012410004 -0.047340915 0.06850634 0.08343735
0000e0 63 53 97 bd a8 1c 2c ba 5a 8a c7 bc 54 c1 a3 3c
       -0.07388952 -0.00065655494 -0.024357963 0.019989647
0000f0 10 29 f1 bd 35 12 56 bd bb a3 34 3e ea 0d 93 bc
       -0.1177541 -0.052263457 0.17640583 -0.01795097
000100 4d 60 70 3d f6 4d 1b 3c 42 ad 0a be 90 c4 e9 bc
       0.05868559 0.009479037 -0.13542655 -0.028536111
000110 9d a1 81 3c 04 a0 da 3b d5 de 58 bd bb 90 54 3d
       0.015824134 0.0066719074 -0.052946884 0.05189584
000120 b3 30 56 3d 45 87 98 bd 76 b3 0e 3c d5 5d 4f 3a
       0.052292537 -0.074476756 0.008709779 0.00079104054
000130 d0 63 d2 3c b9 8c af bd d4 86 ee bc ca f1 1a 3e
       0.02568236 -0.085717626 -0.029117025 0.15131298
000140 23 a4 06 bd 79 e5 0d 3d d5 b8 ae 3c 8d a6 15 be
       -0.032871377 0.03464267 0.02132837 -0.14614315
000150 1d 20 31 bd e2 50 60 bc 56 c1 53 3d 14 4d ac bd
       -0.043243516 -0.013691159 0.05169805 -0.08413139
000160 13 af e9 3c dc b6 3a 3d 1b 41 89 bd 89 8c 9f 3c
       0.028525865 0.045584545 -0.06701871 0.019476192
000170 9b f4 02 bd 63 0b 4a 3c 6f 1c c6 bd d5 0c 16 bd
       -0.031971555 0.012331816 -0.09673392 -0.03663333
000180 e7 d6 2b 3e 4e 39 96 3b d2 89 4d 3d 9c 5f 6c 3c
       0.16781197 0.004584468 0.050180264 0.014427092
000190 50 56 1e be d6 2a 6f bc 09 d2 b0 3b 79 13 dc 3c
       -0.15462613 -0.014597615 0.005396132 0.026864754
0001a0 8c 33 f5 bd 19 a9 8e 3d 79 60 c8 3d 52 b0 e9 bd
       -0.119727224 0.069658466 0.09784026 -0.114105836
0001b0 73 6b a5 3c 6f 29 3d bd fb 24 61 3c 64 3b 7d bd
       0.020192837 -0.046182092 0.013741727 -0.061824217
0001c0 69 5c bc bc e2 c7 61 3e 21 7c 29 3c b2 70 23 3d
       -0.022993283 0.22048905 0.010344536 0.039902397
0001d0 ad 0f 19 3d f9 3b 8b be 24 ed 81 bd 60 37 85 3d
       0.037368465 -0.27194193 -0.06344059 0.065047026
0001e0 22 68 d4 bc ae 6b 77 bd 9d b6 95 3d 4c 1e cf 3d
       -0.02592856 -0.060405426 0.07310221 0.101132005
0001f0 0d 8b 89 bd 03 ab a4 3c a7 a3 79 bd de 4b 69 3d
       -0.06715975 0.020101076 -0.060947087 0.05695712
000200 18 1f 65 bd cb c0 e8 bc 7f d4 37 3e aa c9 11 bc
       -0.055937856 -0.028412243 0.17952155 -0.008898178
000210 00 ce e9 3c 22 36 20 3d 59 e5 2f be 0b 0d 9c bc
       0.028540611 0.039114125 -0.17177333 -0.019049188
000220 20 7f e6 bc 02 a1 a8 3b 5b d4 df bd 52 11 ea 3c
       -0.02813679 0.0051461468 -0.109291755 0.028572712
000230 b9 5a 6e 3d af ae 41 bd 4d 8e 43 bd 4e f0 26 3d
       0.05819199 -0.047285732 -0.04774313 0.040756516
000240 8e 93 2d 3b 61 ba ce bd 98 8c 7a bd 56 89 58 3e
       0.0026485655 -0.10094143 -0.061169237 0.2114614
000250 7f 70 b9 bd 5d 7e fe bb a9 f6 38 3c 57 11 af bd
       -0.0905466 -0.0077665285 0.011289277 -0.08548229
000260 6c ac c8 3c 93 8b 22 3c 38 e9 2c bc 59 aa e4 bd
       0.02449628 0.009920972 -0.010553651 -0.11165304
000270 ab b4 4c 3d 32 ce 6e 3d ac e3 7e bd 0e 9b 1f 3c
       0.049976986 0.058302112 -0.062228844 0.009741558
000280 e5 d3 33 bc 27 73 21 3c 8e fd b9 bd 8d c8 f0 3b
       -0.010975813 0.009854115 -0.09081565 0.0073481263
000290 2b f2 26 3e 37 32 81 bc 0e 15 75 3d 5f 19 19 3c
       0.16303317 -0.015771015 0.059834532 0.009344428
0002a0 16 b1 3f be 4f 1a 77 bc 96 0e 5c 3d 9d 4a eb bc
       -0.18719897 -0.015081956 0.053724848 -0.028722102
0002b0 87 a2 a2 bd 94 02 b2 3d 0a 89 94 3d 6f 43 df bd
       -0.07941156 0.08691898 0.072527006 -0.10901534
0002c0 f6 aa 10 3d 68 e7 4d bd ad 10 04 3d 48 5a da bd
       0.03531929 -0.050269514 0.032242466 -0.10661751
0002d0 25 1d aa bb 62 36 48 3e 32 d7 72 3c 18 b9 a7 3c
       -0.0051914626 0.19551995 0.014821814 0.020474002
0002e0 53 04 c5 3c 32 a7 52 be b9 4f ab bc e0 79 cb 3c
       0.024049914 -0.20571592 -0.020912038 0.024838388
0002f0 09 52 1c bb c1 d8 11 bd d7 e2 46 3d 0e 86 28 3d
       -0.0023852608 -0.035607103 0.048556175 0.04114347
000300 19 13 56 bd 82 c5 cd 3c d6 49 87 bb 4b 1e d9 3c
       -0.052264307 0.025118593 -0.004128675 0.026503703
000310 e0 24 74 bd d8 e4 a7 3b e6 ac ee 3d b8 ea b4 bb
       -0.05960548 0.005123716 0.116540715 -0.0055211447
000320 04 96 55 3c 8e bf 2d 3c 5f 8a 8e bd 56 b7 19 bc
       0.013036255 0.010604752 -0.06959986 -0.00938209
000330 58 9c 93 3d 44 b4 f9 bc de f0 98 bd 4e 89 e7 3d
       0.072075546 -0.030481465 -0.07467817 0.11305486
000340 23 9c bd 3d 9b 57 ab bd 5f e9 f4 bb 84 f6 89 bc
       0.09258296 -0.08366319 -0.007474109 -0.01684118
000350 05 71 7f 3d 94 1c 1b be a6 5b 1f bd 9b ab 52 3e
       0.062363643 -0.1514762 -0.038905762 0.20573275
000360 dc 29 3f bd fa 76 38 3d a6 c6 61 3c a1 cc 57 be
       -0.04667078 0.04503534 0.013780272 -0.21074153
000370 97 a8 22 ba 22 9b 30 3d 50 5e f5 bc c8 b9 46 bd
       -0.00062049314 0.043116696 -0.029952198 -0.04851702
000380 b4 9c 99 3d 0b be 7e 3d b7 dc 6a bd 6a df c2 3c
       0.07500592 0.062192958 -0.057339396 0.023788173
000390 f7 a6 77 bd 72 e4 13 3d 12 0d 46 be 51 1a 1c bd
       -0.060461964 0.036106534 -0.19340923 -0.038111035
0003a0 25 90 de 3d e0 b9 17 3b 50 d4 98 3d ef 63 61 3d
       0.10867337 0.0023151562 0.074623704 0.055026945
0003b0 d5 db 4b be 40 09 09 bd ec d2 94 bc fa 7c 22 3c
       -0.19908078 -0.033456087 -0.018166982 0.009917492
0003c0 b4 71 94 bd 71 bb 65 3d 25 14 85 3d 99 4a 98 bd
       -0.0724825 0.05608696 0.06497983 -0.074361034
0003d0 d0 fd a4 3c 5f 29 de bc f2 4f 9f bb 3b 23 07 be
       0.020140558 -0.027119337 -0.004861825 -0.13197033
0003e0 84 5d 39 3a 50 37 22 3e 52 39 80 3b ff 7c 97 3d
       0.0007071125 0.15841413 0.003913083 0.07396888
0003f0 f4 a9 a6 3d 83 57 51 be 78 3f b6 bc 25 90 cf 3c
       0.08137885 -0.2044354 -0.022247061 0.025337288

rnn.bias_ih_l0 f4 [68]
000000 00 60 21 3e bc a3 8f 3e cd 98 38 3e 7d f9 7e 3e
       0.15759277 0.28054607 0.18027039 0.2489986
000010 d3 f6 66 3e f0 78 77 3e a0 51 84 3e a7 62 65 3e
       0.22555093 0.24167228 0.25843525 0.22400914
000020 62 68 67 3e f9 52 75 3e 4d 3d 7f 3e 4c b3 3b 3e
       0.22598413 0.23957433 0.24925728 0.18330115
000030 ba 9c 8e 3e 41 a7 05 3e e0 44 57 3e 19 89 24 3e
       0.27853948 0.13052084 0.21022367 0.16067924
000040 19 31 77 3e 2f 5f 95 3d e8 31 cc 3d 84 16 5e 3d
       0.24139823 0.072935455 0.09970456 0.05422069
000050 b9 29 19 3e f4 95 64 3e c0 77 46 3e ac 2b ae 3d
       0.14957322 0.22322828 0.19381618 0.085044235
000060 40 fa 5c 3e ab 61 41 3e 4d 65 46 3e 9e d0 42 3e
       0.21579838 0.18884914 0.1937458 0.19024894
000070 e1 84 27 3e 0f 9b 29 3e 00 69 34 3e 00 95 30 3e
       0.16359283 0.16563056 0.1761818 0.17244339
000080 df e4 38 3e a7 dd 16 3e 15 73 ee 3d f0 7a ff 3c
       0.18056057 0.14732991 0.11643044 0.03118655
000090 86 85 cf bc 61 d4 82 bc fb cd 12 3e fd f7 a7 3d
       -0.025332224 -0.01597041 0.14336388 0.08201597
0000a0 0c 1d a0 3b c3 1f de 3c fe bc 9e 3d 28 84 c1 bd
       0.004886275 0.027114755 0.07750891 -0.09449035
0000b0 77 bf d2 3b 77 74 0f 3e 9f 1b 0b be 3d 69 e5 3c
       0.006431516 0.14009272 -0.13584755 0.028004283
0000c0 cb 25 a2 3d 93 c4 e8 bd ea d9 b3 bd 2c c6 9b 3e
       0.07917365 -0.113656186 -0.08781798 0.3042463
0000d0 ef b8 b1 3e 90 be 84 3e 5c df ac 3e ff c9 b1 3e
       0.34711406 0.25926638 0.3376416 0.34724423
0000e0 82 18 b1 3e 84 d6 b5 3e 82 ad a3 3e df f2 b7 3e
       0.3458901 0.35515225 0.31968313 0.35927483
0000f0 7b fc ae 3e fb 53 b4 3e 00 8e 80 3e 84 db ba 3e
       0.34177002 0.35220322 0.25108337 0.36495602
000100 20 76 72 3e 75 cd ab 3e f9 45 93 3e 49 9d ac 3e
       0.23677874 0.3355519 0.28764322 0.3371375

rnn.bias_hh_l0 f4 [68]
000000 3a 61 21 3e c6 a4 8f 3e 4b 95 38 3e 74 f9 7e 3e
       0.15759745 0.280554 0.18025701 0.24899846
000010 54 f6 66 3e f7 78 77 3e 83 4e 84 3e 73 62 65 3e
       0.22554904 0.24167238 0.2584115 0.22400837
000020 4a 68 67 3e f1 52 75 3e 86 3d 7f 3e 23 af 3b 3e
       0.22598377 0.23957421 0.24925813 0.18328528
000030 b6 9c 8e 3e 5b a7 05 3e b1 44 57 3e 1c 89 24 3e
       0.27853936 0.13052122 0.21022297 0.16067928
000040 d1 30 77 3e 3a 4d 95 3d 19 2f cc 3d a2 16 5e 3d
       0.24139716 0.072901204 0.09969921 0.054220803
000050 a0 3d 19 3e 4f 96 64 3e c4 77 46 3e be 2b ae 3d
       0.14964914 0.22322963 0.19381624 0.08504437
000060 1f fa 5c 3e 01 63 41 3e 84 87 46 3e 9d d0 42 3e
       0.21579789 0.18885423 0.19387633 0.19024892
000070 ea 84 27 3e 9e 9b 29 3e 86 68 34 3e 64 94 30 3e
       0.16359296 0.1656327 0.17617998 0.17244107
000080 d9 e4 38 3e b0 dd 16 3e de 4b c5 3c ed 34 89 3d
       0.18056048 0.14733005 0.024084028 0.06699548
000090 ef db 0f bb 8b e0 67 3d 5e e6 10 3e 3a 5d f6 3c
       -0.002195116 0.056610625 0.14150378 0.03007375
0000a0 93 9d fb 3c 1b 56 92 bd 21 40 8b 3d 8e 54 be bd
       0.030714786 -0.071453296 0.06799341 -0.09293471
0000b0 09 fa 73 bd 47 b8 0a 3e 14 ec aa bd 5c c5 dd 3d
       -0.059564624 0.13546859 -0.083458096 0.10828659
0000c0 35 70 9d 3d 01 32 02 be 6f c7 9d bd 36 c5 9b 3e
       0.076874174 -0.12714387 -0.077040546 0.30423898
0000d0 a3 b8 b1 3e 99 be 84 3e d3 df ac 3e cd c9 b1 3e
       0.3471118 0.25926664 0.33764514 0.34724274
0000e0 7d 18 b1 3e 5c d5 b5 3e 85 ad a3 3e 0b f3 b7 3e
       0.34588996 0.35514343 0.31968322 0.35927615
0000f0 7f fc ae 3e 49 54 b4 3e db 8f 80 3e 8b db ba 3e
       0.34177014 0.35220554 0.25109753 0.36495623
000100 3c 75 72 3e c0 cc ab 3e af 45 93 3e 1b 9c ac 3e
       0.23677534 0.3355465 0.28764102 0.3371285

FC.weight f4 [7, 17]
000000 2b 6f 02 3d 60 76 15 bf 18 71 16 3c b6 cd 20 bc
       0.0318443 -0.5838375 0.009182237 -0.00981467
000010 f5 03 21 bf dc 7e 8a bf 1b 3d 15 be c0 5f 87 3e
       -0.6289666 -1.0819964 -0.14574091 0.2644024
000020 6c 30 db be da ad 90 3e 0d 64 c8 3f d8 0d 9b bd
       -0.4281038 0.28257638 1.5655533 -0.07571
000030 a7 33 d3 3e e2 40 fd be 51 14 04 3f f5 a9 2d 3e
       0.41250345 -0.49463564 0.515935 0.16959365
000040 50 90 0d 3f 50 76 77 be e1 40 e3 be 08 fd 92 be
       0.5529833 -0.24166226 -0.44385436 -0.28708673
000050 87 d8 66 3e ea 6d 53 bf 4c 93 30 3c ef be cd bd
       0.22543536 -0.8258959 0.010777306 -0.10046183
000060 64 0b d8 3e 82 f5 bd 3d 72 0d 93 bf 1e e2 7e be
       0.4219619 0.092753425 -1.1488478 -0.24890944
000070 c9 9d 4a be bb 25 de bf f4 93 62 3e 21 d5 67 bf
       -0.19786753 -1.7355264 0.22126752 -0.90559584
000080 36 a5 85 3e c7 15 60 3e f8 91 86 3f 8a 2f c0 bd
       0.26102608 0.21883307 1.0513296 -0.09384067
000090 b7 54 fe be aa bc 1a 3e 45 4a 47 3e 7c fe 13 3f
       -0.49674007 0.15111032 0.19461925 0.5781019
0000a0 90 0d 22 3f cb ed e3 3e 2b b7 14 bf b2 34 9a 3d
       0.63301945 0.4451736 -0.5809199 0.07529582
0000b0 69 14 03 3e 29 9f f1 bd 60 c9 be 3e 39 c1 0c bf
       0.12800755 -0.117979355 0.37263012 -0.54982334
0000c0 00 ac 63 be 5f cb 5e 3e 2a 19 df bf 87 75 76 be
       -0.22233582 0.21757267 -1.7429554 -0.2406827
0000d0 7a fd d8 bc 51 fe f8 bd 65 d6 29 3f 6d e2 b4 bc
       -0.026488055 -0.12157882 0.66342765 -0.022080624
0000e0 5f 33 0e 3f 7a 65 4a 3f 84 46 2d 3e b6 ec af 3f
       0.55547136 0.7906109 0.16921431 1.3744113
0000f0 1c aa 25 bc 03 2c db be b2 5e ac be bb f6 5e 3e
       -0.010111358 -0.42807016 -0.33665997 0.21773808
000100 4f 9b 5b be d9 48 95 3f 2c 5f 84 3e 8c c7 f4 3e
       -0.21445964 1.1662856 0.2585386 0.47808492
000110 07 8b 1d be ed 2c ad be 52 fc 9c 3f f5 57 9c bf
       -0.15385066 -0.33823338 1.2264502 -1.2214342
000120 9c 58 49 3f 76 9c a7 3e d9 d4 1c 3f 95 6b 03 3f
       0.7865083 0.32736558 0.6126228 0.5133603
000130 18 44 63 be c0 3e 1e bd b8 e5 8f be ce ca 68 be
       -0.22193944 -0.03863406 -0.2810495 -0.22733614
000140 74 ac b9 3e 19 e4 46 3f e7 62 91 be 7a bf 19 3e
       0.36264384 0.776918 -0.2839577 0.15014449
000150 c1 8b e7 3e f8 72 85 be a0 b0 41 bf ec 0e 80 be
       0.4522381 -0.26064277 -0.75660133 -0.25011384
000160 cd c6 c7 3d f6 40 f0 3e 6b dd 02 3f 2f f5 c9 bf
       0.09754715 0.4692456 0.51119107 -1.5777949
000170 01 81 54 bf 34 15 e2 be 05 ec 75 3f 3c 30 30 bf
       -0.83009344 -0.44156802 0.9606326 -0.688236
000180 5d b4 36 be 69 93 a7 3d aa 29 1f bf df d7 19 be
       -0.1784224 0.08182413 -0.6217295 -0.15023755
000190 9f d7 02 3e 28 90 be 3e 5a 00 85 be d3 74 d4 3f
       0.12777565 0.37219357 -0.2597683 1.6598152
0001a0 eb 91 8b be b4 0f 8d 3c 4e 43 3d bf c8 aa dc be
       -0.27259764 0.017219402 -0.73930824 -0.43099046
0001b0 b9 45 ab 3e fc c1 4f bf fd 8c f6 be 95 7d 6e 3d
       0.33451632 -0.8115537 -0.4815444 0.058225233
0001c0 85 2f 02 bf cc 82 72 bd dc a5 2d 3f 2a d4 e8 3e
       -0.5085376 -0.05920677 0.67831206 0.45474368
0001d0 5c 31 96 be 2c 3d 82 3e b7 bd 94 3e
       -0.29334533 0.25437295 0.2905099

FC.bias f4 [7]
000000 3f e0 3f be 6f 13 8d be bb d3 95 be 89 56 84 be
       -0.18737887 -0.2755389 -0.292631 -0.2584727
000010 70 f4 12 be e9 b3 fa bd 27 3d 9b be
       -0.14351058 -0.122413464 -0.30320093
