data/parameters/parameters-25.pt (torch_old, 30840 bytes, 6 tensors)

rnn.weight_ih_l0 f4 [68, 89]
0.08953433 0.13894455 0.05475369 -0.3311418 0.13910833 0.09577949 0.05348728 0.23268421
0.07672137 0.028094323 -0.3060698 0.06831401 0.054902565 0.08552406 0.062019188 0.13017222
-0.35175198 -0.033095006 -0.114367105 -0.17938551 0.07755812 -0.18617184 -0.4898646 0.25414115
0.13086456 0.24292824 0.16802502 -0.42779332 0.22063546 0.14935483 0.30907843 -0.021339409
0.0576053 0.034104146 0.032829553 0.02418913 0.031293556 -0.02481367 -0.026147578 0.082959384
0.08352213 0.041783724 -0.17099501 0.13585515 0.09660842 0.09517129 -0.064363465 0.0041748136
0.054558657 0.15806721 0.064086884 0.02872795 -0.0005539528 -0.025894387 0.014359923 0.006321119
0.090488516 0.018247796 0.025881927 0.05517422 0.050615575 0.017032335 0.052776955 -0.021719538
0.016854959 0.06271885 0.0661055 0.036812507 0.06360363 0.029455949 0.043630034 0.21582563
0.073411115 0.069244824 0.030264176 0.0865649 0.044658184 0.06390963 0.16003974 0.056757353
0.039269064 0.043962494 0.01608768 0.09609761 0.05356793 -0.10778973 0.104908995 0.026748512
0.1217787 0.09443912 0.04158619 -0.0009912861 0.04031029 0.018691411 -4.142304e-05 0.11064002
-0.011389137 0.259179 0.096056 -0.03748592 -0.07298976 0.08151411 -0.012259418 -0.033218578
-0.06365901 0.15811695 0.06011924 0.05966148 0.016768297 0.04834524 0.021019012 0.15200667
0.070166096 0.18751821 0.030975487 0.23044582 0.13518903 0.2334814 0.17282692 0.10821942
0.012813266 0.084480226 -0.030466795 0.040184293 -0.037631813 0.048096757 0.0348848 0.030463355
-0.009435319 0.12918805 0.08243272 0.071042635 -0.043199442 -0.062851846 0.08580131 0.043213055
-0.044086806 0.0381471 0.032909457 0.045412015 0.0130402325 0.018340005 0.006604634 -0.026242446
0.015145569 0.0066946084 0.014483734 -0.006844022 0.0070729153 0.021221317 0.0054778634 0.035779927
0.063996755 0.0660444 0.02923198 0.009828696 0.04708528 0.03659225 0.047702473 0.0021016859
0.017621458 0.04171347 0.008341759 0.032207977 -0.009442476 0.03530197 -0.0012962824 -0.012710173
-0.0062837503 -0.018297557 -0.0024618597 0.055421837 0.06255887 0.07092861 0.083329 0.018778121
0.08483559 0.10325021 0.05922248 -0.0011160104 -0.32984138 0.19550268 -0.015590682 0.08379436
0.06984809 -0.039331246 0.0005837341 -0.23398252 0.071349524 -0.10285903 0.10144583 0.26695848
0.012423674 0.081131004 -0.21846625 0.11438711 -0.08392413 -0.15310475 0.2312604 -0.10035646
-0.43496647 0.36721855 0.21819617 0.22998765 -0.52529556 0.31378442 0.19967338 0.390462
0.21582289 -0.074601874 0.0007497104 0.043754023 0.07201186 0.10069241 0.068430275 0.016632231
-0.07768082 0.05912417 -0.13224769 -0.02741779 0.09611443 0.033135384 0.24725622 0.032908574
0.14138961 0.04409557 0.27250823 -0.0007715916 0.09723672 -0.03520063 0.029066848 0.056602888
0.052251667 0.0822549 -0.0047491803 -0.0013048231 -0.0017705783 -0.009751807 0.15314628 0.00543246
-0.019105231 0.008490501 0.0035089697 0.04117309 -0.022537468 -0.012777288 0.05736523 -0.01351284
0.22724602 0.028750818 0.06800076 0.06907865 0.065857545 0.07375634 -0.00964405 0.17434369
00000000: c65d b73d 7b47 0e3e 6845 603d 6b8b a9be
00000010: 6a72 0e3e 0a28 c43d 7a15 5b3d c544 6e3e
00000020: 1820 9d3d 1126 e63c 2eb5 9cbe 37e8 8b3d
00000030: 83e1 603d 3d27 af3d d507 7e3d de4b 053e
00000040: d618 b4be a18e 07bd 4d39 eabd d6b0 37be
00000050: cbd6 9e3d d5a3 3ebe 88cf fabe ca1e 823e
00000060: 5c01 063e 2ec2 783e c00e 2c3e ba07 dbbe
00000070: 43ee 613e 79f0 183e 873f 9e3e fccf aebc
00000080: 89f3 6b3d cab0 0b3d 4878 063d 4828 c63c
00000090: ac2d 003d 0a46 cbbc 7233 d6bc 9ce6 a93d
000000a0: a70d ab3d 6925 2b3d 5119 2fbe 9d1d 0b3e
000000b0: a3da c53d 2ae9 c23d fed0 83bd e0cc 883b
000000c0: e678 5f3d 5fdc 213e fc3f 833d e156 eb3c
000000d0: 2537 11ba 7720 d4bc e245 6b3c 6421 cf3b
000000e0: 0b52 b93d 677c 953c 5606 d43c 5dfe 613d
000000f0: 4752 4f3d 6587 8b3c a62c 583d 2ced b1bc
00000100: 6913 8a3c be72 803d 5262 873d b6c8 163d
00000110: 9f42 823d 9a4d f13c 68b5 323d 6501 5d3e
00000120: 9158 963d 3bd0 8d3d 94ec f73c f048 b13d
00000130: 80eb 363d 0de3 823d 75e1 233e 667a 683d
00000140: 99d8 203d 0412 343d 4fca 833c d3ce c43d
00000150: 0c6a 5b3d ddc0 dcbd 87da d63d b21f db3c
00000160: 1c67 f93d 4c69 c13d 4856 2a3d 0bee 81ba
00000170: 671c 253d bb1e 993c a7bd 2db8 3c97 e23d
00000180: 8199 3abc 1cb3 843e 02b9 c43d d68a 19bd
00000190: a87b 95bd dff0 a63d badb 48bc 3410 08bd
000001a0: a85f 82bd 69e9 213e 983f 763d 995f 743d
000001b0: ab5d 893c a905 463d 1030 ac3c a3a7 1b3e
000001c0: 3eb3 8f3d c604 403e 4ec0 fd3c fdf9 6b3e
000001d0: fe6e 0a3e c015 6f3e 8af9 303e 25a2 dd3d
000001e0: bcee 513c f803 ad3d 8095 f9bc 4998 243d
000001f0: d123 1abd 1b01 453d 5de3 0e3d 498e f93c
00000200: 9996 1abc df49 043e 7cd2 a83d cd7e 913d
00000210: e6f1 30bd 78b8 80bd 99b8 af3d 2c00 313d
00000220: 5e94 34bd 2240 1c3d 11cc 063d f301 3a3d
00000230: b3a6 553c c73d 963c b06b d83b 66fa d6bc
00000240: 1f25 783c 725e db3b 2f4d 6d3c d143 e0bb
00000250: eac3 e73b 54d8 ad3c a67f b33b f98d 123d
00000260: bb10 833d 4942 873d e877 ef3c 8a08 213c
00000270: 7fdc 403d c1e1 153d ab63 433d 70bc 093b
00000280: e05a 903c bedb 2a3d e0ab 083c 83ec 033d
00000290: 9db4 1abc cc98 103d 05e8 a9ba 543e 50bc
000002a0: ebe7 cdbb c2e4 95bc 2757 21bb 0202 633d
000002b0: dd1e 803d 0543 913d 65a8 aa3d 93d4 993c
000002c0: 48be ad3d d974 d33d 4593 723d 1847 92ba
000002d0: f8e0 a8be db31 483e 0f70 7fbc 619c ab3d
000002e0: 840c 8f3d cd19 21bd bb05 193a 1d99 6fbe
000002f0: b31f 923d c1a7 d2bd d5c2 cf3d c8ae 883e
00000300: aa8c 4b3c 0328 a63d 9eb5 5fbe ca43 ea3d
00000310: 6ae0 abbd 7ec7 1cbe 87cf 6c3e b087 cdbd
00000320: edb3 debe 1204 bc3e d16e 5f3e e281 6b3e
00000330: c579 06bf 5aa8 a03e 2e77 4c3e a3ea c73e
00000340: ad00 5d3e dec8 98bd 3788 443a 6b37 333d
00000350: f47a 933d d237 ce3d 2c25 8c3d 5140 883c
00000360: 1f17 9fbd 302c 723d f06b 07be 469b e0bc
00000370: a4d7 c43d f8b8 073d bc30 7d3e 24cb 063d
00000380: 70c8 103e 8e9d 343d 3386 8b3e a344 4aba
00000390: 0c24 c73d 892e 10bd 991d ee3c 6ed8 673d
000003a0: d805 563d 4275 a83d 039f 9bbb 9906 abba
000003b0: c012 e8ba 0bc6 1fbc 61d2 1c3e c702 b23b
000003c0: 9382 9cbc be1b 0b3c bef6 653b 1da5 283d
000003d0: 7fa0 b8bc d557 51bc cef7 6a3d f564 5dbc
000003e0: 2eb3 683e d686 eb3c fc43 8b3d 1b79 8d3d
000003f0: 52e0 863d 900d 973d 1402 1ebc 2787 323e

rnn.weight_hh_l0 f4 [68, 17]
0.048785184 -0.048416328 -0.13388981 0.001668888 0.034401182 0.023127813 0.016733555 -0.05255125
-0.036350135 -0.015930556 -0.14030854 -0.05086135 0.13234419 0.10228595 -0.19149026 0.2618615
0.06657245 -0.057069518 -0.08285661 -0.07053784 0.002059475 0.1187772 -0.13288741 -0.082524434
-0.09985255 0.009944118 -0.017937994 -0.02682639 -0.08248438 0.06599755 -0.0019100591 -0.057294894
0.08001891 0.08069924 -0.045686316 -0.018228145 0.028169261 -0.014748558 -0.06040952 -0.07700968
-0.010217702 -0.0968566 -0.06235792 0.06478297 -0.2607585 0.12347972 0.20227417 0.17690942
0.0149207 0.05790957 0.08596698 0.07552272 0.039861657 -0.044172566 -0.04590784 0.0527907
-0.05410462 0.086387284 -0.121939234 -0.022309465 -0.072449856 -0.047862448 0.029931333 0.050137468
-0.006938089 0.0024246902 -0.12408867 -0.06013116 -0.0056053824 -0.20629323 -0.00073790766 0.010437229
0.11615395 -0.061640564 -0.0668355 -0.10971095 0.031000076 0.0080567505 -0.016125157 -0.07614542
-0.028701628 -0.006976656 -0.013534782 0.013667186 0.15228431 0.08614517 0.03235853 0.035313696
-0.010915677 -0.10489315 -0.31630558 0.0097609125 -0.16874605 -0.05513885 -0.08890358 0.008322742
0.010409169 -0.07396789 -0.04984453 0.026608685 0.018319068 -0.098201215 -0.12590398 -0.21500996
0.035268065 0.026716236 -0.012136076 -0.06399242 0.05204116 -0.06262383 -0.051538225 -0.073623806
-0.068188205 0.08556799 0.010976686 0.074717775 0.061349217 -0.0039667813 0.116623 -0.013772289
0.018831369 -0.09899936 -0.07862242 -0.024886645 -0.018200962 -0.0786546 -0.2287099 -0.04715114
0.053670026 0.013565679 -0.023764705 -0.0078114183 0.17245942 -0.09303914 -0.09071425 -0.06369671
-0.104013875 -0.022012146 -0.01657627 -0.04255593 0.07023254 -0.073202685 -0.15583879 0.0037367223
0.03638054 -0.010246342 -0.22993267 -0.012074066 0.10919021 0.057017274 -0.008685206 0.119188584
0.10457093 -0.05802503 -0.09132489 -0.1576716 0.037016105 0.23107399 0.21322168 0.014834517
0.021238342 0.16900204 0.18923126 0.0032374852 0.15064473 -0.013027373 -0.056709062 0.012708919
0.06391075 0.15695658 -0.044392616 -0.086808674 -0.039307594 0.0014438335 0.024372267 -0.11922847
0.035495285 -0.01971458 -0.007803236 0.04888103 -0.0670094 -0.08090626 0.06844772 -0.07278151
-0.030679582 0.03222691 0.061694324 -0.06238704 -0.12425476 -0.06496104 -0.11243109 0.1297499
0.008400802 -0.0841381 -0.054186616 0.038283985 0.09918715 -0.009748513 -0.055748302 0.040912148
0.04085525 -0.10084805 -0.024584994 0.045334928 -0.031661227 -0.027860345 -0.050648816 0.0772844
-0.31000093 -0.021043887 -0.028852439 -0.013382177 -0.019964932 -0.19531912 -0.028321357 -0.17345011
-0.04169776 0.093404725 -0.087989315 0.2087261 0.16585663 0.008765219 -0.031429667 0.08876889
0.02681125 0.13052721 -0.0063665276 0.018503489 -0.035840385 -0.040441066 -0.07644131 -0.08001062
0.0038255106 -0.039397072 -0.11664497 -0.08379938 -0.055871308 -0.06896663 -0.03421883 0.1770728
-0.023227716 0.023640318 -0.04591678 -0.02229643 0.015742378 -7.770265e-05 -0.073874675 -0.039069258
-0.0047026835 -0.018243361 0.009852981 -0.13268347 -0.13628612 0.20071743 -0.00067327823 -0.1084977
00000000: f9d2 473d 3350 46bd 691a 09be 97be da3a
00000010: 41e8 0c3d 8a76 bd3c cf14 893c fb3f 57bd
00000020: e1e3 14bd cc80 82bc 0bad 0fbe fe53 50bd
00000030: 3c85 073e 4c7b d13d 0616 44be b612 863e
00000040: 2357 883d bac1 69bd bab0 a9bd 2576 90bd
00000050: 42f8 063b 7641 f33d a313 08be 9202 a9bd
00000060: 7e7f ccbd a7ec 223c b3f2 92bc 04c3 dbbc
00000070: 92ed a8bd b929 873d f35a faba 0dae 6abd
00000080: f4e0 a33d a545 a53d 9321 3bbd 3153 95bc
00000090: 39c3 e63c f0a3 71bc f96f 77bd 40b7 9dbd
000000a0: 2668 27bc c15c c6bd 056b 7fbd efac 843d
000000b0: 2382 85be efe2 fc3d f620 4f3e be27 353e
000000c0: f475 743c 9632 6d3d 750f b03d a8ab 9a3d
000000d0: fa45 233d 4bee 34bd dc09 3cbd 103b 583d
000000e0: ce9c 5dbd d1eb b03d 47bb f9bd 57c2 b6bc
000000f0: 9760 94bd 6a0b 44bd 8e32 f53c f25c 4d3d
00000100: e958 e3bb 8de7 1e3b 3322 febd 174c 76bd
00000110: 5bad b7bb 883e 53be 2570 41ba e900 2b3c
00000120: 1fe2 ed3d d17a 7cbd 0de1 88bd 22b0 e0bd
00000130: dff3 fd3c 7600 043c e818 84bc 21f2 9bbd
00000140: ad1f ebbc 6f9c e4bb fec0 5dbc 55ec 5f3c
00000150: 6bf0 1b3e e16c b03d 618a 043d 18a5 103d
00000160: abd7 32bc 38d2 d6bd cef2 a1be 3cec 1f3c
00000170: c4cb 2cbe 46d9 61bd 1513 b6bd 1c5c 083c
00000180: 388b 2a3c 7a7c 97bd c729 4cbd 75fa d93c
00000190: df11 963c b81d c9bd f9ec 00be 922b 5cbe
000001a0: 3f75 103d 02dc da3c 64d6 46bc 750e 83bd
000001b0: 1d29 553d ec40 80bd bf19 53bd 14c8 96bd
000001c0: 42a6 8bbd 453e af3d 8fd7 333c a205 993d
000001d0: 5149 7b3d c6fb 81bb 0ad8 ee3d 2ba5 61bc
000001e0: 3e44 9a3c 2dc0 cabd cb04 a1bd 14df cbbc
000001f0: 2f1a 95bc aa15 a1bd ee32 6abe 8e21 41bd
00000200: 1ad5 5b3d 9542 5e3c 33ae c2bc edf6 ffbb
00000210: 3499 303e 4e8b bebd 65c8 b9bd 6c73 82bd
00000220: 3a05 d5bd d152 b4bc f5ca 87bc 204f 2ebd
00000230: 14d6 8f3d 4aeb 95bd 3494 1fbe cce3 743b
00000240: c303 153d 46e0 27bc 7873 6bbe 4ed2 45bc
00000250: 1e9f df3d f28a 693d 654c 0ebc 2519 f43d
00000260: 4929 d63d a7ab 6dbd 8b08 bbbd aa74 21be
00000270: 339e 173d a99e 6c3e c956 5a3e 790c 733c
00000280: 08fc ad3c df0e 2d3e d7c5 413e fd2b 543b
00000290: 9d42 1a3e c370 55bc c347 68bd 1239 503c
000002a0: a4e3 823d 3ab9 203e 08d5 35bd bfc8 b1bd
000002b0: 0001 21bd 033f bd3a 59a8 c73c 0e2e f4bd
000002c0: 8163 113d 7980 a1bc 4ab2 ffbb 7a37 483d
000002d0: 393c 89bd 2eb2 a5bd 512e 8c3d 790e 95bd
000002e0: bf53 fbbc 5d00 043d 30b3 7c3d 8e89 7fbd
000002f0: 4879 febd 4b0a 85bd 4542 e6bd 28dd 043e
00000300: 84a3 093c 9950 acbd c9f2 5dbd abcf 1c3d
00000310: a222 cb3d 3ab8 1fbc 5558 64bd 7f93 273d
00000320: d657 273d 6c89 cebd 7866 c9bc 1eb1 393d
00000330: 34af 01bd 613b e4bc 2275 4fbd 4947 9e3d
00000340: 71b8 9ebe 3b64 acbc f35b ecbc eb40 5bbc
00000350: 7f8d a3bc bc01 48be 3102 e8bc e89c 31be
00000360: 45cb 2abd fa4a bf3d be33 b4bd 4bbc 553e
00000370: 52d6 293e fe9b 0f3c 65bc 00bd 77cc b53d
00000380: 44a3 db3c eda8 053e 4e9e d0bb a194 973c
00000390: 5ecd 12bd 88a5 25bd 438d 9cbd 9cdc a3bd
000003a0: 6bb5 7a3b d35e 21bd 8fe3 eebd 029f abbd
000003b0: 50d9 64bd 603e 8dbd 0b29 0cbd 9252 353e
000003c0: 0d48 bebc 57a9 c13c 3c13 3cbd 01a7 b6bc
000003d0: 29f6 803c 4bf4 a2b8 9b4b 97bd 1607 20bd
000003e0: f818 9abb 1a73 95bc 666e 213c 2dde 07be
000003f0: 978e 0bbe df88 4d3e f07e 30ba 0b34 debd

rnn.bias_ih_l0 f4 [68]
0.23619983 0.3003991 0.058932528 0.10265763 0.31309074 0.26785925 0.22016887 0.06834422
0.1416706 0.05922674 0.26889816 0.18267214 0.15765125 0.20031248 0.009805938 0.16621055
0.20094943 0.13564222 0.23173854 0.15840195 0.23544389 0.26592666 0.21467358 0.1989839
0.23923327 0.11510473 0.23451866 0.19934297 0.24492802 0.2404397 0.19202173 0.1509548
0.1893685 0.1816243 0.0039399033 -0.03148466 -0.012084085 0.04221392 -0.070455074 -0.039902773
-0.049527075 -0.039559577 0.0015854264 -0.049749836 0.007711176 -0.032518785 -0.07019722 -0.11412019
-0.055213574 -0.04393526 0.004470555 0.36108726 0.26995838 0.36889932 0.36582744 0.37931213
0.31323782 0.4350812 0.2789316 0.27086058 0.3649177 0.3701802 0.35080174 0.33566892
0.36219925 0.17837998 0.3724968 0.3738338
00000000: 5ede 713e e9cd 993e 3c63 713d 2a3e d23d
00000010: 6e4d a03e d924 893e f373 613e 0ef8 8b3d
00000020: 1912 113e bd97 723d 05ad 893e 680e 3b3e
00000030: 546f 213e b71e 4d3e 16a9 203c 1933 2a3e
00000040: b0c5 4d3e cbe5 0a3e de4c 6d3e 1f34 223e
00000050: 3418 713e 8a27 883e 64d3 5b3e 6fc2 4b3e
00000060: 91f9 743e 07bc eb3d a925 703e 9020 4c3e
00000070: 69ce 7a3e d335 763e 58a1 443e e593 1a3e
00000080: d1e9 413e b8fb 393e 4e1a 813b 0ff6 00bd
00000090: 53fc 45bc 81e8 2c3d c04a 90bd 1771 23bd
000000a0: e7dc 4abd 3909 22bd 15ce cf3a 7cc6 4bbd
000000b0: 08ae fc3b 6b32 05bd 8fc3 8fbd d9b7 e9bd
000000c0: a127 62bd 76f5 33bd bc7d 923b 6ee0 b83e
000000d0: fc37 8a3e 5fe0 bc3e bc4d bb3e 3335 c23e
000000e0: b560 a03e f7c2 de3e 1fd0 8e3e 3dae 8a3e
000000f0: 7ed6 ba3e 4288 bd3e 499c b33e ccdc ab3e
00000100: 2e72 b93e 3ea9 363e e7b7 be3e 2567 bf3e

rnn.bias_hh_l0 f4 [68]
0.2361999 0.30039907 0.058932684 0.10265765 0.31309074 0.26798743 0.22016877 0.06834422
0.14167061 0.059226856 0.2688982 0.18267217 0.15765117 0.20031253 0.00980601 0.16621053
0.20094945 0.13564187 0.23173153 0.15840188 0.23543836 0.2659266 0.21468233 0.19898397
0.2392333 0.11510464 0.23450395 0.19934297 0.24542253 0.2404397 0.1920217 0.15095477
0.1893689 0.18162425 -0.0067256195 -0.06534172 0.0559267 0.008702131 -0.02556492 -0.07234884
0.0755907 -0.043647923 -0.02019911 -0.09842403 0.046949547 -0.007021156 -0.08565537 -0.13296802
0.022727396 -0.0065673594 0.0032891608 0.36108726 0.26995826 0.3688993 0.36582747 0.37931204
0.31323785 0.43508124 0.2789316 0.2708606 0.3649177 0.37018016 0.35080177 0.3356689
0.36219922 0.17838006 0.37249687 0.3738337
00000000: 63de 713e e8cd 993e 6663 713d 2d3e d23d
00000010: 6e4d a03e a635 893e ec73 613e 0ef8 8b3d
00000020: 1a12 113e dc97 723d 06ad 893e 6a0e 3b3e
00000030: 4f6f 213e ba1e 4d3e 63a9 203c 1833 2a3e
00000040: b1c5 4d3e b4e5 0a3e 084b 6d3e 1a34 223e
00000050: c116 713e 8827 883e afd5 5b3e 74c2 4b3e
00000060: 93f9 743e fbbb eb3d ce21 703e 9020 4c3e
00000070: 0b50 7b3e d335 763e 56a1 443e e393 1a3e
00000080: ece9 413e b5fb 393e 9662 dcbb e1d1 85bd
00000090: 6513 653d 6293 0e3c 866d d1bc a12b 94bd
000000a0: 4ccf 9a3d 2ac8 32bd 9b78 a5bc 8a92 c9bd
000000b0: 2b4e 403d ba11 e6bb 156c afbd c528 08be
000000c0: ce2e ba3c 0133 d7bb f68e 573b 6ee0 b83e
000000d0: f837 8a3e 5ee0 bc3e bd4d bb3e 3035 c23e
000000e0: b660 a03e f8c2 de3e 1fd0 8e3e 3eae 8a3e
000000f0: 7ed6 ba3e 4188 bd3e 4a9c b33e cbdc ab3e
00000100: 2d72 b93e 43a9 363e e9b7 be3e 2167 bf3e

FC.weight f4 [7, 17]
-0.45319065 0.631611 -0.45567894 -0.33375522 2.2436843 -0.3845257 -0.4364399 0.3831032
-0.19003631 -2.550401 0.4302925 0.27080113 -0.36230835 0.5407882 0.01405289 -0.6103772
0.49683136 -0.62561303 -2.0886946 -0.3500757 -0.3148498 -0.43748584 -0.3883602 2.5024643
0.23019789 -0.20306133 0.43697494 0.5850669 0.7414151 -0.47178504 0.5332314 0.54234993
-0.49261257 0.44372714 -0.42868945 0.71135724 2.392872 -0.61434174 -0.52876014 -0.36671513
-0.43118414 0.3639453 -0.15768008 0.49196738 -2.1110568 0.46722245 -0.7040291 0.36973873
0.103618756 -0.51465726 0.4763945 2.4740658 0.4739676 -0.5060994 -0.44659513 -0.4606202
-0.41832143 -0.4468296 0.85206795 -0.27771312 0.29399627 0.55207676 0.30129567 -0.52475405
0.44455853 -0.03986781 1.9584441 0.46253276 -0.5711103 0.5384445 -0.4009486 -0.4211471
-0.46601984 -0.43258154 -0.60500324 0.30933434 -0.067333765 0.59167147 0.62102664 0.40418312
2.385114 -2.4712586 0.096561015 -0.55499655 0.45490655 -0.45183435 0.09473902 -0.71339196
-0.41232806 -0.39139766 2.290468 -0.5157323 -0.03344916 1.0478357 0.39315677 0.30961454
-1.9866717 -0.3306798 0.5145882 0.13982402 -0.20706373 0.5330502 -0.53612846 0.2705184
-0.586078 2.2796085 -0.37698075 -0.502361 -0.7079716 0.07460653 -0.053310215 0.57828623
0.11735827 0.13366914 -0.44348523 0.45764652 0.1509532 -0.26949975 -2.34749
00000000: 9b08 e8be 42b1 213f c04e e9be f7e1 aabe
00000010: 8698 0f40 8de0 c4be 0d75 dfbe 1a26 c43e
00000020: e198 42be c539 23c0 4c4f dc3e 72a6 8a3e
00000030: 7b80 b9be 1871 0a3f 183e 663c ae41 1cbf
00000040: ae60 fe3e 2d28 20bf 2cad 05c0 1f3d b3be
00000050: fe33 a1be 25fe dfbe 26d7 c6be 6028 2040
00000060: ffb8 6b3e 4fef 4fbe 2ebb df3e f2c6 153f
00000070: 61cd 3d3f cf8d f1be da81 083f 72d7 0a3f
00000080: b737 fcbe 3430 e33e 2f7d dbbe 821b 363f
00000090: d124 1940 8045 1dbf d35c 07bf 16c2 bbbe
000000a0: 2bc4 dcbe 0a57 ba3e e376 21be 26e3 fb3e
000000b0: 8e1b 07c0 c837 ef3e 403b 34bf 654e bd3e
000000c0: 1236 d43d 94c0 03bf fbe9 f33e 1857 1e40
000000d0: e2ab f23e bb8f 01bf 1ea8 e4be 69d6 ebbe
000000e0: 3a2e d6be d9c6 e4be 2021 5a3f 6a30 8ebe
000000f0: ae86 963e e754 0d3f 6d43 9a3e 4856 06bf
00000100: 2d9d e33e 6e4c 23bd 4cae fa3f 18d1 ec3e
00000110: 4934 12bf 80d7 093f 2349 cdbe 98a0 d7be
00000120: 279a eebe 547b ddbe 7ee1 1abf 1261 9e3e
00000130: 49e6 89bd c877 173f 9afb 1e3f 17f1 ce3e
00000140: b5a5 1840 1a29 1ec0 c8c1 c53d 4114 0ebf
00000150: 83e9 e83e d556 e7be 8806 c23d dba0 36bf
00000160: aa1c d3be 4665 c8be 0797 1240 0807 04bf
00000170: fd01 09bd 7b1f 863f d84b c93e cc85 9e3e
00000180: 424b febf dd4e a9be 0dbc 033f 072e 0f3e
00000190: 8408 54be fa75 083f b73f 09bf 6381 8a3e
000001a0: 3509 16bf 1be5 1140 9f03 c1be bb9a 00bf
000001b0: a03d 35bf 4fcb 983d d05b 5abd 910a 143f
000001c0: 8859 f03d 90e0 083e 7f10 e3be a550 ea3e
000001d0: 7a93 1a3e dffb 89be 473d 16c0

FC.bias f4 [7]
-0.6143653 -0.61476094 -0.52450246 -0.36966473 -0.49714574 -0.05385824 -0.19150631
00000000: 0b47 1dbf f960 1dbf cb45 06bf b244 bdbe
00000010: e389 febe 759a 5cbd 3b1a 44be
