data/parameters/parameters-19.pt (torch_old, 30842 bytes, 6 tensors)

rnn.weight_ih_l0 f4 [68, 89]
-0.05034427 0.011882561 0.014382655 0.035388794 0.100807875 -0.0077601913 -0.023677275 0.14637671
-0.019505218 -0.14013539 -0.0018475001 0.0036556472 0.13531317 -0.014565401 0.027373843 -0.13794535
0.05374941 0.17709817 -0.0033882605 -0.10942182 0.2109063 -0.010385401 -0.19923732 0.30667034
-0.012969902 0.061077926 0.16806446 0.050850872 0.08950679 0.13574678 0.10127371 -0.038861737
-0.00955356 0.03981254 0.12775606 0.00044365603 -0.09382627 0.016372949 0.23391216 0.15344758
0.09494245 0.02056467 0.08088555 -0.0389331 0.038243912 0.06615904 0.14358881 0.041201934
0.090667054 -0.08013249 -0.0015032585 -0.008626563 -0.021589007 0.021600071 0.007213642 0.017871497
0.024435194 0.0065797637 0.02102189 0.01755401 0.023003828 0.019890836 -0.040523905 0.02539808
0.031036371 0.05985789 -0.0065061394 0.006433114 0.031209474 0.07129183 0.0010263232 0.039421577
0.030332042 0.032177337 0.0073823277 0.0224482 -0.008347816 -0.002291422 0.04736349 0.0064248387
0.004379034 0.0050045215 -0.0056768074 0.0039794724 0.02856048 -0.026799863 0.070580855 0.025228692
-0.013696795 -0.06979269 0.013760631 0.011617511 0.012550293 0.15879916 0.07559294 0.006011214
0.040008426 0.08921966 0.013607724 0.007861862 0.12807758 0.009353705 -0.054839022 -0.010740753
0.054720607 -0.13989031 -0.19915396 -0.08705473 -0.122810155 -0.085460864 -0.018865973 -0.2592172
-0.08386718 -0.0439546 0.091983296 -0.020735847 0.16024025 0.31060994 0.062286045 -0.06022483
0.13335536 0.025416603 -0.032725018 -0.005051328 0.0234267 0.002952098 0.028415514 -0.08408873
-0.029701013 0.026914222 0.04634117 0.008310883 -0.0123555865 0.069974236 -0.09872012 0.04516883
-0.017751697 0.0064696614 -0.017485814 0.009276326 0.03490096 0.0310676 0.014595264 0.010691387
0.015244338 0.010618425 -0.00040138722 0.020593876 0.02122416 -0.01335157 0.022014283 0.040605363
0.0022639576 0.020828445 0.060087 -0.0028107958 0.03275205 0.058325622 0.02779149 0.021854369
0.016985271 0.07421499 0.028898407 0.12595999 0.044185102 0.0272906 0.00018807029 0.03346127
0.04446028 0.04181666 0.10393615 0.053340457 0.048004817 0.059579372 0.0023959184 0.19318844
0.0106654335 -0.03663715 0.26951712 0.16647626 0.13970684 -0.5875145 -0.01381818 0.0042005456
0.170036 -0.028606707 0.037306797 0.10273665 -0.03261861 -0.01601299 0.11933013 -0.014384934
0.01837105 -0.234466 0.23569304 -0.1623199 -0.05762036 0.11065415 -0.21125017 0.021820758
0.23720305 -0.27976623 0.15796348 0.207933 0.265713 -0.09281114 0.26079303 0.13313372
0.3470862 -0.05385875 -0.0057995464 -0.0233891 0.15013319 -0.1267733 -0.010334314 -0.04322043
0.0103344545 -0.053721264 0.060329847 -0.07310572 -0.121540755 -0.0013557683 0.12356104 0.16252095
-0.19896363 -0.15699792 0.11300948 0.00039135563 0.004878186 0.026413504 -0.044162862 0.02097854
0.035426058 -0.03833605 0.083142266 -0.044632275 -0.010377711 -0.112364866 0.050372124 0.05959367
-0.0077841114 -0.05207794 0.06336818 0.06897651 -0.015278842 0.016865477 0.063340515 0.09002042
0.05984394 0.17288417 0.09779727 0.093195915 0.055148285 0.020527102 0.04977101 0.036878686
00000000: cb35 4ebd 13af 423c 3aa5 6b3c d7f3 103d
00000010: 5c74 ce3d 3449 febb d8f6 c1bc c7e3 153e
00000020: 68c9 9fbc a77f 0fbe d127 f2ba 9593 6f3b
00000030: 898f 0a3e b8a3 6ebc 1c3f e03c 8c41 0dbe
00000040: 5728 5c3d 3959 353e 940d 5ebb 8c18 e0bd
00000050: d2f7 573e 8727 2abc de04 4cbe e503 9d3e
00000060: b67f 54bc d92c 7a3d 1719 2c3e 0149 503d
00000070: 564f b73d 3401 0b3e 9768 cf3d 7c2d 1fbd
00000080: 8986 1cbc 7912 233d 7cd2 023e 819a e839
00000090: fd27 c0bd 9020 863c ab86 6f3e 5d21 1d3e
000000a0: 3071 c23d 3d77 a83c 53a7 a53d 5078 1fbd
000000b0: a6a5 1c3d 647e 873d f208 133e 5cc3 283d
000000c0: a6af b93d 811c a4bd fc08 c5ba 6d56 0dbc
000000d0: 6edb b0bc a2f2 b03c 6a60 ec3b 3f67 923c
000000e0: 512c c83c 0f9b d73b 1936 ac3c 6dcd 8f3c
000000f0: 8672 bc3c 1bf2 a23c 65fc 25bd a20f d03c
00000100: fd3f fe3c 8c2d 753d 7431 d5bb dfcc d23b
00000110: 03ab ff3c 7301 923d b185 863a 8578 213d
00000120: e77a f83c 62cc 033d 74e7 f13b 4ae5 b73c
00000130: 47c5 08bc af2b 16bb 3800 423d 7487 d23b
00000140: 007e 8f3b f8fc a33b 8304 babb 3c66 823b
00000150: abf7 e93c 638b dbbc b28c 903d 67ac ce3c
00000160: 8668 60bc 78ef 8ebd 4574 613c 5f57 3e3c
00000170: be9f 4d3c 3f9c 223e 79d0 9a3d b8f9 c43b
00000180: e0df 233d ccb8 b63d eef2 5e3c 0acf 003c
00000190: c526 033e 4840 193c e29e 60bd fcf9 2fbc
000001a0: b722 603d 683f 0fbe 04ef 4bbe c049 b2bd
000001b0: e483 fbbd 1b06 afbd d08c 9abc 1eb8 84be
000001c0: 8ec2 abbd bd09 34bd bd61 bc3d 39de a9bc
000001d0: 0516 243e 4408 9f3e a71f 7f3d 50ae 76bd
000001e0: 4f8e 083e 7b36 d03c ab0a 06bd 9c85 a5bb
000001f0: 5ae9 bf3c fc77 413b a7c7 e83c b636 acbd
00000200: 8a4f f3bc 377b dc3c 3dd0 3d3d 5f2a 083c
00000210: 166f 4abc a74e 8f3d c62d cabd f302 393d
00000220: 026c 91bc 74ff d33b 693e 8fbc bbfb 173c
00000230: 4ff4 0e3d 7b81 fe3c f920 6f3c ed2a 2f3c
00000240: 63c3 793c e7f8 2d3c 4871 d2b9 7db4 a83c
00000250: 4ade ad3c 8bc0 5abc 4c57 b43c cf51 263d
00000260: e85e 143b 6aa0 aa3c c91d 763d 5435 38bb
00000270: 0327 063d d9e6 6e3d fbaa e33c ef07 b33c
00000280: b224 8b3c 07fe 973d 5abc ec3c a8fb 003e
00000290: 70fb 343d 8990 df3c bc34 4539 af0e 093d
000002a0: fc1b 363d f247 2b3d 7adc d43d 867b 5a3d
000002b0: b3a0 443d 8009 743d d704 1d3b 31d3 453e
000002c0: 12be 2e3c d610 16bd 26fe 893e c178 2a3e
000002d0: 4f0f 0f3e 5a67 16bf a665 62bc bba4 893b
000002e0: eb1d 2e3e 9d58 eabc 03cf 183d 9867 d23d
000002f0: 179b 05bd ad2d 83bc 5b63 f43d c9ae 6bbc
00000300: e27e 963c db17 70be 8459 713e 3037 26be
00000310: 5403 6cbd a59e e23d f751 58be 72c1 b23c
00000320: 5be5 723e 853d 8fbe 2ec1 213e 63ec 543e
00000330: 890b 883e c413 bebd aa86 853e 3554 083e
00000340: 48b5 b13e fe9a 5cbd 1f0a bebb 7f9a bfbc
00000350: 84bc 193e dcd0 01be 4151 29bc e807 31bd
00000360: d851 293c d40a 5cbd 6e1c 773d 74b8 95bd
00000370: 5cea f8bd 09b4 b1ba 920d fd3d e46b 263e
00000380: 1fbd 4bbe 10c4 20be 8471 e73d dd2e cd39
00000390: 31d9 9f3b 2261 d83c 1ee4 34bd 30db ab3c
000003a0: ea1a 113d 4306 1dbd 7e46 aa3d 55d0 36bd
000003b0: 4607 2abc 8d1f e6bd 0053 4e3d 7e18 743d
000003c0: dc11 ffbb ae4f 55bd 2dc7 813d 8e43 8d3d
000003d0: 1c54 7abc 7829 8a3c acb8 813d a05c b83d
000003e0: eb1e 753d 8c08 313e ef49 c83d 80dd be3d
000003f0: 2be3 613d 7428 a83c b0dc 4b3d 1b0e 173d

rnn.weight_hh_l0 f4 [68, 17]
0.045015715 0.021208616 0.04549774 -0.06135518 0.03831741 0.015786037 -0.07096654 0.029414587
-0.12024242 0.05730278 -0.019610722 -0.008338455 0.012600102 -0.013645101 -0.13932906 -0.01575887
-0.03864453 -0.018584138 -0.026203176 -0.06261275 -0.014933615 0.08729378 -0.007896787 -0.087234244
0.05440746 0.016293803 0.16988267 -0.00509312 0.03826312 -0.03445637 -0.10414047 0.08944565
-0.12507297 -0.13556238 0.016710205 -0.0193621 -0.062380966 0.18312764 0.04879628 0.051601753
0.039792717 0.07569622 -0.11210808 -0.044595025 -0.014963965 0.045528274 0.14700496 0.12875932
-0.03766268 -0.008073116 0.0020305323 -0.0037231513 -0.00013482424 0.014953806 0.05763614 0.07917172
-0.07853049 -0.057678394 0.015326659 -0.093124665 0.14398158 0.18811055 -0.07491389 -0.010364265
-0.07366926 0.073026985 -0.06212276 -0.06000892 -0.13430585 -0.05896482 -0.010688129 -0.10178228
0.19433126 0.022890912 -0.13923575 -0.06896334 0.048046127 -0.082815975 0.024584593 -0.018633865
0.01431204 0.102513045 0.039720215 -0.088436574 0.043460406 -0.043975502 -0.06619524 0.004108051
0.010378982 0.06833424 0.0705056 -0.025458133 0.012698809 0.02201471 -0.022929013 0.03197786
0.04498593 -0.029345004 -0.15692043 0.11292017 -0.048687354 -0.02379945 -0.041912697 0.009478899
-0.104887046 0.07309929 0.05074462 0.0064664357 -0.02741096 0.088917434 0.15432075 0.008969192
0.01931001 -0.0011644722 -0.01186018 -0.24465969 -0.036129363 -0.006863366 0.09069032 0.009355677
0.0053787273 -0.10728959 0.0103044165 0.05207117 -0.045460127 0.0006711986 0.12050176 0.007465265
0.10434312 -0.05468578 -0.15300554 -0.0024135222 0.09433936 0.16193156 0.005647778 -0.05586541
0.20687613 0.013914382 0.10776642 -0.09138389 0.16321221 -0.08595704 -0.0057345266 0.049444217
-0.1086533 0.152825 0.055990815 -0.11806554 0.031355795 -0.21164367 0.19831048 -0.02381232
-0.09503759 -0.047359698 -0.0019362669 0.04509853 0.007833714 0.1139398 0.07256597 0.08587718
0.072661795 -0.040658128 0.19150469 -0.028286288 -0.09603208 -0.07869615 -0.05764603 -0.02429173
-0.043095764 -0.12892677 0.02740886 -0.03363902 0.031102285 0.028013222 0.15050139 -0.005332289
0.014623503 -0.110605605 0.018321196 0.029753039 0.15118055 0.18960342 -0.0017676827 0.03146314
0.06695723 -0.011698982 -0.06415673 0.07021493 -0.085822225 -0.026106171 0.13140325 0.07373794
0.068455294 -0.01679388 0.024021279 -0.03180749 0.03092572 -0.035632845 -0.014957073 0.036264256
-0.0040140213 0.16587387 -0.100655004 -0.17300121 -0.0022387507 0.09587785 -0.0159487 -0.025951661
0.078429736 -0.08528012 -0.036823094 -0.04050093 -0.11216901 0.08701754 -0.00013437276 -0.10722568
0.021680187 -0.00018324162 0.09638068 -0.055975232 0.04400411 0.03723336 -0.031217495 0.07951838
0.11648637 -0.011193793 -0.05854424 0.09146706 0.03832205 0.10260259 -0.015073278 -0.06451256
-0.028638206 0.052043583 -0.24228363 0.06549099 -0.0013289549 0.11273276 -0.033896998 -0.046310153
-0.091716886 0.038916532 0.046360977 0.030753415 -0.04734456 0.074844845 0.027874997 0.062254496
0.0036471558 -0.04544895 0.08212332 -0.109508134 0.10669143 -0.10781721 -0.013701208 0.013080792
00000000: 6662 383d b1bd ad3c d75b 3a3d 924f 7bbd
00000010: b7f2 1c3d b851 813c e856 91bd dcf6 f03c
00000020: a841 f6bd 52b6 6a3d aaa6 a0bc 049e 08bc
00000030: a970 4e3c b48f 5fbc 47ac 0ebe bf18 81bc
00000040: ba49 1ebd c33d 98bc 0ba8 d6bc 1d3b 80bd
00000050: 1fac 74bc 15c7 b23d 8661 01bc dea7 b2bd
00000060: 5bda 5e3d 957a 853c b9f5 2d3e 30e4 a6bb
00000070: cab9 1c3d 1f22 0dbd 9947 d5bd 482f b73d
00000080: 2113 00be ddd0 0abe d7e3 883c 449d 9ebc
00000090: 2f83 7fbd d085 3b3e 9cde 473d 5c5c 533d
000000a0: b0fd 223d 9f06 9b3d ec98 e5bd 46a9 36bd
000000b0: 6b2b 75bc db7b 3a3d 7888 163e 7cd9 033e
000000c0: 2f44 1abd 1a45 04bc ae12 053b 1d00 74bb
000000d0: 9b5f 0db9 cf00 753c e013 6c3d c824 a23d
000000e0: 98d4 a0bd 2e40 6cbd ab1c 7b3c 25b8 bebd
000000f0: e86f 133e 0da0 403e 746c 99bd e1ce 29bc
00000100: e9df 96bd 2c8f 953d 6f74 7ebd eacb 75bd
00000110: 7987 09be 1885 71bd 431d 2fbc 3a73 d0bd
00000120: c6fe 463e b985 bb3c d193 0ebe a73c 8dbd
00000130: 04cc 443d 6c9b a9bd a165 c93c 0ca6 98bc
00000140: 0c7d 6a3c 5cf2 d13d aab1 223d 3c1e b5bd
00000150: 8a03 323d a81f 34bd 5f91 87bd d49c 863b
00000160: 9b0c 2a3c d2f2 8b3d 3d65 903d 938d d0bc
00000170: aa0e 503c 3158 b43c a0d5 bbbc 37fb 023d
00000180: 2b43 383d ef64 f0bc c0af 20be b142 e73d
00000190: 646c 47bd 10f7 c2bc a6ac 2bbd 624d 1b3c
000001a0: 05cf d6bd 15b5 953d 97d9 4f3d 65e4 d33b
000001b0: f38c e0bc 581a b63d 4206 1e3e 85f3 123c
000001c0: 0730 9e3c 34a1 98ba 3351 42bc 1288 7abe
000001d0: 62fc 13bd 16e6 e0bb d9bb b93d 8e48 193c
000001e0: 0940 b03b a5ba dbbd dbd3 283c 9448 553d
000001f0: 6634 3abd 60f3 2f3a a0c9 f63d 2f9f f43b
00000200: d8b1 d53d 32fe 5fbd 7cad 1cbe 2f2c 1ebb
00000210: ff34 c13d 63d1 253e ff10 b93b 21d3 64bd
00000220: 56d7 533e 26f9 633c a4b4 dc3d 7a27 bbbd
00000230: 1a21 273e 3f0a b0bd b2e8 bbbb 0586 4a3d
00000240: 9f85 debd 287e 1c3e a056 653d 59cc f1bd
00000250: ef6e 003d 1eb9 58be e711 4b3e 0e12 c3bc
00000260: 11a3 c2bd 3efc 41bd 56ca fdba 3cb9 383d
00000270: fa58 003c 4559 e93d 789d 943d 60e0 af3d
00000280: b5cf 943d 2389 26bd ce19 443e a5b8 e7bc
00000290: 78ac c4bd 722b a1bd 3e1e 6cbd 73ff c6bc
000002a0: 2f85 30bd 6105 04be 8c88 e03c 12c9 09bd
000002b0: 38ca fe3c fc7b e53c 091d 1a3e 7bba aebb
000002c0: 6b97 6f3c 3185 e2bd 5516 963c a5bc f33c
000002d0: 13cf 1a3e 6627 423e 97b1 e7ba 7edf 003d
000002e0: df20 893d 16ad 3fbc 9b64 83bd d8cc 8f3d
000002f0: 90c3 afbd 9cdc d5bc 938e 063e eb03 973d
00000300: 4a32 8c3d 5293 89bc 46c8 c43c 9248 02bd
00000310: f057 fd3c bff3 11bd 830e 75bc d489 143d
00000320: 0d88 83bb d7da 293e 3624 cebd 3b27 31be
00000330: 01b8 12bb 9b5b c43d d9a6 82bc 9498 d4bc
00000340: c59f a03d 58a7 aebd d0d3 16bd 4ee4 25bd
00000350: deb8 e5bd 4136 b23d 6ae6 0cb9 2399 dbbd
00000360: a69a b13c 8c24 40b9 3c63 c53d 4946 65bd
00000370: a73d 343d 0282 183d d5bb ffbc 88da a23d
00000380: 6890 ee3d 2c66 37bc 16cc 6fbd 1553 bb3d
00000390: 95f7 1c3d 4f21 d23d e9f5 76bc 291f 84bd
000003a0: ac9a eabc a72b 553d 3319 78be 2420 863d
000003b0: 5430 aeba 6fe0 e63d 94d7 0abd b7af 3dbd
000003c0: 10d6 bbbd f166 1f3d 02e5 3d3d 96ee fb3c
000003d0: 5fec 41bd 4148 993d 1b5a e43c 92fe 7e3d
000003e0: 1f05 6f3b ae28 3abd 4530 a83d cd45 e0bd
000003f0: 0981 da3d 45cf dcbd 087b 60bc d150 563c

rnn.bias_ih_l0 f4 [68]
0.09600727 0.21403448 0.1643531 0.030801086 0.023805093 0.15887727 0.11562779 0.10695874
0.009744701 0.12559904 0.042763777 0.28634727 0.122980125 0.027289938 0.2575827 0.2662298
0.24831103 0.13445206 0.12615879 0.23035267 0.26551208 0.22742389 0.09798417 0.0142269265
0.21582665 0.16145638 0.29225355 0.16758749 0.19871025 0.22615223 0.26861006 0.21579173
0.28767726 0.20851772 -0.0034745946 -0.016868807 -0.06314214 0.0022187976 0.01416905 0.07648076
-0.05365024 0.004017619 0.05655609 0.046567846 0.0041917926 0.00045541656 0.067060396 0.0014073933
0.080853924 -0.11428258 0.0112208575 0.22596073 0.30856177 0.36380804 0.31237984 0.33504608
0.25186604 0.19785038 0.3365143 0.3203641 0.38768765 0.3624115 0.39054212 0.30979365
0.42185193 0.36059332 0.2180892 0.36893913
00000000: 769f c43d db2b 5b3e 2e4c 283e 8f52 fc3c
00000010: e602 c33c b9b0 223e 43ce ec3d 2f0d db3d
00000020: 3da8 1f3c 099d 003e 1229 2f3d 1c9c 923e
00000030: 01dd fb3d 268f df3c e1e1 833e 464f 883e
00000040: 3f45 7e3e cdad 093e c52f 013e 92e1 6b3e
00000050: 33f1 873e cfe1 683e edab c83d 0e18 693c
00000060: a901 5d3e d254 253e 42a2 953e 0e9c 2b3e
00000070: b37a 4b3e 7394 673e 4287 893e 82f8 5c3e
00000080: 6f4a 933e ab85 553e 06b6 63bb 7430 8abc
00000090: ab50 81bd 3f69 113b 4e25 683c f2a1 9c3d
000000a0: 5bc0 5bbd 3ba6 833b 5ca7 673d edbd 3e3d
000000b0: 4e5b 893b fac4 ee39 f656 893d 4878 b83a
000000c0: be96 a53d fc0c eabd b0d7 373c 4062 673e
000000d0: cffb 9d3e 0c45 ba3e 40f0 9f3e 298b ab3e
000000e0: 96f4 803e 4a99 4a3e 9a4b ac3e c306 a43e
000000f0: ff7e c63e 008e b93e 23f5 c73e 469d 9e3e
00000100: fafc d73e b09f b83e c652 5f3e 97e5 bc3e

rnn.bias_hh_l0 f4 [68]
0.09600721 0.21403448 0.16435324 0.030801969 0.02380572 0.15887767 0.11562779 0.106958844
0.009743164 0.125599 0.042763293 0.28634727 0.123007126 0.027293714 0.2575827 0.26624006
0.24831079 0.13445209 0.12615874 0.23035266 0.265849 0.22742389 0.09793761 0.014226944
0.21549138 0.16145623 0.2922535 0.16759762 0.19871025 0.22198802 0.26861003 0.21579099
0.28754285 0.2085177 0.010461435 -0.02607565 -0.062951654 -0.009930439 0.07383481 0.023002239
0.028810924 0.1097398 0.02260415 -0.034939382 -0.05785436 -0.06868492 0.017088523 -0.11371333
0.07580389 -0.12447984 -0.051471006 0.22596073 0.30856174 0.36380836 0.31238037 0.33504608
0.25186387 0.19785042 0.3365143 0.3203641 0.38768765 0.36241156 0.39054215 0.30979365
0.42185175 0.36059332 0.2180852 0.3689382
00000000: 6e9f c43d db2b 5b3e 374c 283e 6954 fc3c
00000010: 3704 c33c d4b0 223e 43ce ec3d 3d0d db3d
00000020: cba1 1f3c 069d 003e 9028 2f3d 1c9c 923e
00000030: 29eb fb3d 1197 df3c e1e1 833e 9e50 883e
00000040: 2f45 7e3e cfad 093e c22f 013e 91e1 6b3e
00000050: 5c1d 883e cfe1 683e 8393 c83d 2118 693c
00000060: c6a9 5c3e c854 253e 40a2 953e b69e 2b3e
00000070: b37a 4b3e d450 633e 4187 893e 50f8 5c3e
00000080: d138 933e aa85 553e 7066 2b3c 9a9c d5bc
00000090: ccec 80bd 48b3 22bc b436 973d 316f bc3c
000000a0: e304 ec3c 43bf e03d 572c b93c 991c 0fbd
000000b0: b2f8 6cbd aeaa 8cbd 3bfd 8b3c 89e2 e8bd
000000c0: 123f 9b3d 49ef febd 43d3 52bd 4062 673e
000000d0: cefb 9d3e 1745 ba3e 52f0 9f3e 298b ab3e
000000e0: 4df4 803e 4d99 4a3e 9a4b ac3e c306 a43e
000000f0: ff7e c63e 028e b93e 24f5 c73e 469d 9e3e
00000100: f4fc d73e b09f b83e ba51 5f3e 78e5 bc3e

FC.weight f4 [7, 17]
-0.5844226 0.043892097 -0.3436935 1.1556423 0.5242438 -0.3016375 0.015339141 -0.942943
-0.2392746 0.31513914 0.29965356 -0.26116988 -0.20150462 -0.3805122 -2.2020051 -2.01046
-0.47024003 -0.12915455 0.26880264 -0.51726514 -0.5415028 0.49504128 1.4057775 -0.24225748
-0.48505262 -0.4709014 -2.65788 0.5060647 -0.50976634 -0.4995618 -0.6136499 0.42501605
0.38022402 -0.5222375 0.001690028 0.13609669 -0.5486952 -0.6220524 0.5986411 -0.20899005
-0.06480808 -0.34359264 -0.2653186 0.5033166 -2.1571312 2.3658283 -0.2706546 -0.6375127
0.3791403 0.30642572 -0.5565371 0.7616924 0.29076892 2.4600203 -0.36369514 0.5953971
-0.29518384 0.109882474 -0.4247366 1.8313425 0.46208054 0.31615368 -0.44690004 -0.29208916
-0.6507406 0.30838713 0.3784167 -0.5105895 -0.43912512 1.0041884 -0.5183957 -0.4860917
0.35344782 -0.6668428 0.7313549 0.9586838 -0.31269044 0.40216598 0.45249912 -0.48224676
-0.2015 2.82397 0.42686576 0.20877853 -0.46023825 -0.13265267 -0.027184142 -0.41219753
-0.35506833 0.629392 -0.42072025 -0.36455038 -0.52158695 -0.1518158 0.3610743 0.45390698
-0.4494678 1.7387354 -0.4409398 0.35134867 0.30247068 2.6479714 0.021852037 -1.3528095
-0.4771735 -0.43396702 -2.7416701 -0.5594071 0.35965097 0.07660245 -0.44782266 0.484571
0.5149097 -0.45700186 -0.3639335 -0.6235821 0.356948 0.59989303 -0.48983964
00000000: b89c 15bf 33c8 333d 98f8 afbe 16ec 933f
00000010: d734 063f 3b70 9abe 0551 7b3c b664 71bf
00000020: 6704 75be eb59 a13e 316c 993e 0fb8 85be
00000030: 3a57 4ebe 7fd2 c2be a7ed 0cc0 60ab 00c0
00000040: 4dc3 f0be 1741 04be 80a0 893e 7d6b 04bf
00000050: ed9f 0abf 0d76 fd3e 84f0 b33f 5812 78be
00000060: d158 f8be fd19 f1be b51a 2ac0 758d 013f
00000070: 0c80 02bf 90c6 ffbe 2918 1dbf b49b d93e
00000080: b9ac c23e 5bb1 05bf ee83 dd3a ee5c 0b3e
00000090: 4a77 0cbf d33e 1fbf 8b40 193f 7d01 56be
000000a0: 19ba 84bd 60eb afbe d7d7 87be 5bd9 003f
000000b0: 700e 0ac0 bb69 1740 3d93 8abe 0834 23bf
000000c0: ad1e c23e d5e3 9c3e 3779 0ebf 46fe 423f
000000d0: aadf 943e f970 1d40 4036 babe f26b 183f
000000e0: 5622 97be 100a e13d 1377 d9be 6e69 ea3f
000000f0: d295 ec3e e5de a13e 15d0 e4be b68c 95be
00000100: f096 26bf ebe4 9d3e d5bf c13e feb5 02bf
00000110: 02d5 e0be 3f89 803f 95b5 04bf 03e1 f8be
00000120: 1df7 b43e 36b6 2abf 133a 3b3f 4d6c 753f
00000130: f618 a0be b3e8 cd3e f7ad e73e 0ce9 f6be
00000140: 0456 4ebe edbb 3440 268e da3e 0aca 553e
00000150: 59a4 ebbe 1ad6 07be 47b1 debc 8e0b d3be
00000160: 84cb b5be d61f 213f a568 d7be 59a6 babe
00000170: b986 05bf 9a75 1bbe bbde b83e 7f66 e83e
00000180: a520 e6be e28e de3f ddc2 e1be f9e3 b33e
00000190: 70dd 9a3e 5d78 2940 0b03 b33c dd28 adbf
000001a0: 1650 f4be ed30 debe 8677 2fc0 4e35 0fbf
000001b0: 2c24 b83e bfe1 9c3d 0349 e5be b119 f83e
000001c0: 1fd1 033f 26fc e9be 7e55 babe 14a3 1fbf
000001d0: e3c1 b63e 9792 193f 43cc fabe

FC.bias f4 [7]
-0.70243925 -0.2744959 -0.47610846 -0.3477312 -0.34068808 -0.34736213 -0.29007986
00000000: 0fd3 33bf ba8a 8cbe 7dc4 f3be d309 b2be
00000010: ab6e aebe 73d9 b1be 5985 94be
