data/parameters/parameters-16.pt (torch_old, 30845 bytes, 6 tensors)

rnn.weight_ih_l0 f4 [68, 89]
0	0xbcf4e274	-0.029893138
1	0x3e5babda	0.21452275
2	0x3d9ac4ca	0.07557066
3	0xbdad6dfc	-0.084682435
4	0xbd9ff3c6	-0.07810168
5	0xbd5b146d	-0.053486276
6	0x3d7269a9	0.059182797
7	0x3d7d2564	0.061803237
8	0x3d9cdb5a	0.076590255
9	0xbd0c781f	-0.034294244
10	0x3ae03ce5	0.0017107992
11	0xbe859d4c	-0.2609657
12	0x3e8db9fe	0.27680963
13	0x3cd66ca5	0.026174853
14	0xbd13dd5d	-0.03609978
15	0xbe564d6e	-0.20927975
16	0xbe59f24d	-0.21283837
17	0x3ea1c2be	0.3159389
18	0xbd5ba141	-0.05362058
19	0x3c69a7b8	0.014261179
20	0xbd7f9d09	-0.06240562
21	0x3ba8aa59	0.00514726
22	0x3cf9b647	0.030482424
23	0xbe034e44	-0.12822825
24	0x3e081ea8	0.13292944
25	0x3e8abab0	0.27095556
26	0x3dee24c5	0.11628107
27	0xbc9b0491	-0.018923076
28	0x3db82132	0.089907065
29	0xbe1cbf47	-0.15307342
30	0x3e371911	0.17880656
31	0x3d2b5b7a	0.041835286
32	0x3e190d3f	0.14946459
33	0xbc1b2a94	-0.009470601
34	0x3e05e023	0.13073783
35	0x3e106e56	0.1410459
36	0x3cfc01fb	0.030762663
37	0x3d6c585f	0.057701465
38	0x3e0d0054	0.13769656
39	0x3d1c9cdb	0.038235527
40	0x3d9d986e	0.07695089
41	0xbcc64ce2	-0.024206582
42	0x3d64340c	0.0557137
43	0x3d286b62	0.041118033
44	0xbe1b3970	-0.1515863
45	0x3d90a8d7	0.07063454
46	0x3d1523be	0.03641104
47	0xbc7814d8	-0.015141688
48	0xbdae2f56	-0.08505122
49	0x3c815fc8	0.015792742
50	0x3c6a9beb	0.0143194
51	0x3d89ea01	0.06734086
52	0x3cbff99a	0.023434449
53	0x3cddcd47	0.027075423
54	0x3c86ee5e	0.016471084
55	0x3d001704	0.03127195
56	0x3bd335c4	0.0064456183
57	0x3b78b37a	0.0037948773
58	0x3c7e0f81	0.015506626
59	0x3cddacf6	0.027060013
60	0xbc9d2435	-0.019182304
61	0x3d5034e3	0.050831687
62	0x3d961472	0.073281184
63	0x3c3d0425	0.011536633
64	0x3ce07d19	0.027403401
65	0x3ba0ab77	0.0049032527
66	0xbd5a941a	-0.053363897
67	0x3d773ddf	0.06036174
68	0x3c146f35	0.009059717
69	0x3d1ebe8f	0.03875595
70	0xbcc2100c	-0.023689292
71	0x3d20abe2	0.03922642
72	0x3d33c2db	0.043887
73	0x3d214293	0.03937013
74	0x3c9cb8e5	0.019131133
75	0x3a9ba1a7	0.0011873738
76	0x3d90e183	0.07074263
77	0x37cd48f8	2.4471883e-05
78	0x3c89d022	0.016822878
79	0x3c799c1a	0.015234971
80	0x3d2f3418	0.04277429
81	0x3cfebe2a	0.031096537
82	0x3db4ff73	0.088377856
83	0x3c9b9b59	0.018994974
84	0x3d14bf4d	0.03631525
85	0x3d8a4269	0.06750948
86	0x3d3bbb88	0.04583314
87	0x3dc83ca5	0.09777192
88	0x3d501fda	0.050811626
89	0x3dc612f7	0.09671586
90	0x3e4d35ee	0.20040104
91	0xbf0127af	-0.5045118
92	0x3e570d30	0.21001124
93	0x3df5bb43	0.11998608
94	0x3c74494a	0.014910052
95	0x3d9ffc06	0.078117415
96	0x3dcb1caf	0.0991758
97	0x3dd3271f	0.10310196
98	0xbefebd8b	-0.49753985
99	0x3e934e97	0.28770897
100	0x3cfa68f0	0.030567616
101	0x3db8d099	0.09024162
102	0x3dc11685	0.094281234
103	0x3d137abd	0.036005724
104	0x3aec4598	0.0018026112
105	0xbebca844	-0.36847126
106	0x3e1b46a2	0.15163663
107	0xbe13bc9a	-0.14427415
108	0xbddcf120	-0.107881784
109	0x3d66c0e2	0.05633629
110	0xbc7c15c3	-0.015386048
111	0xbe86e61e	-0.2634744
112	0x3bacb156	0.0052701635
113	0x3e1e52c3	0.15461259
114	0x3e308995	0.17239983
115	0xbecbd8e2	-0.39813906
116	0x3e37802b	0.17919986
117	0x3e3f823b	0.18702023
118	0x3e5a8048	0.21337998
119	0x3e438e29	0.19097199
120	0xbdab5ffc	-0.08367917
121	0x3bb2ee21	0.005460516
122	0x3df530f2	0.11972226
123	0x3dc14d39	0.09438557
124	0x3d160f17	0.036635485
125	0x3d852a08	0.065021574
126	0xbbff5b49	-0.0077928645
127	0x3c7ec9ef	0.015551074
128	0xbc558a50	-0.013033465
129	0xbd102268	-0.035189062
130	0x3d68f267	0.056871798
131	0x3d7d0106	0.061768554
132	0xbd808e8f	-0.06277191
133	0x3e50eca2	0.20402768
134	0x3d333e86	0.0437608
135	0x3d51aaf6	0.05118843
136	0x3b94d25b	0.004541678
137	0xbd49c22f	-0.049257454
138	0x3d71ff53	0.059081387
139	0x3d7846e1	0.06061447
140	0x3cc55866	0.024090003
141	0x3dded8be	0.10881184
142	0x3ce8f807	0.028438581
143	0x3c8ee685	0.017443905
144	0x3daa218e	0.08307181
145	0x3b01c99a	0.0019804002
146	0x3bf7060e	0.0075385636
147	0x3cfe1fbc	0.031020992
148	0xbcdd7663	-0.02703399
149	0xbb39da78	-0.0028358977
150	0x3cd35a8a	0.025800008
151	0x3bea712c	0.0071546044
152	0x3db39f2d	0.08770595
153	0xbb1e2d05	-0.002413572
154	0x3d916afe	0.07100485
155	0x39641b2e	0.000217539
156	0xbcdaead8	-0.02672331
157	0x3d89dd00	0.067316055
158	0x3d022a83	0.031778824
159	0x3e9a859f	0.3018007
160	0x3d566507	0.05234244
161	0x3d444c47	0.047924306
162	0x3d3c467c	0.045965657
163	0x3dc8c02e	0.0980228
164	0x3d6d3681	0.057913307
165	0xbb33cf93	-0.0027436956
166	0x3e862ceb	0.26206145
167	0x3c9c5786	0.019084703
168	0x3cc95e0d	0.02458098
169	0x3b2c0e6b	0.002625371
170	0x3d571d97	0.052518453
171	0x3dc2d2cc	0.095128626
172	0x3df74266	0.12073211
173	0xbe0ba4c9	-0.1363708
174	0x3dd581fa	0.10425182
175	0x3d4afaa9	0.049555454
176	0x3e0dfdef	0.13866399
177	0x3defa0fb	0.117006265
178	0x3bdab61e	0.006674542
179	0x3b893b95	0.004188011
180	0x3de4ed61	0.11178089
181	0x3cbebc02	0.023283008
182	0x3e120d9e	0.14263007
183	0x3bfac5ce	0.0076529747
184	0x39f4a1e6	0.0004665993
185	0x3e697fe2	0.2280269
186	0xbcab0046	-0.020874154
187	0x3d567d20	0.052365422
188	0xbd63b869	-0.05559579
189	0x3d277b2a	0.040888943
190	0xbd057924	-0.03258623
191	0x3dacf6e6	0.0844553
192	0x3caf0a4b	0.021367213
193	0x3d556c07	0.052104976
194	0x3da23bc8	0.079215586
195	0x3cba7419	0.022760438
196	0x3deff309	0.11716277
197	0x3d0ded75	0.034650285
198	0x3cb8de85	0.022567043
199	0x3c6902a0	0.014221817
200	0x3e2b3fec	0.16723603
201	0x3da05879	0.07829375
202	0x3e4062b3	0.18787651
203	0x3e8f5785	0.2799646
204	0x3e1e21dc	0.15442604
205	0x3e4b4852	0.19851807
206	0x3e15f448	0.14643967
207	0x3e65d3d2	0.22444084
208	0x3e7dfe15	0.24803956
209	0xbcefe7f0	-0.029285401
210	0x3db78703	0.08961298
211	0x3d23d5fe	0.039999
212	0x3dc823eb	0.09772476
213	0x3d1b8fbf	0.037978884
214	0xbc9d0f07	-0.019172205
215	0x3d1512bc	0.03639482
216	0x3d495e9f	0.049162503
217	0x3da0cc01	0.07851411
218	0xb5fa4033	-1.8645136e-06
219	0x3d034cc8	0.032055646
220	0x3d86a87b	0.06575104
221	0xbcf7b601	-0.030238153
222	0xbd85ca8b	-0.06532773
223	0x3d0024bf	0.031285044
224	0xbc2eb5ec	-0.010663491
225	0x3d0132c1	0.031542543
226	0x3d5736f5	0.052542645
227	0xbbbea0b3	-0.0058174967
228	0xbca7baba	-0.02047478
229	0x3d58631a	0.052828886
230	0x3d99ddc9	0.07513005
231	0xbc5eb96e	-0.013594015
232	0x37b69ca3	2.176903e-05
233	0x3c99526f	0.018716065
234	0x390dae8c	0.00013511832
235	0x3b86ee82	0.004117788
236	0x3bb17f02	0.005416752
237	0x3b99d57f	0.00469464
238	0xbd15e2e3	-0.03659333
239	0x3d1e54c1	0.038655046
240	0x3ce685ba	0.028139938
241	0x3d19ef87	0.037581947
242	0x3cc8262d	0.024432266
243	0x3da69cc2	0.08135368
244	0x3c815a9f	0.015790282
245	0x3d12e66f	0.03586429
246	0x3d79e3dd	0.061008323
247	0x3c9e6996	0.019337457
248	0x3bea9cc4	0.007159801
249	0x3cdccdda	0.026953626
250	0x3ce71bb6	0.028211456
251	0x3c7b47e6	0.015336966
252	0x3bc027e5	0.005864131
253	0x3d2a5162	0.04158152
254	0x3b0accdf	0.0021179242
255	0xbc98a1bc	-0.018631808

rnn.weight_hh_l0 f4 [68, 17]
0	0xbe0fd33e	-0.14045426
1	0x3cba9db0	0.02278027
2	0x3da2788f	0.07933151
3	0x3df7b4b5	0.12095014
4	0x3dc993e4	0.09842661
5	0x3d6c554e	0.05769854
6	0xbdcfd07b	-0.10147186
7	0xbcbef952	-0.023312245
8	0x3d993824	0.07481411
9	0xbd0e493e	-0.034737818
10	0x3dcdb289	0.100438185
11	0x3dcee777	0.10102742
12	0xbda60ea5	-0.08108262
13	0xbd632f88	-0.05546525
14	0x3e1941d3	0.14966516
15	0xbd9c631a	-0.076360896
16	0xbdbc4fec	-0.091949314
17	0xbc0acc41	-0.0084715495
18	0x3d3995d7	0.045308914
19	0x3d0663f5	0.03281017
20	0x3aded15a	0.0016999647
21	0x3b86172e	0.0040921187
22	0x3d0746a6	0.03302636
23	0x3dd424f0	0.10358608
24	0xbd6bfd88	-0.057614833
25	0x3e4dee97	0.20110546
26	0x3cf76653	0.03020016
27	0xbcb82fa1	-0.022483649
28	0xbd8feeb5	-0.07027952
29	0xbd22a24b	-0.039705556
30	0xbdfd9a54	-0.123829514
31	0x3db5aa2f	0.088703506
32	0xbdaa4669	-0.08314211
33	0x3c55cdc0	0.013049543
34	0xbd146e49	-0.03623799
35	0xbd17b469	-0.037037287
36	0x3e1b4beb	0.15165679
37	0x3da967ad	0.08271728
38	0x3d49ad25	0.04923739
39	0xbd5b0869	-0.053474817
40	0xbd09009c	-0.033447847
41	0xbd104f39	-0.035231803
42	0x3dff7605	0.12473682
43	0x3d270f73	0.040786218
44	0xbc024268	-0.007950403
45	0x3c805813	0.015666997
46	0xbd28fdc4	-0.041257635
47	0x3d7d5e5c	0.061857566
48	0x3ddd762b	0.108135544
49	0xbd2317ef	-0.039817747
50	0x3d9cd522	0.07657839
51	0xbe0081d8	-0.12549531
52	0xbe1d2f4c	-0.15350074
53	0x3d8bb5a0	0.068217516
54	0x3dfbb18a	0.12289722
55	0x3c937cc6	0.018003833
56	0xbcad3e4f	-0.021147875
57	0x3afad063	0.001913559
58	0x3d01f4ca	0.03172759
59	0xbd466e49	-0.04844502
60	0x3dba1e79	0.090878434
61	0x3dd3ab73	0.10335436
62	0x3b829620	0.0039851815
63	0x3d6b25e8	0.057409197
64	0xbde85756	-0.11344783
65	0x3d457abf	0.048212763
66	0xbc006e7f	-0.007838844
67	0xbd999174	-0.07498446
68	0x3da4c0e8	0.080446064
69	0xbd497b27	-0.049189713
70	0x3dbc1b0b	0.091848455
71	0x3e138319	0.14405479
72	0xbe141f33	-0.14465027
73	0x3d21bc57	0.039486255
74	0x39f2146f	0.0004617306
75	0xbc9e0be8	-0.019292787
76	0x3e66a9d3	0.2252572
77	0x3d499bd9	0.049220894
78	0xbd053c40	-0.032528162
79	0xbcdbe375	-0.026841858
80	0xbd44feeb	-0.04809467
81	0x3d2082f0	0.03918737
82	0x3d418190	0.0472427
83	0xbc316253	-0.010826665
84	0xbcac79fa	-0.021054257
85	0xbd778e05	-0.060438175
86	0xbda27454	-0.07932344
87	0x3c817611	0.015803369
88	0x3e3e0211	0.18555476
89	0xbd5c2631	-0.05374736
90	0x3b303afb	0.0026890624
91	0xbd163c0e	-0.036678366
92	0x3c991c60	0.018690288
93	0x3e96b820	0.2943735
94	0x3e039292	0.12848881
95	0xbb11c72d	-0.0022243962
96	0x3d79bf25	0.060973305
97	0x3a920044	0.0011138995
98	0x3d91fa3f	0.07127809
99	0x3ceaca5a	0.028660942
100	0xbd262952	-0.04056675
101	0x3d92d61d	0.07169745
102	0xbd96d2c3	-0.07364418
103	0x3d47b813	0.04875953
104	0x3dfa93fc	0.12235257
105	0xbd71ece9	-0.059063826
106	0xbdfa5919	-0.12224025
107	0xbd8fe1e1	-0.07025505
108	0x3c925889	0.017864482
109	0x3d1356cf	0.03597146
110	0x3c85638f	0.016282825
111	0xbd86c0d4	-0.06579748
112	0x3dd7a53b	0.10529562
113	0xbda41d48	-0.080133975
114	0xbdc81a7f	-0.09770679
115	0xbda347c7	-0.07972675
116	0xbd5d8f61	-0.054091815
117	0xbd8d73be	-0.06906842
118	0x3d0e1a82	0.03469325
119	0xbcc2ee77	-0.02379535
120	0xbde87205	-0.113498725
121	0x3e1c4094	0.1525901
122	0x3c6d487b	0.014482613
123	0xbd067964	-0.03283061
124	0x3cb59ee6	0.022170495
125	0x3de71d99	0.11284942
126	0xbd623149	-0.055222783
127	0x3c327926	0.010893142
128	0xbc9b5d9b	-0.018965533
129	0x39ab03b9	0.00032618435
130	0xbbfdcb78	-0.0077452026
131	0x3d4e614c	0.05038576
132	0xbd949132	-0.07254256
133	0x3d8a51ac	0.06753859
134	0x3c12a0d5	0.008949478
135	0x3d58b08d	0.052902747
136	0xbcfbab4a	-0.030721325
137	0xbdb16e98	-0.08663672
138	0xbc2770a5	-0.010219728
139	0xbd0fea00	-0.03513527
140	0xbe29bcf1	-0.16575982
141	0x3cdcba28	0.026944235
142	0xbc7d8266	-0.015472984
143	0x3db9d21f	0.090732805
144	0x3e130e8b	0.14361016
145	0x3c88a3a9	0.016679602
146	0x3d9396f2	0.07206525
147	0xbcbf59cd	-0.02335825
148	0xbcbe24c5	-0.023210892
149	0x3d9a8b51	0.07546104
150	0x3c1fffc6	0.009765571
151	0x3b3fdde9	0.0029276556
152	0xbce4f377	-0.027948124
153	0xbb044177	-0.0020180622
154	0xbd5c6a0d	-0.053812075
155	0xbe3bd610	-0.18343377
156	0x3d930fba	0.07180734
157	0xbd06367d	-0.032766808
158	0xbd04fa72	-0.032465406
159	0x3ceeda0c	0.029156707
160	0x3ce7634b	0.028245589
161	0xbde61b03	-0.11235621
162	0x3d5829f7	0.052774396
163	0x3df8296b	0.12117275
164	0xbcf01ee5	-0.029311607
165	0x3cf87f28	0.03033407
166	0xbcfac9c0	-0.03061378
167	0x3ce45347	0.027871741
168	0xbdfef6f8	-0.12449449
169	0x3b358ce9	0.0027702397
170	0xbc8f6d1d	-0.017508084
171	0xbd1c0b53	-0.038096737
172	0x3e33d576	0.17561898
173	0xbdce9dc6	-0.10088687
174	0x3cf8c892	0.030369077
175	0x3d9cee83	0.0766268
176	0x3dbf30ad	0.09335456
177	0xbdf36b3a	-0.11885686
178	0x3dcb5fa9	0.09930355
179	0x3d11f56b	0.03563444
180	0xbcddece1	-0.027090492
181	0xbe030bfd	-0.12797542
182	0xbdc8bb2b	-0.098013245
183	0xbd7fea75	-0.062479455
184	0x3de1589b	0.11003228
185	0x3d2ece78	0.042677373
186	0xbd2b0a01	-0.041757587
187	0x3c79237d	0.015206215
188	0xbdaa14ef	-0.08304774
189	0x3dabee27	0.08395033
190	0x3d4d79ef	0.050165113
191	0x3e2bef52	0.16790512
192	0x3d20abec	0.039226457
193	0xbcd5a995	-0.02608184
194	0xbdac6d09	-0.08419234
195	0x3db4c506	0.08826642
196	0xbcaa989f	-0.020824729
197	0x3cc7bff6	0.024383526
198	0x3d1faef7	0.03898522
199	0xbd9df745	-0.077131785
200	0xbda265d3	-0.07929578
201	0xbd2d51a8	-0.0423142
202	0xbdc028b8	-0.093827665
203	0xbcd49219	-0.025948571
204	0xbcd30d96	-0.025763314
205	0xbd40c41a	-0.047062017
206	0x3d819431	0.063270934
207	0x3c5251b2	0.0128368605
208	0x3d06713b	0.03282283
209	0xbc9412b2	-0.01807532
210	0xbc440840	-0.011964858
211	0xbcf80770	-0.030276984
212	0x3d7bba58	0.061457008
213	0x3c5bf97b	0.01342618
214	0xbc080cae	-0.008303804
215	0xbdf4a3f9	-0.11945338
216	0xbd58e799	-0.052955244
217	0x3d55f7f9	0.05223844
218	0x3d77d6fb	0.060507756
219	0xbda086ff	-0.078382485
220	0xbc8f8b24	-0.017522402
221	0xbe0f8e3e	-0.14019105
222	0xbd4d425e	-0.05011212
223	0xbd1a41d3	-0.03766043
224	0xbd5a2fa8	-0.053268105
225	0xbd1678e8	-0.0367364
226	0x3d10a534	0.0353138
227	0x3cf1b972	0.029507373
228	0x3dab7700	0.08372307
229	0x3dd8b7be	0.10581921
230	0x3d3f4fd9	0.046707008
231	0x3daa817d	0.08325479
232	0x3d005b13	0.031336855
233	0xbd1e1aad	-0.03859966
234	0x3d213564	0.039357558
235	0x3cddaa5c	0.027058773
236	0xbc92a461	-0.017900648
237	0xbb165f5d	-0.0022945025
238	0x3c8387a0	0.016055882
239	0xbd795176	-0.060868703
240	0x3d6b97a7	0.057517674
241	0x3e78573d	0.24252029
242	0x3d6cc990	0.057809412
243	0xbde26c69	-0.11055834
244	0x3ccc8317	0.024964852
245	0x3bd4d350	0.006494917
246	0x3d4a53f5	0.049396474
247	0x3a88d333	0.0010438919
248	0x3a8f754d	0.0010944993
249	0xbca14373	-0.019685483
250	0x3baa0542	0.005188615
251	0x3d5037e4	0.05083455
252	0xbe2b808e	-0.16748258
253	0xbda8c764	-0.08241156
254	0x3d98f5c6	0.074687526
255	0xbd6e7cd1	-0.058224503

rnn.bias_ih_l0 f4 [68]
0	0x3e234e1a	0.15947762
1	0x3e56e2ec	0.20985001
2	0x3e9a0d58	0.30088305
3	0x3e817cf7	0.25290653
4	0x3e5e7aa5	0.21726473
5	0x3e8275a1	0.2548037
6	0x3e59a034	0.21252519
7	0x3e585ce0	0.21129179
8	0x3e4aecc2	0.19816878
9	0x3d5ce358	0.05392775
10	0x3e581e89	0.21105398
11	0x3dd5ba0a	0.10435875
12	0x3e2947b1	0.16531254
13	0x3e88c239	0.2671068
14	0x3e65dc77	0.22447382
15	0x3e73697d	0.2377071
16	0x3e33340d	0.17500325
17	0x3e678199	0.22608031
18	0x3e624ab6	0.22098812
19	0x3e4ce53a	0.20009318
20	0x3e805a13	0.2506872
21	0x3df8ecf6	0.12154572
22	0x3dee38c6	0.116319224
23	0x3e202a5b	0.15641157
24	0x3e47052d	0.19435568
25	0x3e01ee38	0.1268853
26	0x3e89d54b	0.26920542
27	0x3df1808f	0.11792099
28	0x3e363690	0.17794251
29	0x3e0af9e8	0.13571894
30	0x3e90cc86	0.2828104
31	0x3e4403e9	0.19142117
32	0x3e8fbfa8	0.2807591
33	0x3e42e58c	0.19032878
34	0xbdc1870f	-0.094495885
35	0x3d6d1acf	0.057886895
36	0x3d5b24d3	0.053501915
37	0xbc11f3cb	-0.008908222
38	0xbd19aa8d	-0.037516166
39	0x3b8857bb	0.004160849
40	0xbda82a3e	-0.08211182
41	0xbd7f5d10	-0.06234461
42	0x3ae2c81b	0.0017302068
43	0xbb577380	-0.003287524
44	0xbcc24339	-0.023713695
45	0x3d1e56c1	0.038656954
46	0x3d18043b	0.03711341
47	0x3c9ee794	0.019397534
48	0xbbaf28df	-0.0053454484
49	0x3c329d8d	0.010901821
50	0x3c782638	0.015145831
51	0x3eba2d47	0.3636267
52	0x3ede3f20	0.43407536
53	0x3e852efd	0.26012412
54	0x3ef580a0	0.47949696
55	0x3ec6c850	0.388247
56	0x3eab2ecf	0.3343415
57	0x3e8971bb	0.26844582
58	0x3ed52dcc	0.41636503
59	0x3ebf7a0a	0.37397796
60	0x3e905b51	0.2819467
61	0x3e8f6f32	0.28014523
62	0x3eb4ac0b	0.35287508
63	0x3e9f7c64	0.3114959
64	0x3ed94658	0.4243648
65	0x3ee3a8f1	0.4446483
66	0x3eee5923	0.4655238
67	0x3ea5111b	0.32239613

rnn.bias_hh_l0 f4 [68]
0	0x3e234d2f	0.15947412
1	0x3e56e2e8	0.20984995
2	0x3e9a0d57	0.30088302
3	0x3e817cf8	0.25290656
4	0x3e5e7a98	0.21726453
5	0x3e8275a0	0.25480366
6	0x3e59a02f	0.21252511
7	0x3e585ce4	0.21129185
8	0x3e4aefac	0.1981799
9	0x3d5cdef1	0.05392355
10	0x3e581e88	0.21105397
11	0x3dd5a6c4	0.10432199
12	0x3e294785	0.16531189
13	0x3e88c235	0.26710668
14	0x3e65dc78	0.22447383
15	0x3e73697d	0.2377071
16	0x3e333410	0.17500329
17	0x3e681770	0.2266519
18	0x3e624ab3	0.22098808
19	0x3e4c177a	0.1993083
20	0x3e805a0e	0.25068706
21	0x3df8ed12	0.121545926
22	0x3dee38bb	0.11631914
23	0x3e202a56	0.1564115
24	0x3e47052a	0.19435564
25	0x3e01eecc	0.1268875
26	0x3e89e575	0.26932874
27	0x3df1808f	0.11792099
28	0x3e3637d9	0.17794742
29	0x3e09ad0d	0.1344492
30	0x3e90cc85	0.28281036
31	0x3e4403e9	0.19142117
32	0x3e8fbfa8	0.2807591
33	0x3e42e550	0.19032788
34	0x3dcc1323	0.099645875
35	0xbce08a98	-0.027409837
36	0x3d69bc9e	0.057064645
37	0xbca7c9d3	-0.02048198
38	0xbc936513	-0.017992532
39	0xbb183155	-0.0023222764
40	0x3d9b834b	0.075934015
41	0xbd19cdac	-0.03754966
42	0xbd6d0e7d	-0.057875145
43	0x3c58bf21	0.013229162
44	0x3dbe7125	0.09298924
45	0x3d7087b2	0.05872316
46	0xbd9d0b2d	-0.07668147
47	0x3d267847	0.04064205
48	0xbd6ce0a1	-0.05783141
49	0xbd201c2b	-0.039089363
50	0xbd15ffdd	-0.036620963
51	0x3eba2d42	0.36362654
52	0x3ede3f22	0.43407542
53	0x3e852786	0.26006716
54	0x3ef5809e	0.4794969
55	0x3ec6c851	0.38824704
56	0x3eab2ece	0.33434147
57	0x3e8971ba	0.2684458
58	0x3ed52dc7	0.41636488
59	0x3ebf7a0b	0.373978
60	0x3e905b50	0.28194666
61	0x3e8f6f2d	0.28014508
62	0x3eb4ac0c	0.3528751
63	0x3e9f7bcb	0.31149134
64	0x3ed94653	0.42436466
65	0x3ee3a8f2	0.44464833
66	0x3eee5922	0.46552378
67	0x3ea5111f	0.32239625

FC.weight f4 [7, 17]
0	0x3db20a32	0.08693351
1	0xbef1d359	-0.47231558
2	0x40198f7e	2.399383
3	0x3f118c57	0.56854767
4	0x3eea607b	0.45776734
5	0xbcb2d213	-0.021828687
6	0xbedea358	-0.43483996
7	0x400343fb	2.0510242
8	0xbf7638a9	-0.96180207
9	0xbf0585c3	-0.5215723
10	0xbe9c54e3	-0.30533513
11	0xbec4c584	-0.38431942
12	0x3e04e82d	0.12979193
13	0x3ea3ad44	0.3196813
14	0x3ee67dcc	0.4501785
15	0xbf0a998f	-0.5414056
16	0xbed29486	-0.4112894
17	0x3fb2211f	1.3916358
18	0xbf1ae2a3	-0.6050207
19	0xbee9e1f0	-0.4568019
20	0x3ed32005	0.41235366
21	0xc01721a8	-2.3614292
22	0x3f35f75c	0.71080565
23	0x3e97d9ab	0.29658255
24	0xbe916724	-0.28399003
25	0x3fab7607	1.3395394
26	0xbc594ea9	-0.013263383
27	0xbf591b5f	-0.8480739
28	0xbef00214	-0.46876585
29	0x3dedc8fc	0.116106
30	0x3ee96a1e	0.45588773
31	0x3eecf238	0.46278548
32	0xbeb42bae	-0.35189575
33	0xbefe9e85	-0.49730316
34	0xbda05e43	-0.07830479
35	0x40290bf3	2.6413543
36	0xbee1100c	-0.43957555
37	0x3ec3c95f	0.3823957
38	0x3ed283ff	0.4111633
39	0x3d87aab0	0.06624353
40	0x3e4829c7	0.19547187
41	0xbea8cd40	-0.32969093
42	0xbf05a976	-0.522117
43	0x3fc1bd63	1.5135921
44	0xbe11d47e	-0.14241216
45	0xbeaa2171	-0.3322864
46	0x3f089dd3	0.5336582
47	0x3f159310	0.58427525
48	0x3f19fd2a	0.6015192
49	0xbf2866be	-0.6578177
50	0xbe979053	-0.29602298
51	0x3eb3ae8a	0.350941
52	0xbeab5df6	-0.33470124
53	0xbebc2c3c	-0.36752498
54	0xc01bfea9	-2.4374182
55	0x3f2216d6	0.63316095
56	0xbf85a803	-1.0441898
57	0xbea91c2e	-0.33029312
58	0xbeb56d95	-0.35435167
59	0xbd4c208a	-0.04983572
60	0xbd93b24b	-0.07211741
61	0x3ed0d783	0.40789422
62	0xbe13ec11	-0.14445521
63	0xbf8ef5a8	-1.1168718
64	0x3e9be8f5	0.3045117
65	0x3f1bf797	0.6092467
66	0xbec2af3d	-0.3802432
67	0xbe0103dc	-0.12599128
68	0x3dbf1b0a	0.09331329
69	0xbf08211a	-0.5317551
70	0xbed356b7	-0.41277096
71	0x3e270179	0.16309156
72	0x3f09e47e	0.53864276
73	0x3df932b1	0.12167872
74	0x3f4a3c5e	0.78998363
75	0xbf170462	-0.5899106
76	0xbf02c920	-0.5108814
77	0xbeba1206	-0.36341876
78	0xbe320582	-0.17384914
79	0x4002f494	2.0461779
80	0x3f0ee006	0.5581058
81	0xc0020240	-2.0313873
82	0x3e9b75d5	0.30363336
83	0xbf2b1d73	-0.6684181
84	0xbe87582f	-0.26434466
85	0xbf87d0a7	-1.0610551
86	0xbf4fe02f	-0.8120145
87	0xbedb2b05	-0.4280626
88	0x3ea230df	0.3167791
89	0x3f14d4cb	0.58137196
90	0xbdf71afa	-0.12065692
91	0x3f0dfa7f	0.5546035
92	0xbec65d69	-0.3874314
93	0x3e241368	0.16023028
94	0xbecf9e55	-0.40550485
95	0x3ec58a9b	0.3858231
96	0xbf00232e	-0.5005368
97	0x3f3c8ecc	0.7365539
98	0x3ef692d0	0.48158884
99	0x3f38b3d8	0.7214942
100	0x40292e4c	2.6434507
101	0xbe95bb56	-0.29244488
102	0x3e9156ac	0.28386438
103	0xbf0f59f2	-0.5599662
104	0xbf0b9907	-0.54530376
105	0x3ef99e1b	0.48753437
106	0x3f14b758	0.5809226
107	0x3e886838	0.26642013
108	0xbd3c3443	-0.04594828
109	0xbe9af704	-0.30266583
110	0xbeb4b51c	-0.35294425
111	0xbe9748b5	-0.2954766
112	0xbda91b9e	-0.08257221
113	0xbecc825d	-0.3994321
114	0x3e54d6fd	0.20785137
115	0x3f069cce	0.52583015
116	0xc01832aa	-2.3780923
117	0xbf04a4c9	-0.5181394
118	0x3ffce59f	1.9757575

FC.bias f4 [7]
0	0xbf734b49	-0.9503675
1	0xbf092cca	-0.5358397
2	0xbe9aeffc	-0.3026122
3	0xbe9a6044	-0.3015157
4	0xbf013db3	-0.5048477
5	0xbe876955	-0.2644755
6	0xbe8854eb	-0.26627287
