data/parameters/parameters-1.pt (torch_old, 30840 bytes, 6 tensors)

rnn.weight_ih_l0 f4 [68, 89]
00000000: 7878 4c3e 653c 0000 5638 0000 5911 0080
00000010: f84b 0080 c215 0080 a305 0280 b423 0080
00000020: f724 4bbb fdac 4c3c 9a20 5d3c 2f8e 263e
00000030: 7f84 113c d426 ac3b 22e4 ca3b 9104 453d
00000040: 7b0e c33d 187b 5e3c 25b2 3d3d 5461 233d
00000050: c227 9d3d 7d06 0000 1580 bc3d 58bd 9a3d
00000060: 580f 4e3e 69e2 2a3e c41c 1e3e 4af9 383e
00000070: 15ce 2a3e dd27 2d3e a75e 2a3e b932 0080
00000080: 2b20 0080 2167 0080 d950 0080 f31c 0000
00000090: 4f48 0080 b335 0080 eb25 0000 6a32 0080
000000a0: 1269 0100 f22c 0080 904c 0080 402e 0080
000000b0: 4619 0000 6e0a 0080 1a31 0080 141e 0000
000000c0: 3232 0080 3654 0000 2f45 0000 d602 0080
000000d0: 555f 0000 d2b4 0080 4c23 0080 423b 0000
000000e0: 744f 0000 7043 0000 2b26 0080 8920 0080
000000f0: e731 0080 f537 c23c 515b fb3c 44f9 fe3c
00000100: aaa4 d83c 8918 fc3c 6490 c63c 3aeb 053d
00000110: 1969 653c 0ef6 83b9 efdc 8db9 5801 83ba
00000120: 9de0 963c 344e 1439 dd34 fc39 0b1d 0000
00000130: 9459 0000 4c27 0080 fe6a 0080 9220 0080
00000140: d518 0080 1d35 0000 6638 c23c 865d fb3c
00000150: 77f9 fe3c 09a4 d83c 4918 fc3c 9593 c63c
00000160: 19eb 053d ee33 3d3e b44e 0000 a249 0000
00000170: c245 0080 0c6c 0000 3e2b 0080 fa32 0080
00000180: bb35 0000 8acc 27bb 548b 363b c093 933b
00000190: ffd8 2a3e 49af 653c 2573 57ba b2f1 e93a
000001a0: 722e 183d 0d0e a03d 2e53 753d ee01 2b3d
000001b0: b3f9 b63d 5ced 343d 9682 0000 7ae8 093e
000001c0: c2a4 293d 5af0 3e3e d395 2c3e 7a42 253e
000001d0: 6dc6 143e 1900 2d3e 3a7e 3c3e a9cd 323e
000001e0: 0326 0080 2ca4 0180 2441 0080 1e30 0080
000001f0: 8e37 0080 df0f 0080 dc69 0080 2520 0000
00000200: e733 0080 0d37 0080 cf27 0000 9b6a 0000
00000210: de1f 0080 9d13 0180 0523 0080 7eb2 0000
00000220: 05fe 0000 1471 0100 5ba6 0080 e55e 0000
00000230: 1038 0000 8743 0000 4432 0080 85d0 0080
00000240: 962e 0000 4250 0000 3f04 0080 0176 bc19
00000250: 324b 0080 8a05 0080 9159 aa3c 721a c13c
00000260: 0023 d73c 0e80 223d 0eea d33c 3d08 ba3c
00000270: 6e15 d43c 3b24 d5bb a2cc b7b8 7837 01b9
00000280: 9009 9c3a 19e5 aebb e4bc 03ba 297d b539
00000290: 4e77 0080 aff2 0600 fd1c 0080 1759 0000
000002a0: d00e 0080 7d3d 0000 2e36 0080 5761 aa3c
000002b0: 871b c13c 2924 d73c 1f82 223d 3ce8 d33c
000002c0: 9e17 ba3c 5415 d43c 39b0 513e ea43 0000
000002d0: e352 0080 cc02 0000 6200 0080 7f5a 0080
000002e0: bf16 0000 8659 0000 ebd8 d13b c430 5f3b
000002f0: 3ade b03c 39ee 203e e9fb f23b 1b2f 103c
00000300: 9b0e 413b a4cf 1e3d 3607 b13d d5b8 403d
00000310: bfef 1c3d 3619 983d 77c0 7f3d c46c 0100
00000320: f079 f13d 5d5a 6b3d b2ab 493e 471b 2c3e
00000330: b175 2a3e e98e 2a3e 7424 383e 4596 2e3e
00000340: 79c3 3b3e 20e8 0000 17d1 1e22 1b70 0080
00000350: 3c77 0080 0905 0080 fb87 061e 94c0 0080
00000360: 4634 0000 5642 0080 7c3f 0000 0929 0000
00000370: 7a5f 0080 1c0b 0080 436d 0080 4ccd 0280
00000380: 7035 0080 4d29 0000 6943 0080 e584 0000
00000390: 7963 0080 7c7b 0080 63cb 17a6 7415 0080
000003a0: 44a5 0080 d546 0080 a749 0080 132e 0000
000003b0: c339 0000 f158 0080 9553 0080 6f19 f33c
000003c0: f5c0 e73c e413 d33c cd4b e53c a424 db3c
000003d0: 9325 083d 6a6a 073d ad67 9039 7f04 fd39
000003e0: a512 2339 21ae 13ba f03d 33bb 6e6f 3439
000003f0: 6d29 af39 dd5f 0080 c302 0000 cd6f 0080
0.1996783 2.1665e-41 2.021e-41 -6.223e-42 -2.7252e-41 -7.805e-42 -1.85693e-40 -1.2808e-41
-0.0030997375 0.0124924155 0.013496542 0.16265176 0.008881687 0.005253652 0.0061917463 0.048100058
0.09524246 0.0135791525 0.04631247 0.03988774 0.07673599 2.328e-42 0.09204117 0.07555646
0.2012304 0.16687931 0.1544066 0.18063846 0.16680177 0.16909738 0.1663767 -1.8196e-41
-1.154e-41 -3.6996e-41 -2.9003e-41 1.0385e-41 -2.594e-41 -1.9264e-41 1.3602e-41 -1.8085e-41
1.29528e-40 -1.6123e-41 -2.7465e-41 -1.6591e-41 9.066e-42 -3.741e-42 -1.7614e-41 1.079e-41
-1.8007e-41 3.0209e-41 2.4818e-41 -1.017e-42 3.4199e-41 -6.4866e-41 -1.2662e-41 2.1258e-41
2.8502e-41 2.4192e-41 -1.3692e-41 -1.1671e-41 -1.7902e-41 0.023708323 0.030683191 0.031124718
0.026445705 0.030773418 0.024238773 0.032695033 0.014002108 -0.00025169592 -0.00027058224 -0.0009994907
0.01841765 0.00014143513 0.00048104572 1.0419e-41 3.2135e-41 -1.4097e-41 -3.8382e-41 -1.1684e-41
-8.908e-42 1.9053e-41 0.023708533 0.030684244 0.031124813 0.026445406 0.030773299 0.024240294
0.03269491 0.18476841 2.8233e-41 2.6414e-41 -2.5024e-41 3.876e-41 -1.5512e-41 -1.8287e-41
1.9275e-41 -0.0025604093 0.0027854042 0.004503697 0.1668434 0.014018842 -0.0008218757 0.001784852
0.03715367 0.0781518 0.05989378 0.041749887 0.08934345 0.044171676 4.6845e-41 0.13467589
0.04141689 0.18646374 0.16854028 0.1613864 0.14528818 0.16894569 0.18407527 0.17461266
-1.3636e-41 -1.50729e-40 -2.3368e-41 -1.7261e-41 -1.9929e-41 -5.693e-42 -3.7975e-41 1.1531e-41
-1.8619e-41 -1.9748e-41 1.428e-41 3.8243e-41 -1.1432e-41 -9.8871e-41 -1.2563e-41 6.4031e-41
9.1125e-41 1.324e-40 -5.9677e-41 3.4042e-41 2.0111e-41 2.4224e-41 -1.8032e-41 -7.4803e-41
1.6712e-41 2.8791e-41 -1.523e-42 1.9486406e-23 -2.6975e-41 -1.987e-42 0.020794662 0.02357218
0.026261806 0.039672904 0.025868442 0.022709006 0.025889125 -0.006504563 -8.764236e-05 -0.00012323062
0.0011904705 -0.005337369 -0.00050254003 0.00034616262 -4.2798e-41 6.38071e-40 -1.0399e-41 3.196e-41
-5.314e-42 2.2058e-41 -1.9436e-41 0.020798368 0.023572696 0.02626236 0.039674874 0.025867574
0.02271634 0.025889076 0.2047738 2.4363e-41 -2.9734e-41 1.003e-42 -1.37e-43 -3.2464e-41
8.16e-42 3.2115e-41 0.0064040325 0.0034056166 0.02159034 0.15715875 0.007415284 0.008800293
0.0029458168 0.03877224 0.086439535 0.04705127 0.038314577 0.074266836 0.06243941 1.30853e-40
0.11790836 0.057459224 0.19694403 0.1680728 0.16646458 0.16656078 0.17982656 0.17049511
0.18336286 8.3271e-41 2.1523684e-18 -4.0216e-41 -4.2773e-41 -1.806e-42 7.122021e-21 -6.9084e-41
1.8752e-41 -2.3797e-41 2.2774e-41 1.472e-41 -3.425e-41 -3.985e-42 -3.9196e-41 -2.57318e-40
-1.917e-41 1.4816e-41 -2.4182e-41 4.7674e-41 -3.5684e-41 -4.4298e-41 -5.266429e-16 -7.696e-42
-5.9286e-41 -2.541e-41 -2.6421e-41 1.6528e-41 2.0721e-41 -3.1906e-41 -2.9984e-41 0.029675214
0.028290251 0.02576632 0.027990246 0.02675087 0.03323896 0.03306047 0.00027543065 0.0004825927
0.00015551837 -0.0005633552 -0.002735015 0.00017207648 0.00033409466 -3.4389e-41 9.91e-43 -4.0107e-41

rnn.weight_hh_l0 f4 [68, 17]
00000000: df3b 0000 f3c3 0000 d220 0000 8841 0180
00000010: 5139 0080 0646 0080 4760 0000 086a 0080
00000020: 3127 0080 f21b 0000 d04d 0000 d53b 0000
00000030: 5d00 0080 6606 0000 9751 0080 89d9 0080
00000040: 2f3f 0080 c422 0080 4345 0000 3d44 0080
00000050: 2860 0000 cf11 0080 3e21 0080 2310 0080
00000060: ce78 0080 f808 0000 0b6c 0000 e408 0080
00000070: 061c 0080 a332 0000 d194 0080 eb27 0080
00000080: 8d65 0080 a96e 0080 cc0c 0080 4f6a 0000
00000090: 534c 0000 3d22 0000 8744 0080 bb11 0100
000000a0: 71d5 0000 5316 0080 0e3f 0000 90de 0100
000000b0: a71f 0000 b741 0000 5511 0000 ea48 0000
000000c0: 5949 0080 ed06 0080 309f 0000 c330 0000
000000d0: 901f 0000 2b99 0100 fc48 0080 ff31 0000
000000e0: 8712 0000 a31b 0000 0e03 0000 7606 0180
000000f0: 563a 0000 5915 0080 dc34 0000 6868 0080
00000100: d238 0080 a63b 0080 3268 0000 c57d 0080
00000110: b17c 0000 2915 0080 4926 0080 8e5d 0080
00000120: a84e 0000 680d 0000 0610 0000 c078 0000
00000130: ab53 0000 7655 0080 4127 0080 ac4c 0080
00000140: e24a 0000 5c36 0080 810b 0080 2e45 0080
00000150: 1d66 0000 bb3b 0080 5067 0080 ec10 0080
00000160: 2b2c 0000 7903 0080 f710 0080 f813 0000
00000170: be14 0000 1c20 0000 3b15 0000 1743 0000
00000180: 0146 0080 cd09 0000 6624 0080 9b86 0080
00000190: ab1f 0000 691c 0000 b101 0000 0c17 0080
000001a0: 251e 0080 d842 0080 d06c 0080 8147 0000
000001b0: a188 0080 e29f 0000 6857 0000 4c2f 0080
000001c0: 7e24 0080 2e32 0000 4c7a 0080 323a 0000
000001d0: 0af5 0080 df34 0080 f043 0080 0e65 68a6
000001e0: d32e 0000 e60a 0000 174c 0080 b47d 0000
000001f0: 2d2d 0080 4a21 0080 492d 0080 168c 0000
00000200: 4633 0080 6d0f 0080 2d3e 0080 290b 0000
00000210: dc45 0080 6c45 0000 1657 0080 a541 0000
00000220: 5b08 0000 a004 0000 4e9f 0080 fa4d 0000
00000230: 0e20 0080 8030 0080 6b41 0080 da10 0080
00000240: 564f 0080 c64e 0000 c42b 0080 6c8b 0080
00000250: 0520 0080 f280 0000 6739 0080 c648 0000
00000260: 18c1 0000 a066 0080 9134 0000 c43d 0000
00000270: e01c 0000 dae5 69a0 8528 0000 b453 0080
00000280: fc28 0000 c322 0000 cda6 0080 da1e 0000
00000290: 1a38 0080 430c 0000 6dd5 0080 9614 0000
000002a0: c421 0000 0015 0000 3e68 0000 2ee4 0080
000002b0: 7560 0080 0f69 0080 8a1a 0000 8b1a 0000
000002c0: d74f 0000 d549 0000 3b32 0000 4018 0080
000002d0: 7306 0080 3133 0080 4337 0080 623c 0080
000002e0: c01f 0080 ba0b 0080 fc2a 0080 8303 0000
000002f0: 7b49 0000 652e 0000 9f3e 0080 713a 0080
00000300: ea1c 0080 ecb5 0080 5c3b 0080 4619 0080
00000310: 874e 0080 bb47 0000 2241 0000 9b21 0180
00000320: 172d 0080 55ec 0080 4441 0000 7b1c 0080
00000330: e626 0080 1536 0000 fd59 0080 0b4f 0000
00000340: 5909 0000 a01f 0080 fc36 0080 4638 0080
00000350: b323 0000 50c9 89aa c55f 0080 9709 0080
00000360: 801a 0080 7330 0000 a045 0300 f33f 0080
00000370: ef2f 0080 242e 0080 d215 0080 4526 0080
00000380: 2215 0080 5a15 0080 be20 0080 243d 0080
00000390: 672a 0080 2155 0180 f22f 0080 0239 0000
000003a0: 6f14 0000 2a12 0000 c703 0000 d898 0000
000003b0: 2661 0000 c126 0080 b678 0080 2f25 0000
000003c0: 6d57 0000 561f 0000 f97e 0000 2a1d 0080
000003d0: fa34 0080 d747 0080 fe11 0080 c487 0000
000003e0: 5038 0080 b762 0000 bbac 0000 6545 0000
000003f0: fd31 0080 52d0 0280 7e70 0080 778e 0180
2.1478e-41 7.0293e-41 1.1774e-41 -1.15344e-40 -2.0561e-41 -2.512e-41 3.4538e-41 -3.8037e-41
-1.4059e-41 1.0025e-41 2.7914e-41 2.1464e-41 -1.3e-43 2.295e-42 -2.9269e-41 -7.8037e-41
-2.2666e-41 -1.2472e-41 2.4846e-41 -2.4479e-41 3.4494e-41 -6.389e-42 -1.1925e-41 -5.789e-42
-4.3337e-41 3.217e-42 3.8759e-41 -3.19e-42 -1.0053e-41 1.8165e-41 -5.3385e-41 -1.432e-41
-3.643e-41 -3.9697e-41 -4.59e-42 3.8136e-41 2.738e-41 1.2282e-41 -2.4583e-41 9.8196e-41
7.6568e-41 -8.008e-42 2.262e-41 1.71676e-40 1.1355e-41 2.3574e-41 6.218e-42 2.6157e-41
-2.6312e-41 -2.485e-42 5.7106e-41 1.7492e-41 1.1322e-41 1.46782e-40 -2.6182e-41 1.7935e-41
6.646e-42 9.914e-42 1.096e-42 -9.4153e-41 2.0927e-41 -7.658e-42 1.8962e-41 -3.7454e-41
-2.0383e-41 -2.1398e-41 3.7378e-41 -4.5118e-41 4.4731e-41 -7.591e-42 -1.3734e-41 -3.3561e-41
2.8217e-41 4.809e-42 5.748e-42 4.3317e-41 3.0014e-41 -3.0658e-41 -1.4082e-41 -2.7505e-41
2.6863e-41 -1.95e-41 -4.127e-42 -2.4817e-41 3.6631e-41 -2.1427e-41 -3.7062e-41 -6.07e-42
1.5844e-41 -1.246e-42 -6.086e-42 7.163e-42 7.441e-42 1.1519e-41 7.616e-42 2.4067e-41
-2.5113e-41 3.516e-42 -1.3057e-41 -4.8287e-41 1.136e-41 1.0192e-41 6.07e-43 -8.268e-42
-1.0814e-41 -2.3979e-41 -3.9035e-41 2.5651e-41 -4.9013e-41 5.7355e-41 3.1355e-41 -1.6967e-41
-1.3091e-41 1.8001e-41 -4.3872e-41 2.0877e-41 -8.7903e-41 -1.8967e-41 -2.4371e-41 -8.0628124e-16
1.6797e-41 3.91e-42 -2.7296e-41 4.5094e-41 -1.6206e-41 -1.1942e-41 -1.6245e-41 5.0253e-41
-1.8393e-41 -5.534e-42 -2.2304e-41 4.004e-42 -2.5061e-41 2.4904e-41 -3.124e-41 2.3549e-41
2.997e-42 1.659e-42 -5.7148e-41 2.7973e-41 -1.1499e-41 -1.7399e-41 -2.3468e-41 -6.045e-42
-2.846e-41 2.8259e-41 -1.57e-41 -5.0015e-41 -1.1486e-41 4.6257e-41 -2.0592e-41 2.6106e-41
6.9269e-41 -3.6815e-41 1.8857e-41 2.2157e-41 1.0358e-41 -1.9811919e-19 1.4536e-41 -3.0027e-41
1.4702e-41 1.247e-41 -5.9837e-41 1.1067e-41 -2.0125e-41 4.399e-42 -7.6563e-41 7.385e-42
1.2113e-41 7.533e-42 3.7395e-41 -8.1855e-41 -3.4602e-41 -3.7688e-41 9.52e-42 9.522e-42
2.8641e-41 2.6486e-41 1.8019e-41 -8.699e-42 -2.314e-42 -1.8364e-41 -1.9824e-41 -2.1661e-41
-1.139e-41 -4.207e-42 -1.542e-41 1.26e-42 2.636e-41 1.6643e-41 -2.2464e-41 -2.0965e-41
-1.0372e-41 -6.5261e-41 -2.1294e-41 -9.066e-42 -2.817e-41 2.5732e-41 2.3365e-41 -1.03891e-40
-1.6175e-41 -8.478e-41 2.3413e-41 -1.0217e-41 -1.3954e-41 1.9401e-41 -3.2282e-41 2.8355e-41
3.353e-42 -1.1345e-41 -1.9725e-41 -2.0187e-41 1.2806e-41 -2.4475777e-13 -3.4356e-41 -3.44e-42
-9.506e-42 1.738e-41 3.00483e-40 -2.294e-41 -1.7195e-41 -1.6552e-41 -7.828e-42 -1.3729e-41
-7.581e-42 -7.66e-42 -1.1746e-41 -2.1933e-41 -1.5211e-41 -1.22374e-40 -1.72e-41 2.045e-41
7.33e-42 6.516e-42 1.355e-42 5.483e-41 3.485e-41 -1.3902e-41 -4.3303e-41 1.3339e-41
3.1362e-41 1.1241e-41 4.5549e-41 -1.0462e-41 -1.9004e-41 -2.5771e-41 -6.454e-42 4.8704e-41
-2.0201e-41 3.5412e-41 6.1964e-41 2.4894e-41 -1.7932e-41 -2.58402e-40 -4.0355e-41 -1.42942e-40

rnn.bias_ih_l0 f4 [68]
00000000: 3378 4c3e c333 3d3e 45af 513e 0f1b 793d
00000010: f7a7 433e 4b02 423e f8b6 443e 2a6e 433e
00000020: 6c20 423e 8e1f 2f3e 7232 543e de4e 3e3e
00000030: 78ed 483e 7b4c 4a3e cede 433e a887 273e
00000040: 504a 433e e74d 0080 b00e 0080 d110 0000
00000050: 4a12 0080 643e 0000 d7ff 0080 594d 0080
00000060: 1c57 0080 e63e 0080 370d 0000 ab00 0000
00000070: 5968 0080 5d13 0000 8610 0080 f742 0000
00000080: bd52 0000 9b17 0080 3fac 64bb e7a0 abbc
00000090: bf40 d0bc 4018 6c3d 170d a1b9 0eef 9abc
000000a0: e8b0 183d d73f 443c e805 593c 6788 ec3c
000000b0: 20af e43c a123 ae3c a7f6 ad3a 3baa 813c
000000c0: 6c0e 7739 27fa e5bb 3e1f a13a 404f 593e
000000d0: 001c 483e 3fcf 5e3e 9e1b 8e3d 2f28 4f3e
000000e0: 1004 4d3e e51b 4f3e 1bbe 4e3e 33e8 4c3e
000000f0: 21ce 383e f736 613e 1a15 493e 74c1 543e
00000100: d347 573e 1e64 4f3e b423 303e 27b3 4d3e
0.19967727 0.18476777 0.20477016 0.06081682 0.19107042 0.18946187 0.19210422 0.19084993
0.1895768 0.17101881 0.20722368 0.18584773 0.19621837 0.19755737 0.19127962 0.16360343
0.19071317 -2.7946e-41 -5.269e-42 6.033e-42 -6.561e-42 2.2382e-41 -9.1778e-41 -2.7747e-41
-3.1249e-41 -2.2564e-41 4.74e-42 2.4e-43 -3.7433e-41 6.946e-42 -5.927e-42 2.4022e-41
2.9681e-41 -8.468e-42 -0.0034892706 -0.020950748 -0.025421498 0.057640314 -0.00030718066 -0.018912818
0.037278086 0.011978111 0.013246037 0.028873635 0.027915537 0.021257224 0.0013272361 0.015828243
0.00023561128 -0.007018346 0.0012292636 0.21221638 0.19541931 0.21758746 0.06938861 0.20230173
0.20021081 0.20225485 0.20189707 0.20010452 0.18047382 0.21993624 0.19636956 0.20776922
0.21023493 0.20253035 0.1720112 0.20087872

rnn.bias_hh_l0 f4 [68]
00000000: 7078 4c3e d533 3d3e fbaf 513e 7818 793d
00000010: e7a9 433e f501 423e 92b7 443e 2e6e 433e
00000020: 2821 423e bb1e 2f3e 9233 543e b84e 3e3e
00000030: 89ed 483e 6c4c 4a3e 03de 433e f385 273e
00000040: 374a 433e 0e1e 0080 707a 0180 868b 0000
00000050: ec3d 0080 4e6a 0000 651b 0000 961b 0080
00000060: 383b 0080 e646 0080 2b3a 0000 fb45 0000
00000070: 6000 0000 a80e 0000 3b65 0000 1354 0100
00000080: 043d 0000 b036 0080 06b1 64bb e4a0 abbc
00000090: a440 d0bc 0a18 6c3d 8c0d a1b9 fcee 9abc
000000a0: e9b0 183d ba3f 443c d805 593c 7187 ec3c
000000b0: cfae e43c 9423 ae3c 08f6 ad3a f5a9 813c
000000c0: 140f 7739 77fb e5bb 591f a13a bc4f 593e
000000d0: d71c 483e cdcf 5e3e 351b 8e3d e824 4f3e
000000e0: f303 4d3e f01b 4f3e 46c0 4e3e 94e8 4c3e
000000f0: 60cd 383e e736 613e 2c15 493e 56c1 543e
00000100: c647 573e 1463 4f3e bf21 303e 2cb3 4d3e
0.19967818 0.18476804 0.20477287 0.06081435 0.19107781 0.18946059 0.19210652 0.19084999
0.1895796 0.17101566 0.20722798 0.18584716 0.19621862 0.19755715 0.1912766 0.16359691
0.1907128 -1.0782e-41 -1.35758e-40 5.0052e-41 -2.2213e-41 3.8135e-41 9.827e-42 -9.896e-42
-2.1244e-41 -2.5434e-41 2.0867e-41 2.5104e-41 1.35e-43 5.258e-42 3.6315e-41 1.21996e-40
2.1888e-41 -1.9618e-41 -0.0034895553 -0.020950742 -0.025421448 0.057640113 -0.00030718406 -0.018912785
0.03727809 0.011978084 0.013246022 0.028873177 0.027915386 0.0212572 0.0013272176 0.015828112
0.00023561373 -0.0070185023 0.0012292668 0.21221823 0.19542252 0.21758957 0.06938783 0.20228922
0.20021038 0.20225501 0.20190534 0.20010597 0.18047094 0.219936 0.19636983 0.20776877
0.21023473 0.20252639 0.17200373 0.2008788

FC.weight f4 [7, 17]
00000000: 827f 0a3f c5f3 d8be 3224 20bf 2617 62be
00000010: 7dd5 2b3f 710c e43c 10ed 303f c6af 16bf
00000020: 311e 563f 0bdb c33d 2f1b 0bbf e892 d6be
00000030: bb5c 43bf cf12 15bf cc0f 2cbf da10 d43e
00000040: d396 c63e fff6 1bbf 8b59 f3be cc59 1c3f
00000050: bbe7 22be f67b 013f d811 cc3e 5da8 0cbf
00000060: 674c 0d3f 2a0d efbe ed2e 15bf 15f9 04bf
00000070: 6400 053f e539 06bf 6833 ec3e ad0d 02bf
00000080: 9afe df3e 3bb3 0ebf ce57 0c3f 219e 0f3f
00000090: 136a 07bf 27bd 57be b3f1 f93e 4753 1bbf
000000a0: d6eb fbbe 22cc e0be 53d2 fabe 94cf e0be
000000b0: 6455 173f e330 063f 3c9d 0a3f d686 003f
000000c0: c326 fabe 0c32 dfbe 053e fb3e 8d21 063f
000000d0: 15f7 283f 3df2 f7be 1c13 39be bd8e d4be
000000e0: fd60 af3e 1598 1cbf a262 103f 9863 f1be
000000f0: 0e7b e43e bdc3 1f3f 897f f5be d0a9 03bf
00000100: 459b 1dbf 82fe d43e 62af f73e 85ed 1ebf
00000110: cd10 15bf 86e9 12bf f6f2 f1be 77fc 53be
00000120: 0c68 f5be 21bc 1e3f 2132 2e3f 9d10 073f
00000130: 6126 aa3e 5852 1e3f 36ed 153f 9a3a 263f
00000140: 4268 33bc aafe 1c3f e14a f53e 5c3c 17bf
00000150: e824 3b3f 2de1 ed3e 1ca7 febe ee7f 213f
00000160: e67c 48be 92f7 f8be d38d 36bf 19b2 0f3f
00000170: 6f51 fcbe b13c f8be 5507 fa3e 98b0 ebbe
00000180: c145 cabe 2ab0 203f 786b 113f 9050 f93e
00000190: 340f 513e 1a6d 18bf 7bb9 1ebf beb2 103f
000001a0: 8e05 1a3f 36d8 15be 9f5f dcbe 68a4 ee3e
000001b0: c043 09bf 92bd ddbe 2d10 fa3e 565e 17bf
000001c0: 912d 0cbf 1c0f fbbe 40b7 093f 3758 16bf
000001d0: eca0 dc3e 1cde ebbe 53dc f83e
0.5410081 -0.4237348 -0.6255523 -0.22079143 0.6712263 0.027837964 0.6911173 -0.5886196
0.8363982 0.095632635 -0.54338354 -0.41908956 -0.7631337 -0.58231825 -0.67211604 0.41419107
0.38786945 -0.6092376 -0.47529253 0.6107452 -0.1590871 0.50579774 0.39857364 -0.549444
0.55194706 -0.4668973 -0.5827473 -0.5194257 0.5195372 -0.5243209 0.4613297 -0.5080212
0.43748933 -0.55742234 0.5482148 0.5610066 -0.5289623 -0.2106825 0.48817214 -0.60673946
-0.49203366 -0.4390574 -0.4898859 -0.4390837 0.5911467 0.52418345 0.5414617 0.50205743
-0.48857698 -0.4359287 0.49070755 0.52394944 0.6600202 -0.48427 -0.18073696 -0.4151515
0.34253684 -0.6116956 0.564005 -0.47146297 0.44625133 0.6240805 -0.47948864 -0.5143099
-0.6156505 0.41600424 0.48375994 -0.62081176 -0.5822876 -0.5738758 -0.47255677 -0.20701776
-0.47930944 0.6200581 0.6804524 0.52759725 0.33232406 0.61844397 0.5856508 0.6493317
-0.01095015 0.61326087 0.4790869 -0.59076476 0.7310319 0.46460858 -0.4973687 0.6308583
-0.19578895 -0.4862638 -0.71310157 0.5613113 -0.4928088 -0.48483804 0.4883372 -0.46033168
-0.39506343 0.62768805 0.5680461 0.48694277 0.20415956 -0.59541476 -0.6200177 0.5652274
0.60164726 -0.14633259 -0.43041703 0.46609807 -0.53619003 -0.43308693 0.48840466 -0.5912832
-0.5475703 -0.49034965 0.5379524 -0.58728355 0.43091524 -0.46067894 0.48605594

FC.bias f4 [7]
00000000: 0b75 07bf 5155 cbbe e12b fcbe e44c dbbe
00000010: 74b1 c6be 667a ecbe 8af0 dbbe
-0.5291297 -0.3971353 -0.49252227 -0.428321 -0.3880726 -0.46187133 -0.42956954
