data/parameters/parameters-12.pt (torch_old, 30847 bytes, 6 tensors)

rnn.weight_ih_l0 f4 [68, 89]
000000 ff e6 3c be e6 3f 7b 3c b5 65 95 bd f5 18 79 3d
       -0.18447493 0.015335059 -0.0729479 0.060814817
000010 31 81 f8 3d d5 5d 8e 3e 12 5d 3b bd 0b e2 0b 3e
       0.12134016 0.27805963 -0.045743056 0.13660447
000020 48 8a a4 3d dd b4 5f bd c0 11 cd bd 1f 61 bb bd
       0.080341876 -0.054615844 -0.10013151 -0.09149384
000030 a5 64 c4 3e c5 4f 35 be 3f 16 ff bd 5f 89 1e bd
       0.38358036 -0.17706211 -0.12455415 -0.038705226
000040 23 7e 98 3d 7c 39 2d 3d 6a b7 c5 3c 6c f4 54 3d
       0.07445934 0.04229115 0.02413531 0.05199091
000050 73 03 f3 bd 52 81 1f 39 06 f5 76 3e 6d 0f 7c be
       -0.11865892 0.00015211597 0.24116907 -0.2461526
000060 1c cc 06 be b0 a4 d6 3d 87 2a c0 bd 16 a6 83 bc
       -0.13163799 0.104806304 -0.093831114 -0.016070407
000070 63 d9 83 3d 14 a5 d9 3e 77 50 9d 3d 7b a2 2a bc
       0.064379476 0.42508757 0.07681363 -0.010414715
000080 a8 8a 0c be 9b bd c8 bb cd d2 94 3c c6 38 5b 3d
       -0.13724768 -0.0061261184 0.018166924 0.05352094
000090 a8 f8 a7 3d 00 4a b8 3d c1 07 cb bd 1a f9 3f bd
       0.08201724 0.089984894 -0.09913588 -0.04686842
0000a0 22 3e b9 3c dc ca b5 3d 3f fd 8c bd 80 be 15 3d
       0.022612635 0.08876583 -0.0688424 0.036558628
0000b0 ea 1e e0 3d 80 a3 36 bc 8c d7 e5 3b bc 42 0e 3d
       0.109433964 -0.01114738 0.0070142206 0.03473161
0000c0 7d 7f 38 bd 8b 43 18 3d 61 99 8f 38 24 5f d9 bc
       -0.045043457 0.03717379 6.8473404e-05 -0.026534624
0000d0 16 43 b3 ba 9e 8d 59 ba 43 bc 02 3c 39 04 8e b9
       -0.0013676609 -0.00082989957 0.007979455 -0.00027087497
0000e0 6d 2c 4e bc 37 58 51 bb c7 0f e2 bc f9 49 11 bb
       -0.012583834 -0.003194345 -0.027595414 -0.0022169335
0000f0 74 2a 51 bd 98 88 10 bc b0 5e 01 bd 21 7b 58 3d
       -0.051065877 -0.008821629 -0.03158444 0.0528518
000100 c9 65 0c 3d 34 d1 07 bb 4a eb 2e 3d 4b a9 99 3c
       0.034276757 -0.002072406 0.042704858 0.018757483
000110 bc 02 4f bd 93 45 ce 3c da db 80 bb bd 38 d4 bb
       -0.050539717 0.02517966 -0.0039324583 -0.0064764903
000120 b6 24 5f 3d 7e 6b 24 3e 42 54 00 3c 01 c0 8d bc
       0.05447837 0.1605663 0.007832589 -0.017303469
000130 37 39 7c bc 1a 66 a1 3b 5d cd 1c 39 61 55 1b 3b
       -0.0153945 0.0049255015 0.00014953823 0.0023702013
000140 4b c6 9c 3d 3b 7b 9f bb 26 76 af bb 15 f4 32 3d
       0.07655009 -0.004866985 -0.0053546606 0.043689806
000150 62 cc 46 3d b7 af d9 3d 1b f6 67 bc fd 7b 45 3e
       0.04853476 0.10629218 -0.014157797 0.19285579
000160 ec 24 ab bb 53 d5 8a 3c ed 3a e3 3c cf 4b 3c 3d
       -0.0052229073 0.016947424 0.027738059 0.045970734
000170 35 d6 b9 3c 7b 01 b9 bc 1e ba c7 3d 91 20 bc 3d
       0.02268515 -0.022583714 0.09752296 0.09185899
000180 e7 d0 94 bd de da be bb 01 9f 62 3e 9f fb ec 3d
       -0.072664075 -0.005824431 0.22130968 0.115714304
000190 8f b1 51 bd 9f 89 9a 3d e8 c3 c5 bb d5 63 4f bc
       -0.051194724 0.075457804 -0.0060353167 -0.012658079
0001a0 7a 54 45 3d 62 ac 29 3d b1 6f 39 bc fc 04 73 3d
       0.048176266 0.041424163 -0.011318133 0.059330925
0001b0 6a 84 fa bc c2 b3 04 3d be 41 07 3a a6 70 0f 3c
       -0.030580718 0.032397993 0.00051596377 0.008754885
0001c0 28 1e aa 3d c8 24 6c 3e 45 14 d8 3d 73 d1 71 3e
       0.08306533 0.23060906 0.10550741 0.23615055
0001d0 26 f9 10 3d 71 15 e3 3d df fd 5b 3e e6 c1 bb 3d
       0.035393856 0.11088074 0.21483563 0.091678426
0001e0 f6 e1 1f 3c 65 7c 66 3c 9c 27 b1 3c b5 62 b2 3b
       0.009758463 0.014067744 0.021625333 0.0054438957
0001f0 5f 97 db bc 72 36 d1 bb 99 cc 63 3d 9a bf 5e 3a
       -0.026805578 -0.006384664 0.05561504 0.0008497179
000200 f8 c9 bf bb 6e d5 8d 3d 1a 9a 53 3d 22 48 cb 3c
       -0.005852934 0.06925474 0.051660635 0.024814669
000210 55 95 78 3d f4 fc fa 3c 54 db 32 3d 1b db 0b 3c
       0.06068929 0.030638196 0.0436662 0.0085361255
000220 bc 7b 01 3c b4 76 78 3c e9 6c 01 3c 6d dd 48 3c
       0.007903036 0.01516502 0.007899501 0.012259823
000230 36 c7 2d bc 67 bb 4c 3c f4 f9 30 3b c3 c3 b9 bb
       -0.010606578 0.012495852 0.0027004452 -0.0056690886
000240 de f7 83 3b 77 61 bd 39 e5 3a d4 3b ac 3f 29 3c
       0.004027351 0.00036121506 0.0064767473 0.010330122
000250 11 39 bc bb 8c 8d 2d 3d 12 84 84 3d 12 2b 23 3d
       -0.0057441075 0.042371318 0.06470503 0.039835997
000260 5f 6c 08 3d 64 d4 c5 3d 17 fe df 3b 64 09 8f 3d
       0.033306476 0.09659651 0.00683571 0.06984213
000270 7e e9 54 ba 64 26 fe 3b 1c 50 b8 bb ba 49 7a bc
       -0.0008121951 0.0077560414 -0.005624784 -0.015276367
000280 93 cd 01 3d bd a9 fd 3c 28 23 23 3c e9 09 07 3d
       0.03169019 0.030964727 0.009957112 0.032968435
000290 2f 1d 1b 3c 93 4d 12 3c 09 93 d4 3b ab 39 ce 3c
       0.009467407 0.008929628 0.0064872545 0.025173983
0002a0 0a fd 79 3c c3 f0 41 3c de e8 3c 3c 9c ac 3f 3d
       0.015258083 0.011837187 0.011530129 0.046795473
0002b0 6b 12 22 3d 6c e9 1f 3d 39 d7 8f 3d 54 f3 f1 3c
       0.039568346 0.039040968 0.07023472 0.029534973
0002c0 9b d8 7b 3d 09 b8 8d 3d 41 72 fc bb 5f 28 99 3c
       0.061485868 0.069198675 -0.00770405 0.018696008
0002d0 0b 46 aa 3d 86 48 fd 3d 60 f4 7c 3d bc 66 d0 bc
       0.08314141 0.123673484 0.06175649 -0.025439613
0002e0 4d 50 3f 3d 68 1d 09 3d a4 9f fa 3c b7 e7 4b 3d
       0.04670744 0.03347531 0.0305937 0.049781527
0002f0 66 00 27 3b fb d2 47 3d 41 e5 9a 3d 2b 53 75 3d
       0.0025482415 0.04878519 0.07563258 0.05989377
000300 f4 f4 83 3b f0 33 5e bb f1 00 65 3d 5f bc 5d 3d
       0.0040270034 -0.003390547 0.0559091 0.054134723
000310 0f 37 93 3c ce 56 9d 3c 61 40 96 3d ba c9 13 3b
       0.01797059 0.01920643 0.07336498 0.0022550658
000320 a3 8a ba 3d 28 a8 90 3d 08 10 3c 3e e1 e6 29 3e
       0.09108474 0.07063323 0.1836549 0.1659198
000330 bd d3 64 3e 4f cc 6f 3e 89 44 80 3e 53 c3 71 3d
       0.22346397 0.23417781 0.25052288 0.059024166
000340 11 d3 60 3e 6a d4 9c 3b 73 b6 82 3d f3 0d b5 3c
       0.21955515 0.004786064 0.06382456 0.022101378
000350 1c 1f 06 3d 07 de 78 3d 9b 53 fe 3c 9b d8 04 3d
       0.032744512 0.060758617 0.031045726 0.032433134
000360 63 1f 58 3d 26 eb db 3b 8a 39 20 3d 76 04 7a 3d
       0.052764308 0.0067113815 0.039117374 0.06103941
000370 c0 2c 53 3c f5 c8 66 3d 5d 5a 75 3d 82 a2 2e 3d
       0.012889087 0.05634399 0.05990063 0.04263545
000380 9e 5a 01 3d ca 46 ff bb c5 0c 45 ba 39 44 e6 3c
       0.03158056 -0.007790421 -0.00075168564 0.028108703
000390 ed b8 f6 3b 70 96 14 3c 0c 64 c6 3b ee f3 ae 3b
       0.007529369 0.00906907 0.006054407 0.0053391373
0003a0 3c ee 00 3a e7 6d 23 3b 41 95 60 3b c7 d1 cd 3b
       0.0004918312 0.0024937333 0.003426865 0.006281111
0003b0 6b cd 9e 3b 32 cd 92 b9 60 e6 af 3c 83 62 62 3d
       0.004846265 -0.00028000172 0.021472156 0.05526973
0003c0 86 11 d4 3c 38 30 21 3d 59 22 89 3d 02 4f 4b 3d
       0.025887262 0.039352626 0.066960044 0.049635895
0003d0 5a a9 11 3d 95 d2 44 3d 0c 1c 1b 3c b2 bd 86 3c
       0.035561897 0.04805239 0.009467136 0.016447876
0003e0 22 c0 d5 3c 88 c6 c8 3c 3b 5b 0a 3d b3 36 9e 3d
       0.026092593 0.02450873 0.03377841 0.07725277
0003f0 8d 11 a3 3c f3 bc 2d 3a 1f ab df bb f7 4d 9c 3b
       0.01990583 0.0006627582 -0.006825819 0.0047700363

rnn.weight_hh_l0 f4 [68, 17]
000000 19 61 78 3d 24 1e b1 bd a8 dd ef 3c 5e 36 4d 3c
       0.060639475 -0.08648327 0.029280499 0.012525169
000010 2e db 4d 3d 85 52 dd bd 73 e1 6a bd df d4 0f bd
       0.050257854 -0.10806755 -0.05734391 -0.03511512
000020 18 96 b5 3d 27 f5 18 bd 9d b9 b5 3d 24 44 11 bd
       0.08866519 -0.03734317 0.088732935 -0.035465375
000030 a6 ec 2c 3d bf 67 f5 bd bd 45 be 3d 71 ef 2b 3e
       0.042217873 -0.119826786 0.09290645 0.16790558
000040 82 05 a2 bb 7d 34 c0 3d 39 c7 b4 bd 8d a2 eb ba
       -0.0049445042 0.09385011 -0.08827061 -0.0017977521
000050 b6 d0 28 3d 1b 8e 15 3c 9d 9c b0 3c 83 b3 2b bd
       0.041214667 0.009128119 0.021559054 -0.041919243
000060 5e 01 fa bd 8b 04 49 b9 fa 98 0e 3c 33 69 c9 3d
       -0.12207292 -0.00019170546 0.008703465 0.09834518
000070 31 aa 13 bd 62 9d d4 3b 11 a6 cb 3d d3 36 9a bd
       -0.03605098 0.006488488 0.09943784 -0.07529988
000080 5a f0 26 bd f6 40 9a bd 33 b1 46 3d 86 e7 de bd
       -0.04075656 -0.075319216 0.048508834 -0.10884003
000090 b9 1f cd bb c9 f9 87 3c 7f 77 0c 3d 84 9f c3 bd
       -0.006259885 0.016598599 0.034293648 -0.095519096
0000a0 f0 b6 1f bd 8b 7f 8c bd 08 a4 01 3d dd 74 fb 39
       -0.038992822 -0.068602644 0.031650573 0.0004796152
0000b0 4a da b8 3d 04 98 bf bd 35 c5 c2 3a a6 86 eb bb
       0.0902601 -0.093551666 0.0014859798 -0.007187682
0000c0 f2 92 d2 bd 9e de 82 bd ef 4d 87 bc f7 02 48 3c
       -0.10281934 -0.06390117 -0.016516654 0.012207738
0000d0 d3 2e ba bd 8e b2 21 bd a5 09 94 3c c7 4f 92 3d
       -0.09090962 -0.039476924 0.018071005 0.071441226
0000e0 a4 1d cb bd 86 d2 ec bc 59 bf b0 bd 2b ae 0d 3d
       -0.09917763 -0.02890898 -0.08630247 0.034589928
0000f0 6b e9 c9 bc de 35 e9 3d 32 3e 83 bd 3e 6c e9 3c
       -0.024647435 0.113872275 -0.06408347 0.028493997
000100 03 ff d5 3c 29 2b 9c bd 49 cb 0b bd 65 64 d1 bc
       0.026122576 -0.0762542 -0.034129415 -0.025560567
000110 57 c0 ca 3d f9 f9 07 be d1 85 01 bc 93 c6 e9 bc
       0.09899967 -0.13278951 -0.0079054395 -0.02853707
000120 32 c2 a7 3d ef 0f 96 bd db 0a e4 3c 16 e3 03 bd
       0.08191337 -0.07327258 0.027837208 -0.032198988
000130 90 17 06 3e 1e 2c 13 3d 4c d3 79 3d 47 d6 3f bd
       0.13094926 0.035930745 0.060992524 -0.04683521
000140 a8 ad ed 3c d0 99 9d bc 54 5f c5 bd 72 f5 c0 bd
       0.02901347 -0.019238383 -0.09637323 -0.09421815
000150 d8 61 a4 ba 87 ab e5 3c 9e 9d bc bd 49 f1 9d bc
       -0.0012541367 0.028035892 -0.092097506 -0.019280093
000160 a6 b4 9f bd 0f 4e b3 3d bd 09 67 be ca 18 82 3d
       -0.07798128 0.08755123 -0.22562309 0.063523844
000170 60 87 38 3d 5f 98 98 3d 7e 17 a6 bd 2a 74 5b bc
       0.04505098 0.074509375 -0.081099495 -0.013394395
000180 de 41 74 bb af c3 ae 3d a3 96 96 3c ae c3 d7 bd
       -0.0037270705 0.085334174 0.018382376 -0.1053537
000190 f9 58 27 bd 3e 69 93 3d 17 ae b3 3c 1b 3c d6 bd
       -0.040856335 0.07197808 0.021933598 -0.10460683
0001a0 ea 04 af 3c 40 6e 0c 3d a5 2c 65 3d e2 2a 05 be
       0.021364648 0.03428483 0.05595078 -0.1300464
0001b0 dd 9c d6 bc 37 0e 59 bd 49 5c 6d 3d 43 6e 83 3d
       -0.026197845 -0.052992072 0.057949338 0.06417515
0001c0 b7 d0 ad 3d 93 b7 c6 bd 85 00 a6 3c cd 50 62 bc
       0.08487075 -0.09702983 0.02026392 -0.01381321
0001d0 f0 9d 90 bd 05 6c 8c bd 12 fd 98 bd c6 0b 21 3c
       -0.07061374 -0.068565406 -0.07470144 0.009829467
0001e0 9c 8d e9 bd 3b 84 d5 bc a8 8a 0d 3d 58 7e 6a 3d
       -0.11403963 -0.026064029 0.03455606 0.057249397
0001f0 38 ad 80 bd 86 67 16 bc 7a b5 01 bd 64 80 18 3d
       -0.06283039 -0.009179955 -0.03166721 0.037231818
000200 ff 9a 99 3c 8a af d4 3d 76 0c 9c bd ff 2b 35 3c
       0.018750666 0.10385044 -0.07619564 0.011057853
000210 92 4f dd bc fd a0 bd bd 77 d6 8e bd af 93 ba bc
       -0.027015481 -0.09259222 -0.069745 -0.0227755
000220 51 29 4a 3e a0 37 43 bd 7b 6b 8c bd 91 dd cf bd
       0.19742323 -0.04766047 -0.06856438 -0.10149682
000230 4c 98 2d 3b 41 0d 5f 3c ae fe 0b bd 6f 61 8e 3d
       0.002648848 0.013614 -0.03417843 0.06952178
000240 be 55 65 3e da a6 99 bd dc 16 10 ba 23 fe ec bd
       0.2239599 -0.075025275 -0.00054965704 -0.1157191
000250 27 2a 85 3c 89 cd b6 bd c8 37 17 be fe f2 07 bd
       0.016255451 -0.089259215 -0.14767373 -0.03319072
000260 53 19 ee bb d1 24 4f 3d 1f a7 1a be 05 fb c5 bd
       -0.0072662025 0.05057222 -0.15102814 -0.09667019
000270 7c 3a ee bc f3 6e ce 3d ab 2c f9 bd ab d5 d9 3c
       -0.029080622 0.10079756 -0.12166723 0.026591143
000280 61 16 96 bd 38 61 7f 3d ba 5c 55 3d 7a e9 25 3e
       -0.07328487 0.062348574 0.052090384 0.16202345
000290 c1 41 1b bd cd f6 11 3c f5 75 de bc 66 f0 02 be
       -0.037904505 0.00890894 -0.027155856 -0.12787017
0002a0 af 24 1f bc 63 2c 33 bc e7 00 a0 3d 75 6d 45 be
       -0.009713336 -0.010935876 0.07812672 -0.19280036
0002b0 00 b2 71 bc 35 34 92 bd 8b fb 86 bc 9d 09 bd bd
       -0.014751911 -0.07138864 -0.016477367 -0.09230349
0002c0 55 61 91 3d c5 77 8c bc f3 b7 2b bd fe 3a 89 3b
       0.07098643 -0.017146954 -0.041923475 0.0041879406
0002d0 d8 63 0a 3e 0f ee e1 bc d4 99 12 3d 45 ca 50 3d
       0.1351465 -0.027579335 0.035791233 0.05097415
0002e0 58 36 07 be 99 f3 e4 bd cd 51 1f be a9 5c 12 bd
       -0.13204324 -0.11179275 -0.15558548 -0.0357329
0002f0 29 0b 8a bd 9f 99 ee bc f2 fc 9d 3c 1f 33 a5 3d
       -0.0674041 -0.029125987 0.019285653 0.08066391
000300 81 8c 9d bd 99 4e cc bc 46 fd 57 bc 0e 28 b8 3d
       -0.076928146 -0.024939822 -0.013182944 0.08992015
000310 8f e5 91 bb 81 2f e8 3d 5b ea 2e bd c9 67 18 bc
       -0.0044524143 0.11337186 -0.042703968 -0.009302088
000320 b7 b5 c4 bc b1 3f 6e bc 0b df ba 3b a4 d2 a0 3b
       -0.02401243 -0.014541552 0.0057028583 0.004907923
000330 f0 de 95 bd 8c 54 62 bd 19 8b 7b 3d 28 00 88 3c
       -0.073179126 -0.05525641 0.06141195 0.016601637
000340 89 3e 93 bc ac 72 7c bd a7 30 f9 3b f8 a5 28 3d
       -0.017974155 -0.061632797 0.0076046768 0.041173905
000350 2f 46 29 bc 4d 35 e5 bb 64 63 1e 3e 81 b1 55 bd
       -0.0103316745 -0.0069948793 0.15467602 -0.052171234
000360 b5 f2 01 3d bd 2d 2f bb a3 b4 c5 3b 96 15 c1 bc
       0.031725604 -0.0026730143 0.0060334965 -0.023569863
000370 73 cb 16 3d 5c 50 bf 3d 3b e0 8a bd fa 10 ab bc
       0.036815118 0.09341499 -0.0678105 -0.020882118
000380 05 01 f2 bb 1e 58 bf 3d 84 ad 03 be 1d 7d a7 bb
       -0.0073853754 0.09342979 -0.1285916 -0.00511135
000390 8b e6 27 bd 32 1f c4 3d 74 20 82 bd 78 20 4f 3e
       -0.040991347 0.095762625 -0.06353846 0.2022723
0003a0 91 ca 63 bd f7 13 c6 3c ca 4e 05 3e d9 a3 a7 bd
       -0.055613104 0.024179442 0.13018337 -0.08185548
0003b0 e6 01 92 3b a2 51 70 3d 8c 70 d8 bb 06 e4 54 bd
       0.0044557927 0.0586716 -0.0066052135 -0.051975273
0003c0 8a 5f 96 bd 8a 31 09 3c 83 74 c4 bc 44 8e be bd
       -0.073424414 0.008373627 -0.023981338 -0.09304479
0003d0 42 a9 bb 3a 7a d4 6a bd 70 b0 88 3d 2f 27 1f 3d
       0.001431741 -0.05733154 0.06674278 0.038855728
0003e0 1e fb 96 3d df 64 65 bc 1d 0e 84 bd a9 f6 1c 3d
       0.073721156 -0.0140011 -0.064480044 0.03832117
0003f0 9d 5c 87 bd 71 0f d5 bc 41 dd 8e bc 65 bf ba 3d
       -0.066094615 -0.02600834 -0.017439486 0.09118537

rnn.bias_ih_l0 f4 [68]
000000 c2 2c 45 3e 13 60 91 3e df c2 99 3e fe b1 8f 3e
       0.19255355 0.2839361 0.30031487 0.28065485
000010 59 a7 3a 3e 9d 4d f4 bb b7 94 ae 3e a9 5b 86 3e
       0.182279 -0.0074555413 0.34097835 0.26241806
000020 77 51 b5 3d d4 f1 a8 3e 77 a7 5c 3e b6 43 83 3e
       0.08853429 0.32997 0.21548258 0.25637597
000030 88 05 2e 3e 60 76 ff 3d 18 18 0e 3e 5a 14 8e 3e
       0.16994298 0.1247375 0.13876379 0.27749902
000040 37 b7 81 3e a8 66 07 3e cf 85 36 3e a1 6b ff 3d
       0.25335094 0.13222754 0.17824481 0.124717005
000050 05 9a 60 3e 36 10 8d 3d 0a b4 2f 3e 4a 4c 6b 3e
       0.21933754 0.068878576 0.17158523 0.2297832
000060 0b a7 51 3e f5 43 33 3e 70 eb ee 3d ca 30 50 3d
       0.20473878 0.17506392 0.11666 0.05082778
000070 5c 7a 2b 3e b2 ea 9c 3e 93 35 72 3e 1e 68 45 3e
       0.16745895 0.30647808 0.2365325 0.19277999
000080 fa ab 25 3e c9 ab 45 3e 73 43 85 bd 8a 1e 80 bb
       0.16178885 0.19303812 -0.065070055 -0.0039098905
000090 42 2f d8 3d 01 f1 31 3d b9 17 ab 3d a5 2d e1 bd
       0.10555889 0.04344273 0.08354134 -0.10995034
0000a0 42 3e 2d be 0f d6 0b be b9 fa 8b 3d 95 7b 70 bd
       -0.1691828 -0.13655876 0.06834931 -0.058711607
0000b0 da 0c dc 3b 18 9b 7f 3c c6 39 9b bc 04 61 d4 3d
       0.006715399 0.015600942 -0.018948447 0.10370067
0000c0 eb c6 93 bd f9 63 32 3c b2 35 df bd 46 3a c6 3e
       -0.07215675 0.010888093 -0.108989134 0.38716334
0000d0 73 9f b8 3e 61 f5 c8 3e 44 e4 c0 3e 89 95 ca 3e
       0.3605915 0.3924971 0.37674153 0.3956721
0000e0 59 63 7d 3e 46 b1 e3 3e cf 9d c2 3e 13 69 c9 3e
       0.2474493 0.44471186 0.38011023 0.39337978
0000f0 94 b4 d6 3e 7e e2 ab 3e 8f 7f ae 3e c6 66 e2 3e
       0.41934645 0.33571237 0.34081694 0.44219035
000100 19 e7 d5 3e 70 09 5f 3e f9 67 be 3e 2f 50 be 3e
       0.41777876 0.21780944 0.371887 0.3717055

rnn.bias_hh_l0 f4 [68]
000000 3d 0f 45 3e 5e 60 91 3e 02 c5 99 3e 20 b2 8f 3e
       0.19244094 0.28393835 0.30033118 0.28065586
000010 f5 ed 38 3e 43 20 f1 bb ce 94 ae 3e fc 5b 86 3e
       0.18059523 -0.007358582 0.34097904 0.26242054
000020 c4 4f b5 3d 2e f1 a8 3e 76 a1 5c 3e b9 43 83 3e
       0.08853105 0.32996505 0.21545967 0.25637606
000030 87 05 2e 3e 36 7e ff 3d 6e 29 0e 3e 81 16 8e 3e
       0.16994296 0.12475245 0.13882992 0.27751544
000040 66 b2 81 3e f6 66 07 3e 2f 86 36 3e dc 72 ff 3d
       0.2533142 0.1322287 0.17824624 0.124730796
000050 7d 9a 60 3e 44 1f 8e 3d 13 c3 2f 3e 46 6c 6b 3e
       0.21933933 0.06939557 0.17164259 0.22990522
000060 6e 79 53 3e 30 42 33 3e 59 ec ee 3d e5 31 50 3d
       0.2065179 0.17505717 0.116661735 0.050828833
000070 73 7a 2b 3e d9 db 9c 3e e2 f0 72 3e 7c 76 45 3e
       0.1674593 0.3063648 0.23724702 0.1928348
000080 dd 25 26 3e 69 e9 47 3e 7c 44 83 bd 16 61 98 bd
       0.16225381 0.19522633 -0.06409547 -0.07440393
000090 67 09 c1 3c 6f 15 92 3d 77 2c c6 bc 0a 4f 1c be
       0.023564054 0.071329944 -0.024191124 -0.15264526
0000a0 3f 74 e6 bb b3 32 c1 bd 80 ea 43 3d b9 0a 35 3d
       -0.0070329006 -0.09433498 0.04783106 0.04419968
0000b0 68 e7 92 3c 59 2b 14 3d f7 f0 3b bc df 61 1e ba
       0.017932609 0.036174152 -0.011471025 -0.00060418056
0000c0 80 18 fc 3c f0 6b 30 bd 56 e4 38 bc 44 3a c6 3e
       0.030773401 -0.043071687 -0.011284908 0.38716328
0000d0 1d 9f b8 3e 24 f8 c8 3e 3c e4 c0 3e c2 94 ca 3e
       0.36058894 0.39251816 0.3767413 0.39566618
0000e0 ba 62 7d 3e 44 b1 e3 3e 51 9c c2 3e de 69 c9 3e
       0.24744692 0.4447118 0.38009885 0.39338583
0000f0 8a b4 d6 3e 6c e2 ab 3e f6 7f ae 3e a5 65 e2 3e
       0.41934615 0.33571184 0.34082 0.44218174
000100 44 e4 d5 3e 4f 0c 5f 3e f9 67 be 3e 4f 56 be 3e
       0.41775715 0.21782039 0.371887 0.37175223

FC.weight f4 [7, 17]
000000 04 f2 b4 be 8e 91 3b 3f 5d 47 8a bd d8 ce 16 bf
       -0.35340893 0.73268974 -0.06751893 -0.5890937
000010 15 38 f3 3f e6 14 1d 3f d6 60 34 3f 57 e4 f0 3e
       1.900149 0.61360013 0.7046026 0.4704921
000020 22 8d 4d 3e fe 81 d1 bd cc 6e 6c 3e 96 e9 eb be
       0.20073369 -0.10229872 0.2308914 -0.4607665
000030 a3 eb b2 3e 90 6e f4 be 2a 6f 13 3f 31 af 22 3f
       0.34945402 -0.47740602 0.575915 0.6354857
000040 3b cb c8 bf b4 c8 c3 be 69 5b 97 3d 4a 71 65 be
       -1.5687021 -0.38239062 0.07390482 -0.22406498
000050 d4 17 4b bf bc 8a d4 be 48 b6 41 3e b7 a3 02 c0
       -0.79333234 -0.41512096 0.18917191 -2.0412424
000060 92 26 f8 3b 70 f1 36 3f 44 4a a9 be eb 91 a6 bf
       0.0075729573 0.71462154 -0.33064473 -1.3013281
000070 4b 35 01 bf e6 b6 6f 3e 36 a2 d9 be 41 cb 46 bf
       -0.50471944 0.23409614 -0.4250657 -0.7765389
000080 92 05 65 3f a4 49 8c 3e d3 da 48 be e3 c0 1f 3f
       0.89461625 0.27399933 -0.19614725 0.62403697
000090 2a 65 03 bf 21 a0 c4 3f 66 3d c9 be b8 b4 db 3e
       -0.5132624 1.5361367 -0.39304656 0.42911315
0000a0 70 e0 88 3e 47 db 87 3d 4a e4 85 3e f3 84 44 bf
       0.26733732 0.06633621 0.26150733 -0.76765364
0000b0 d6 fe 6c bd d3 c1 0c bf 8a 4e 00 c0 e3 59 f1 be
       -0.057860218 -0.5498325 -2.0047936 -0.4713889
0000c0 0b 0c 5f 3e b7 9c c0 be c4 42 c6 3e f7 06 58 be
       0.21781938 -0.37619564 0.38722813 -0.21096407
0000d0 94 8f 6f 3f db c4 14 bf 1a 59 2f 3e 41 13 ec be
       0.9357846 -0.5811288 0.17123833 -0.4610844
0000e0 0b e7 d3 bf f7 60 08 3f cb ca 0b 3f a0 49 0c 3e
       -1.6554884 0.53272957 0.5460631 0.1369996
0000f0 83 28 ed 3f d0 a0 b2 be b9 4a 97 3e ee 4d 1a 3f
       1.8527988 -0.34888315 0.29549196 0.6027516
000100 17 aa 08 bf 04 da 9c be 70 cc f6 be b4 ba d2 3e
       -0.53384537 -0.30635083 -0.48202848 0.41158068
000110 92 f2 f4 be b0 b3 e2 be ef 84 5d bf a3 12 4e be
       -0.47841316 -0.44277716 -0.86530966 -0.20124297
000120 45 52 8b be 9f c2 b9 3e f3 98 8c 3e 58 a3 62 3f
       -0.27211204 0.36281297 0.2746044 0.8853049
000130 ec f5 b5 3e d6 48 47 bf 90 c5 68 3f 69 e4 79 3f
       0.35539186 -0.77845514 0.90926456 0.9761415
000140 21 5f 08 3f bb ec 0e 40 ff 41 90 3e ae f7 62 3e
       0.53270155 2.233199 0.2817535 0.22164795
000150 2f d9 43 3f af 6a d9 3f 45 09 a9 be d5 35 fc 3f
       0.7650327 1.6985682 -0.33014885 1.9703928
000160 6e 01 5c 3d 0a 1d b6 be 29 5c 4a 3e 0d 46 a5 3e
       0.0537123 -0.3556903 0.19761719 0.32280007
000170 58 64 aa 3e d8 bf 01 3f 2e 3e bc be bd ac db be
       0.3327968 0.50683355 -0.3676619 -0.42905226
000180 43 8e 40 3f 8f b0 be 3e d7 46 10 bf 44 5c 12 3f
       0.75217074 0.3724408 -0.56358093 0.57172036
000190 e7 ef 01 bf be 55 f1 3c 31 62 06 be cc d0 c7 be
       -0.50756687 0.02945983 -0.13123395 -0.39026487
0001a0 aa 87 af be 8d a7 a6 be 6a 4f e5 be df 47 f1 3d
       -0.3428319 -0.32549706 -0.4478715 0.117812864
0001b0 21 13 ec 3e 83 11 d4 bf f1 94 02 c0 21 7f c6 be
       0.46108344 -1.6567844 -2.0403407 -0.38768867
0001c0 7e c3 a5 3e 7a 00 05 3f f6 63 d7 3e 06 6c 24 bf
       0.3237571 0.5195385 0.42068452 -0.6422733
0001d0 a7 b1 23 bd 97 01 1a 3f b9 9e e7 3d
       -0.039964344 0.60158676 0.11309571

FC.bias f4 [7]
000000 13 cb 05 bf f8 e0 6d be 47 1b 87 be 34 a0 11 bf
       -0.5226299 -0.2323035 -0.26387998 -0.56885076
000010 2b 2e c5 be 3b b5 97 be cb 08 27 be
       -0.38511786 -0.29630455 -0.16311948
