data/parameters/parameters-21.pt (torch_old, 30845 bytes, 6 tensors)

rnn.weight_ih_l0 f4 [68, 89]
0.035685062 0.18748105 0.05142445 -0.108955525 -0.0014183719 0.14894253 -0.1778848 0.031088438
-0.054195028 -0.06967671 -0.004472511 0.08443801 0.13127737 0.018053088 0.0067086904 -0.09227278
0.24939902 0.115584254 0.13856782 0.057045467 0.07791102 0.06785492 0.15823664 0.15498637
0.087793626 0.35206357 0.21891809 0.16353847 0.3868491 0.14262728 0.24735112 0.059286308
0.033850722 0.13401541 0.06558511 0.015210647 -0.07226519 0.0459885 0.12399643 0.019968404
-0.015182366 0.041881498 0.032279193 0.05123213 0.09665994 -0.07980331 -0.018025165 0.015121063
0.028891157 0.056765247 0.01730256 -0.054773685 0.04629674 -0.009711844 -0.012761026 0.0148965325
-0.013201695 0.007760128 0.00070591446 0.006121806 -0.033234738 0.0057994123 -0.021868173 0.0074320766
0.0034124583 -0.028905185 0.040490974 0.056436006 -0.01554759 0.047687627 -0.0010020928 -0.0053208517
0.057263438 0.06679734 0.01981289 -0.012294574 -0.021529837 -0.022159921 -0.032352526 -0.014103349
0.05583675 -0.0074269003 0.05298184 0.08417415 0.014960456 0.0047705746 -0.056107063 0.116784506
-0.040637482 -0.00835982 -0.036265012 -0.29615656 0.16256902 0.003536261 0.10695653 0.0990545
0.04233235 0.043865804 -0.1814506 0.1441616 -0.21733937 -0.005401374 0.20535181 0.016510982
0.09868787 -0.17932366 0.116389565 -0.10726962 -0.15499124 0.3146675 -0.09801235 -0.51100373
0.3751541 0.3496273 0.23278296 -0.5418126 0.29682136 0.22728312 0.3887609 0.1695662
-0.083448626 -0.040068172 0.037431158 0.031700797 0.12629244 0.11779892 0.041108374 -0.06160263
0.03300066 -0.13858815 -0.067969546 0.016866213 0.068205684 0.1880604 0.050583802 0.15947093
-0.043543655 0.2744137 -0.07711623 0.05916488 0.02951819 0.062327586 0.07799806 0.030726368
0.09492532 -0.008551037 -0.00012510117 0.0028793872 -0.028501747 0.04015965 -0.014897151 -0.040341783
0.034038953 -0.0003449107 0.039983936 -0.02790004 -0.015219433 0.101589754 0.011226393 0.25258052
0.06851601 0.07174004 0.08729774 0.06949003 0.09532897 0.044555284 0.19498037 0.06556346
0.025174998 0.0951592 0.056789827 0.015020336 0.12967338 -0.07606261 0.11006464 -0.053656973
0.08473342 0.15295932 0.17134346 0.046016064 0.068396896 0.06827321 0.15751986 0.10364606
-0.39535964 -0.14096695 0.30399433 0.035942834 0.12447283 0.026807724 0.21164775 -0.34228486
0.0871134 0.048161387 -0.37732476 0.039387997 -0.10009308 -0.20546843 0.118135616 -0.053861924
-0.5075141 0.10850117 0.07150346 0.12656224 0.36504436 0.17869137 0.06777546 0.22072284
-0.27138653 0.07008118 0.13809375 -0.059184328 -0.030094162 0.13952392 -0.012206731 0.094795525
-0.033079132 -0.025421709 0.061679464 0.14250796 0.06590857 0.029442068 0.037377257 -0.050134454
-0.040129125 -0.0135755865 0.050109126 0.0327947 -0.035638988 0.06278533 0.110054426 -0.033915237
-0.0038045011 0.041531682 0.029757503 0.03490968 -0.0032429425 0.04520699 0.026651496 0.017591078
-0.013473777 0.038194165 -0.041896667 0.011074886 0.07213317 0.07558735 0.13928574 0.09477648
0.08034562 0.052630555 0.08023805 0.062873855 0.25037527 0.12867986 0.10616138 0.10276859
00000000: 802a 123d 08fb 3f3e 72a2 523d 1324 dfbd
00000010: aae8 b9ba 6484 183e 6f27 36be 2ead fe3c
00000020: 9bfb 5dbd aab2 8ebd 248e 92bb d6ed ac3d
00000030: 936d 063e 12e4 933c 93d4 db3b 83f9 bcbd
00000040: 7562 7f3e 70b7 ec3d b9e4 0d3e 82a8 693d
00000050: d08f 9f3d 85f7 8a3d c908 223e bfb4 1e3e
00000060: 25cd b33d ad41 b43e 102c 603e a176 273e
00000070: 1611 c63e e30c 123e 9d49 7d3e 33d6 723d
00000080: 0ea7 0a3d 563b 093e 7c51 863d 1436 793c
00000090: c6ff 93bd 705e 3c3d d7f1 fd3d c794 a33c
000000a0: 75bf 78bc ef8b 2b3d 3037 043d c8d8 513d
000000b0: a6f5 c53d eb6f a3bd 83a9 93bc 56be 773c
000000c0: 26ad ec3c ad82 683d 19be 8d3c 5f5a 60bd
000000d0: a7a1 3d3d 6d1e 1fbc 9f13 51bc 9610 743c
000000e0: ec4b 58bc ac48 fe3b 1e0d 393a 6e99 c83b
000000f0: 2621 08bd ff08 be3b e224 b3bc c788 f33b
00000100: 8da3 5f3b 91ca ecbc ddd9 253d 7129 673d
00000110: 52bb 7ebc 1a54 433d a858 83ba 8a5a aebb
00000120: 118d 6a3d 0bcd 883d a44e a23c 2e6f 49bc
00000130: 575f b0bc b988 b5bc 1584 04bd bc11 67bc
00000140: 13b5 643d 5b5d f3bb 7c03 593d 7f63 ac3d
00000150: b31c 753c 7b52 9c3b 85d0 65bd b72c ef3d
00000160: 7d73 26bd a0f7 08bc 9f8a 14bd d5a1 97be
00000170: 7e78 263e 9dc0 673b 060c db3d 16dd ca3d
00000180: b064 2d3d a1ac 333d 30ce 39be 199f 133e
00000190: 368e 5ebe 02fe b0bb bf47 523e 0a42 873c
000001a0: de1c ca3d 9fa0 37be a75d ee3d 2db0 dbbd
000001b0: 06b6 1ebe 191c a13e b3ba c8bd 24d1 02bf
000001c0: 3314 c03e 5902 b33e a85e 6e3e 3bb4 0abf
000001d0: f8f8 973e e8bc 683e ab0b c73e c3a2 2d3e
000001e0: 1de7 aabd 861e 24bd 6a51 193d b2d8 013d
000001f0: ce52 013e 8f40 f13d 4161 283d 0a53 7cbd
00000200: b32b 073d 0dea 0dbe 9e33 8bbd 032b 8a3c
00000210: 6caf 8b3d e892 403e f630 4f3d 594c 233e
00000220: d55a 32bd f47f 8c3e 1def 9dbd e056 723d
00000230: 22d0 f13c 364b 7f3d 72bd 9f3d ddb5 fb3c
00000240: 3568 c23d a619 0cbc 972d 03b9 1ab4 3c3b
00000250: 7f7c e9bc 727e 243d 2e13 74bc 6d3d 25bd
00000260: 6e6c 0b3d 21d5 b4b9 32c6 233d a08e e4bc
00000270: ee5a 79bc 4a0e d03d e8ee 373c 3c52 813e
00000280: 1f52 8c3d 71ec 923d 28c9 b23d ca50 8e3d
00000290: d63b c33d 9a7f 363d efa8 473e 2346 863d
000002a0: cc3b ce3c d4e2 c23d 739c 683d db17 763c
000002b0: 19c9 043e b7c6 9bbd 9269 e13d 6ac7 5bbd
000002c0: b788 ad3d 5ea1 1c3e a974 2f3e 577b 3c3d
000002d0: ac13 8c3d d3d2 8b3d e34c 213e 6344 d43d
000002e0: 946c cabe a459 10be 25a5 9b3e cb38 133d
000002f0: 9ceb fe3d df9b db3c 30ba 583e f63f afbe
00000300: 8368 b23d e044 453d b630 c1be 4f55 213d
00000310: 9afd ccbd 5166 52be 16f1 f13d 529e 5cbd
00000320: 72ec 01bf dd35 de3d 6870 923d 8899 013e
00000330: 18e7 ba3e dffa 363e dccd 8a3d 2b05 623e
00000340: 2df3 8abe b986 8f3d 7368 0d3e 446b 72bd
00000350: 0888 f6bc 5cdf 0e3e befe 47bc 2824 c23d
00000360: fc7d 07bd 3041 d0bc 9ba3 7c3d 9bed 113e
00000370: 13fb 863d 7e30 f13c e518 193d c959 4dbd
00000380: 705e 24bd 236c 5ebc 3a3f 4d3d bc53 063d
00000390: 30fa 11bd 9895 803d 3764 e13d b4ea 0abd
000003a0: f054 79bb 201d 2a3d 02c6 f33c 74fd 0e3d
000003b0: 8c87 54bb f72a 393d 3d54 da3c 2a1b 903c
000003c0: 1ec1 5cbc 7c71 1c3d d79b 2bbd 7073 353c
000003d0: 8eba 933d 8acd 9a3d eca0 0e3e 2c1a c23d
000003e0: 3f8c a43d 2393 573d d953 a43d 02c4 803d
000003f0: 3031 803e a7c4 033e 236b d93d 5778 d23d

rnn.weight_hh_l0 f4 [68, 17]
-0.20540127 0.029544326 -0.08470563 0.04327813 -0.04670432 -0.16182274 -0.08867691 0.06830141
0.036256064 0.02554751 -0.088728175 0.102658175 -0.12199619 -0.028549075 -0.008015184 -0.023095816
-0.07511454 -0.026055735 0.07098763 -0.02097826 0.158664 0.02030032 -0.027770776 -0.21344896
0.16718553 0.022349829 -0.1934692 -0.040677752 0.11837439 -0.1536009 0.06785922 -0.11611701
-0.029320471 -0.055795774 -0.09128537 0.048728205 0.07757943 0.07366424 0.13409421 -0.061950047
-0.016121551 0.14256932 0.103675365 -0.026043294 -0.08347202 0.059848543 -0.12671325 -0.15229975
0.085063666 -0.06558497 -0.122185305 0.08442726 0.00032438623 0.11493924 -0.04078495 -0.08983319
-0.004655506 0.044574652 0.002678353 -0.03714763 -0.10378148 0.07483701 0.0026942506 0.017415669
0.0037576994 -0.045782585 0.071041524 -0.057043057 -0.16671604 0.07639853 -0.1640538 -0.077169456
-0.021314275 -0.096401356 -0.0044922535 -0.036883123 0.061619714 0.12892105 -0.030132204 0.096471965
-0.01613466 -0.066714555 0.1124899 -0.102023914 0.07190632 -0.04729616 0.07824023 -0.037276063
-0.070131786 0.13591413 -0.07221977 -0.0026955106 -0.05568346 0.02187901 0.111690626 -0.010033058
-0.012974266 -0.123043984 -0.091413446 -0.046276886 -0.09928601 -0.036659952 -0.00885438 0.07325595
-0.055930026 -0.077701725 -0.022623574 -0.048616104 -0.03234714 -0.041085683 0.05748469 0.05698297
-0.0012399995 0.05697384 -0.105275005 -0.084454566 0.04024631 -0.029409308 -0.072898224 -0.03152639
0.016614417 -0.068924755 -0.013233516 0.033311635 0.09382319 -0.082998484 -0.07290399 0.06439753
-0.06153525 -0.113397084 -0.06769531 -0.100692764 -0.11568206 -0.07230663 0.038444962 -0.07855468
-0.014089226 -0.0003004471 0.02473604 -0.16303514 0.03170183 0.08038109 0.060696382 0.11359114
0.11594123 0.1379856 -0.033265814 -0.020272516 0.023647455 -0.058165934 -0.008662956 -0.15499496
-0.02972649 -0.068196625 0.15727492 -0.11152497 -0.057932865 -0.006043935 -0.10376145 -0.08027791
0.056316342 -0.09723821 0.069988996 -0.05662608 -0.097368 0.0829381 -0.09868325 -0.013353554
-0.06479816 0.00530378 -0.21081126 0.00019432673 -0.11901477 -0.0021701285 0.05532981 0.026303574
-0.034330025 -0.07725401 0.04226971 0.04511474 -0.08728973 -0.044238802 -0.117064126 -0.012671638
-0.059970606 0.06137627 0.006256087 -0.029384498 0.17504133 -0.023156269 0.09177843 0.29363114
-0.008034519 0.09018694 -0.04112383 0.06561226 -0.1976978 0.055754445 -0.068506934 0.164662
0.03159248 -0.09065184 0.03142025 -0.10535882 -0.14485769 0.02751131 0.00482874 -0.010430205
0.006535597 -0.100277014 -0.11876834 0.05309227 0.11705108 0.06642747 -0.038875286 -0.035470244
-0.10280599 0.0007986936 -0.107866086 0.03793019 -0.0033951057 0.004108005 -0.001651683 0.060850013
0.052505597 -0.012287223 -0.16699019 -0.116823494 0.09548235 -0.033579245 0.016349876 0.042732995
-0.07405981 -0.11988286 0.04698191 0.008529636 0.02583139 -0.10986852 -0.14367199 0.05700195
0.021809349 0.026218126 0.18026057 -0.062176183 -0.16021454 -0.03745547 0.021626696 0.006019921
0.089632176 -0.098037794 -0.1487306 -0.021627797 -0.014611508 0.013635793 -0.015275109 -0.029680174
00000000: b654 52be f106 f23c 257a adbd 6944 313d
00000010: 074d 3fbd dcb4 25be 3d9c b5bd 9ce1 8b3d
00000020: 3d81 143d 0349 d13c 1eb7 b5bd 733e d23d
00000030: 23d9 f9bd c0df e9bc 1e52 03bc 7033 bdbc
00000040: a7d5 99bd d672 d5bc f661 913d 9ada abbc
00000050: d178 223e db4c a63c 8a7f e3bc 5d92 5abe
00000060: af32 2b3e fd16 b73c ca1c 46be b79d 26bd
00000070: 466e f23d 8e49 1dbe c6f9 8a3d c1ce edbd
00000080: 7c31 f0bc 1c8a 64bd d3f3 babd 3a97 473d
00000090: f7e1 9e3d 47dd 963d fe4f 093e 55bf 7dbd
000000a0: 5811 84bc b1fd 113e c053 d43d bf58 d5bc
000000b0: 61f3 aabd bf23 753d 1ec1 01be 77f4 1bbe
000000c0: dc35 ae3d 6a51 86bd 4a3c fabd 33e8 ac3d
000000d0: 6212 aa39 4465 eb3d 1f0e 27bd 77fa b7bd
000000e0: 378d 98bb e993 363d 4f87 2f3b 1d28 18bd
000000f0: 628b d4bd 2544 993d 0692 303b 4eab 8e3c
00000100: bc43 763b 8586 3bbd 387e 913d fba5 69bd
00000110: 9cb7 2abe d576 9c3d b8fd 27be 050b 9ebd
00000120: 469b aebc 136e c5bd c133 93bb c212 17bd
00000130: f464 7c3d e103 043e d0d7 f6bc 1893 c53d
00000140: d62c 84bc a4a1 88bd 1b61 e63d eaf1 d0bd
00000150: 9f43 933d 9eb9 41bd 6a3c a03d c9ae 18bd
00000160: 41a1 8fbd 132d 0b3e f5e7 93bd 2aa7 30bb
00000170: 5714 64bd 9c3b b33c 0ebe e43d b261 24bc
00000180: 0492 54bc 7cfe fbbd f936 bbbd d58c 3dbd
00000190: 7756 cbbd bf28 16bd f611 11bc 3707 963d
000001a0: e216 65bd 1522 9fbd 1355 b9bc ae21 47bd
000001b0: 6f7e 04bd 7649 28bd 1175 6b3d fa66 693d
000001c0: 7b87 a2ba 675d 693d 6c9a d7bd 84f6 acbd
000001d0: 51d9 243d caeb f0bc aa4b 95bd d121 01bd
000001e0: f51a 883c 6c28 8dbd 64d1 58bc c871 083d
000001f0: 5f26 c03d 1cfb a9bd b04e 95bd dae2 833d
00000200: 630c 7cbd bb3c e8bd d7a3 8abd 0238 cebd
00000210: b7ea ecbd 8015 94bd 7778 1d3d 47e1 a0bd
00000220: 7fd6 66bc 5485 9db9 3ca3 ca3c aff2 26be
00000230: c7d9 013d d79e a43d c59c 783d 79a2 e83d
00000240: 9872 ed3d 194c 0d3e bc41 08bd 8c12 a6bc
00000250: 4fb8 c13c 673f 6ebd 12ef 0dbc 00b7 1ebe
00000260: f884 f3bc acaa 8bbd ad0c 213e 3467 e4bd
00000270: 034b 6dbd 340c c6bb e280 d4bd bf68 a4bd
00000280: f7ab 663d d424 c7bd 6456 8f3d c0f0 67bd
00000290: e068 c7bd 73db a93d 721a cabd ddc8 5abc
000002a0: e6b4 84bd 55cb ad3b e8de 57be 2fc4 4b39
000002b0: 04be f3bd b738 0ebb 83a1 623d 987a d73c
000002c0: a49d 0cbd 5a37 9ebd 0123 2d3d 3cca 383d
000002d0: f5c4 b2bd bf33 35bd 51bf efbd b49c 4fbc
000002e0: bda3 75bd af65 7b3d ddff cc3b c2b7 f0bc
000002f0: 093e 333e 37b2 bdbc 54f6 bb3d d256 963e
00000300: 37a3 03bc eeb3 b83d 7671 28bd b85f 863d
00000310: 4b71 4abe c65e 643d 5d4d 8cbd 289d 283e
00000320: 1e67 013d aca7 b9bd 85b2 003d 5dc6 d7bd
00000330: 9355 14be 665f e13c 683a 9e3b 73e3 2abc
00000340: 9028 d63b 095e cdbd d13c f3bd 4877 593d
00000350: 7ab8 ef3d 200b 883d b13b 1fbd 3f49 11bd
00000360: f28b d2bd 6c5f 513a e5e8 dcbd b05c 1b3d
00000370: 6c80 5ebb 729c 863b 497d d8ba dd3d 793d
00000380: 1c10 573d 5950 49bc 7aff 2abe 2841 efbd
00000390: 408c c33d 648a 09bd 2df0 853c cb08 2f3d
000003a0: abac 97bd 2585 f5bd 1a70 403d e3bf 0b3c
000003b0: 5a9c d33c bf02 e1bd c01e 13be e07a 693d
000003c0: 85a9 b23c 65c7 d63c 3a96 383e 74ac 7ebd
000003d0: 480f 24be e86a 19bd 782a b13c c242 c53b
000003e0: 1391 b73d 0ac8 c8bd d64c 18be c72c b1bc
000003f0: 1b65 6fbc a968 5f3c 7344 7abc d623 f3bc

rnn.bias_ih_l0 f4 [68]
0.12604767 0.027207982 0.21662723 -0.056533143 0.25105536 0.22969471 0.26069123 0.23599093
0.041996393 0.034854695 0.2147685 0.17311777 0.26693586 0.18445148 0.20475405 0.23145701
0.104010396 0.11089195 0.17312205 0.17860323 0.1974606 0.2610495 0.19290884 0.16798848
0.2408948 0.16667886 0.2336055 0.020939803 0.19790022 0.11898148 0.16937186 0.14330037
0.18675412 0.18424185 -0.01580237 -0.06547555 0.09422066 0.02851858 -0.0902824 0.019989945
0.019822434 -0.006197933 0.006214932 -0.07208693 0.020955686 -0.011412601 -0.09995188 0.008880986
0.07358189 0.010563823 0.10512342 0.21229628 0.3901853 0.40760177 0.20375808 0.39000186
0.37469804 0.3533868 0.41149977 0.27118996 0.27220353 0.32253057 0.3985799 0.18355353
0.4062393 0.37333035 0.40809202 0.34104064
00000000: a412 013e 46e3 de3c 87d3 5d3e 4c8f 67bd
00000010: 548a 803e 1735 6b3e 5279 853e 9ba7 713e
00000020: 6904 2c3d ccc3 0e3d 46ec 5b3e c945 313e
00000030: d1ab 883e d9e0 3c3e 0cab 513e 1103 6d3e
00000040: 6703 d53d 521b e33d e846 313e c4e3 363e
00000050: 1d33 4a3e 48a8 853e e589 453e 2c05 2c3e
00000060: 20ad 763e ddad 2a3e 4836 6f3e f389 ab3c
00000070: 5ba6 4a3e 90ac f33d d16f 2d3e 55bd 123e
00000080: 793c 3f3e e5a9 3c3e f973 81bc 0c18 86bd
00000090: c3f6 c03d cc9f e93c fbe5 b8bd f4c1 a33c
000000a0: a862 a23c 0818 cbbb a1a6 cb3b 50a2 93bd
000000b0: 42ab ab3c ebfb 3abc 92b3 ccbd 8e81 113c
000000c0: 1ab2 963d e313 2d3c f34a d73d 3264 593e
000000d0: 5ec6 c73e 2eb1 d03e f5a5 503e 53ae c73e
000000e0: 6cd8 bf3e 1def b43e 19b0 d23e 69d9 8a3e
000000f0: 435e 8b3e ba22 a53e aa12 cc3e 75f5 3b3e
00000100: 99fe cf3e 2825 bf3e 70f1 d03e e19c ae3e

rnn.bias_hh_l0 f4 [68]
0.12606625 0.02720798 0.21662724 -0.05653383 0.2510554 0.22969471 0.26069123 0.23599093
0.041993666 0.034849573 0.21476848 0.17311436 0.26693586 0.18445149 0.20475404 0.23145701
0.10401039 0.10898639 0.17312208 0.17860326 0.19746552 0.26104924 0.1929091 0.16798314
0.24089484 0.16598909 0.23357682 0.020939806 0.19789974 0.11880915 0.16937791 0.14329712
0.1867542 0.18424805 -0.12444388 -0.05425078 0.04873408 0.10361254 -0.016026229 0.013985332
-0.003084787 -0.04987999 0.14477564 0.10486493 0.0048485775 -0.09711714 -0.058700934 -0.0045317523
0.07788461 0.08245252 0.14051628 0.21229562 0.39018533 0.4076016 0.20375724 0.3900019
0.37469804 0.35338676 0.4114997 0.27118766 0.27220368 0.32253057 0.3985799 0.18355367
0.4062393 0.37333027 0.408092 0.3410406
00000000: 8317 013e 45e3 de3c 88d3 5d3e 0490 67bd
00000010: 558a 803e 1735 6b3e 5279 853e 9ba7 713e
00000020: 8d01 2c3d 6dbe 0e3d 45ec 5b3e e444 313e
00000030: d1ab 883e dae0 3c3e 0bab 513e 1103 6d3e
00000040: 6603 d53d 4234 df3d ea46 313e c6e3 363e
00000050: 6734 4a3e 3fa8 853e f789 453e c603 2c3e
00000060: 23ad 763e 0bf9 293e c32e 6f3e f589 ab3c
00000070: 3ba6 4a3e 3652 f33d 6771 2d3e 7bbc 123e
00000080: 7e3c 3f3e 85ab 3c3e 6fdc febd 1136 5ebd
00000090: 639d 473d d032 d43d 7049 83bc bc22 653c
000000a0: 232a 4abb f64e 4cbd 1140 143e 6dc3 d63d
000000b0: d1e0 9e3b 5ae5 c6bd 6470 70bd 187f 94bb
000000c0: f781 9f3d dedc a83d 80e3 0f3e 0664 593e
000000d0: 5fc6 c73e 28b1 d03e bda5 503e 54ae c73e
000000e0: 6cd8 bf3e 1cef b43e 17b0 d23e 1cd9 8a3e
000000f0: 485e 8b3e ba22 a53e aa12 cc3e 7ef5 3b3e
00000100: 99fe cf3e 2525 bf3e 6ff1 d03e e09c ae3e

FC.weight f4 [7, 17]
0.35711148 0.34109983 -0.43608338 0.3360421 2.4270813 0.47712663 0.38987863 0.5468729
-0.20666978 -0.21886894 0.36992103 -2.504273 0.29549482 -0.40641496 0.45030412 -0.41086373
-0.4629371 0.41797224 0.41112182 -0.44509342 0.1259225 -0.4716577 -2.1546311 0.5187833
0.52347916 0.22291508 -0.60213965 0.45362276 0.47085038 0.46325347 2.4287066 0.41463843
-0.7476833 -0.6261072 0.43876636 -2.438994 -0.60662544 -0.03569308 -0.47941285 0.60767794
-2.2336094 0.49896228 -0.14686774 -0.26879358 0.4848874 0.54789776 0.5714239 -0.37221467
0.41273215 -0.54321414 -0.5090222 0.40743566 0.30118412 -0.5150424 0.22777762 -0.44278923
0.46567318 0.56103235 0.47311383 -0.17700118 -0.5169512 0.26035503 0.3410834 0.35580277
-0.3615399 -2.296381 -0.40165398 2.2827234 0.6203022 0.3075606 -0.36457407 0.14324486
-0.43364385 0.4732113 0.574246 -2.5048525 -0.17035876 -0.21156128 0.4031655 0.59560597
-2.3687654 -0.42819223 0.43247572 -0.3385448 -0.43032745 -2.4391491 0.34932983 -0.3846575
-0.24328107 -0.28862956 0.29362002 0.53080916 0.22969705 -1.2247834 0.58455527 0.39842573
0.3945267 0.52526855 -0.22109123 0.47906652 2.1176288 -0.2756168 0.5120712 0.59151715
2.5228047 -0.055901844 -0.5962932 0.48181558 0.33113748 0.5294673 0.00753103 -0.14259736
-2.1410172 0.42619735 0.5745727 -0.54487824 0.5307627 -0.26626125 -0.4842414
00000000: 51d7 b63e a3a4 ae3e 5246 dfbe b60d ac3e
00000010: 4d55 1b40 f149 f43e 2c9e c73e ddff 0b3f
00000020: 3ea1 53be 2e1f 60be 4a66 bd3e 0246 20c0
00000030: 194b 973e 9f15 d0be 438e e63e bb5c d2be
00000040: 1706 edbe 7500 d63e 8f7e d23e 49e3 e3be
00000050: d4f1 003e 1e7d f1be 7ae5 09c0 fbce 043f
00000060: bb02 063f da43 643e d325 1abf 3e41 e83e
00000070: 4d13 f13e 8f2f ed3e ee6f 1b40 7d4b d43e
00000080: 2c68 3fbf 9048 20bf fca5 e03e 7a18 1cc0
00000090: ce4b 1bbf e832 12bd 9a75 f5be c890 1b3f
000000a0: 75f3 0ec0 fc77 ff3e 7f64 16be 509f 89be
000000b0: 2943 f83e 0743 0c3f d648 123f ec92 bebe
000000c0: a151 d33e 1510 0bbf 474f 02bf 689b d03e
000000d0: ce34 9a3e d2d9 03bf 893e 693e 45b5 e2be
000000e0: b76c ee3e d19f 0f3f fa3b f23e cc3f 35be
000000f0: ea56 04bf 414d 853e 7ca2 ae3e c82b b63e
00000100: c21b b9be e8f7 12c0 97a5 cdbe 2418 1240
00000110: 20cc 1e3f 9578 9d3e 74a9 babe c8ae 123e
00000120: 9106 debe c048 f23e c901 133f 814f 20c0
00000130: 8772 2ebe 85a3 58be b56b ce3e a279 183f
00000140: da99 17c0 033c dbbe 756d dd3e be55 adbe
00000150: e153 dcbe 051b 1cc0 5cdb b23e d4f1 c4be
00000160: ac1e 79be 41c7 93be 5d55 963e 1ce3 073f
00000170: b435 6b3e b4c5 9cbf 6aa5 153f 75fe cb3e
00000180: 67ff c93e 0078 063f bd65 62be 3548 f53e
00000190: 3b87 0740 a51d 8dbe 1917 033f ab6d 173f
000001a0: a275 2140 55f9 64bd aca6 18bf 88b0 f63e
000001b0: da8a a93e 2b8b 073f dcc6 f63b 0b05 12be
000001c0: 6d06 09c0 8a36 da3e 3217 133f 247d 0bbf
000001d0: 10e0 073f 6553 88be 7dee f7be

FC.bias f4 [7]
-0.34924302 -0.1743742 -0.3195994 -0.3922569 -0.6393854 -0.5641119 -0.4585585
00000000: fbcf b2be 268f 32be 88a2 a3be e5d5 c8be
00000010: c3ae 23bf a369 10bf 2ec8 eabe
