data/parameters/parameters-14.pt (torch_old, 30845 bytes, 6 tensors)

rnn.weight_ih_l0 f4 [68, 89]
00000000: f9ca 74be 6c57 b23d c755 a33b 2b64 2b3d
00000010: 79db fa3d 614b 0d3c d5c4 0c3e 1b5a 1dbe
00000020: b322 9b3d 2efb 8d3d 7c87 6b3d 7d61 0dbd
00000030: 2d40 043d 362e dd3d f4e0 fe3b dc57 9cbd
00000040: 941b ee3d eff2 993d aeb3 afbd b793 b93d
00000050: b4dd 163e da4a aeb9 f0bb 46be 3c85 5b3e
00000060: 694b bdbd 35f1 f03d c0a3 653e bd96 013e
00000070: f959 853e 3820 e93d 4709 973d 434f f3bd
00000080: a855 15bc fee5 633c 241b 3b3b 3c9d 8a3d
00000090: acbb 113e 0ba2 b93c 63ed 01bc 75e5 b8bd
000000a0: 16b3 f33d ffe4 f03c 7e7c 6d3d e43f 303d
000000b0: 7eaf 0bbd 1e64 943d 8640 0b3e 85d5 4ebd
000000c0: 7938 81bc e1e3 ef3a 4ebc 393c 6719 823d
000000d0: ab4f 31bd 8d7a 163d aa36 6f3c a40e 1bbc
000000e0: ab32 3b3c 376b 39bc 7064 c23c bf18 f03a
000000f0: 99fb 09bd 1d61 273d 5cd9 813d 5e12 f23c
00000100: f5f7 173d 8c2a 60bd 1081 a8bc ecc6 303d
00000110: 12c9 1c3e 5389 993c 6bc7 30bd 1bf3 b53c
00000120: c808 853d 001d af3b f453 4d3b 078b 003e
00000130: 9f21 603c 1455 873c f597 803c b3d4 ac3c
00000140: ddfa 2fbc 7bdd fd3c 5b06 3eb5 c5e5 193e
00000150: 1589 483d c1ba a33c 8d4c b43b 0b2e b8bc
00000160: 7e99 6e3d 1ce1 883d faad 313d 3153 873d
00000170: 4b89 8d3d cd1c 923d 9cd6 953d 28ce d9bc
00000180: dafc 9a3d 194a 3e3d 565d 963c 4385 9e3d
00000190: 1264 d23d 5c46 833c cfc9 e13c a94e 9dbb
000001a0: fc32 923b e63c 2a3c 97ed db3b ac53 033d
000001b0: 5d01 063d 0b8e 48bd 0935 8f3b b184 ec3d
000001c0: 1a48 1ebc 89eb 3e3e 9f06 3a3e d148 283e
000001d0: ded4 0b3e a2be 013e 33a7 463e 1d27 243e
000001e0: f78f 943d dea3 c93d fb91 603d 7178 973c
000001f0: c456 393d 089e b7bc 4e66 a43c cc74 b73d
00000200: 07ee 323d 85a0 bf3c d11f 5c3d 35c6 3f3d
00000210: 09f6 953c c9cc bc3c 1a4f 0d3d 1470 2abd
00000220: dc82 dc3c c30a 82bb ae2e 4c3c 79e7 0cbc
00000230: b5ce f83c 6b42 053d 0a60 043c 85a6 0e3b
00000240: 3660 283c bbbf 49bc ffb2 093c 5351 293a
00000250: 5220 3b3b 1363 8c3d 51de 0c3d 831b 953d
00000260: b001 253d 6661 873d d1a0 2d3d e1b5 8f3d
00000270: 3229 563d 590e aa3d bfc5 4c3d bdc6 123d
00000280: 5356 e93c db0c 693d ec03 f63c f0f8 003d
00000290: 6b2a 8b3d 7477 813c 7450 323c ecd7 693c
000002a0: 46ec ec3c 5765 503c d67c 493c 8945 963d
000002b0: 013c af3d d3a2 9c3d c943 d83d 6cb7 f13d
000002c0: f155 b63d 4599 a73d d7a4 d3bd 8751 803d
000002d0: 433d ef3d 4a87 cc3c df33 533c 8def f43b
000002e0: da4a 4d3d 5805 623d b76a b03c 6e94 91bc
000002f0: f5a3 64bc 68c8 e0bc 09a1 2b3e 936d 91bc
00000300: ca9f 9cbb 9a5d a6bc 6994 b1bd ac00 283e
00000310: b62c ff3c 0dd9 34bd 1f59 903d f994 7ebb
00000320: a897 4abd 4b57 0d3d 2e95 263e ccf5 0e3e
00000330: 1568 853e 3331 033e 04be 453e cb39 3e3e
00000340: 231e ac3e a093 003b f281 413d 87cd 8fbc
00000350: 076b 903d 61ac 9d3d e0bf 323d 6838 c9bc
00000360: 4a87 5ebd 51df 6f3c 7184 cebc a09d 743d
00000370: 5882 a3bb 35ff 7d3d 4ff4 9f3d e113 f4bc
00000380: a090 37bb 8ef3 e9bb 64da 8e3c 6870 183c
00000390: 9314 a83c 9cef d13b 4ff1 183c fd3a 753b
000003a0: cb26 013c 45b2 c03b 61ce 3e3c 468e 8c3c
000003b0: 781e 09ba 5811 383c dd0a a4bd 363e 8b3c
000003c0: 6e4c a1bc 0296 833b 3b5a 9c3c 54fa 273d
000003d0: 5b43 983d e5a7 393d 5512 4c3d 2065 003d
000003e0: 9510 c43c 4517 e73c 6480 353d 9a13 cd3d
000003f0: 69a5 8d3c 7485 933c f9f1 5b3c b271 c43c
-0.23905553 0.08708081 0.0049845907 0.041843574 0.12248892 0.008623929 0.1374696 -0.15366404
0.07574978 0.06932674 0.057502255 -0.0345168 0.032287765 0.1079983 0.0077782813 -0.07633945
0.11626354 0.07517039 -0.08579193 0.090613775 0.1473301 -0.00033243635 -0.1940763 0.21437544
-0.09242899 0.117647566 0.22425747 0.12655158 0.26045206 0.11383098 0.073748164 -0.11880352
-0.00911466 0.013909815 0.0028550113 0.06768271 0.14231747 0.022660276 -0.007930133 -0.090281405
0.11899392 0.029406069 0.057980053 0.04302968 -0.03410291 0.07245658 0.13598832 -0.050496597
-0.015773999 0.0018302166 0.011336399 0.06352501 -0.043288868 0.036737967 0.014600435 -0.00946394
0.011425654 -0.011317066 0.023729533 0.0018317922 -0.033687208 0.0408641 0.06340286 0.029549774
0.037101705 -0.054728076 -0.020569354 0.043158457 0.15311077 0.01874224 -0.04315893 0.022210648
0.064958155 0.0053440332 0.0031330558 0.12553035 0.013679891 0.01652006 0.015697459 0.021097517
-0.010740963 0.0309894 -7.0789764e-07 0.15029056 0.048958857 0.019986512 0.0055022896 -0.022482892
0.05825185 0.06683561 0.043378808 0.066076644 0.06910952 0.071343996 0.07316324 -0.02658756
0.07567759 0.046457384 0.018355053 0.077402614 0.10272993 0.01602476 0.02756205 -0.004800637
0.004461644 0.010390496 0.0067116725 0.032062218 0.032716144 -0.048963588 0.004370336 0.115487464
-0.009660745 0.18644537 0.18166588 0.16434027 0.13655421 0.12670377 0.19399719 0.16030546
0.072540216 0.09845708 0.054826718 0.018490048 0.04524876 -0.022414222 0.020068314 0.08957824
0.04368403 0.023391971 0.05374128 0.046819884 0.018305795 0.023046868 0.034499265 -0.041610792
0.026917867 -0.003968568 0.012462301 -0.008600109 0.030372003 0.032534044 0.008079538 0.0021766734
0.010276845 -0.0123137785 0.008404492 0.00064589566 0.00285532 0.068548344 0.034391705 0.07280638
0.040284812 0.06610374 0.042389695 0.070171125 0.05228538 0.08303518 0.049993273 0.035834063
0.028483545 0.056897026 0.030031167 0.031487405 0.067952 0.01580403 0.010883439 0.014272671
0.028921258 0.012719474 0.01229783 0.073374815 0.08556367 0.07648244 0.10559804 0.11802563
0.08903111 0.08183531 -0.10334175 0.0626555 0.116816066 0.024966855 0.012890785 0.0074748457
0.050120212 0.055180877 0.02153526 -0.017770972 -0.013955106 -0.027439311 0.16760649 -0.017752444
-0.0047797905 -0.020308305 -0.08670885 0.16406506 0.03114925 -0.04415231 0.070482485 -0.003884612
-0.049461037 0.034507077 0.16267845 0.13960952 0.2605597 0.12811737 0.19310766 0.18576734
0.33616742 0.0019619241 0.047243066 -0.017554058 0.07051664 0.07698894 0.043640018 -0.02456303
-0.05432824 0.014640645 -0.025209637 0.059720635 -0.0049899034 0.062010963 0.0781027 -0.029794635
-0.0028009787 -0.0071396297 0.017438121 0.0093041435 0.020517623 0.0064067375 0.009334876 0.0037419193
0.007882784 0.0058806264 0.011645884 0.017157685 -0.00052306755 0.011234604 -0.080098845 0.016997438
-0.019689765 0.004015685 0.019085994 0.041010216 0.07434722 0.045326132 0.04982217 0.03134644
0.023933688 0.028209338 0.044311896 0.10013504 0.017290788 0.018007971 0.01342439 0.023979995

rnn.weight_hh_l0 f4 [68, 17]
00000000: c0bc 013e 49c9 40be f9b2 013d 8d70 0ebc
00000010: 7135 a53c 035d 4ebd add4 f83c c2cc 243e
00000020: 4e60 983c 5bee e63b e5e0 063e 33a8 acbd
00000030: a123 893d cdc3 2b3d 5f40 943d e6d7 0b3e
00000040: c628 adbc 1026 263d 2dcd 5bbc 0b34 ff3c
00000050: a1c1 50bc 1554 1f3d a254 f4bc ebd4 d83c
00000060: 339b 913e f47d 893d 75da af3d 4508 c83d
00000070: 1dfb 14bd a317 a83d 0055 943d f083 253d
00000080: 2689 dbbc 9d12 d03d a117 093d b1be 8f3d
00000090: 2cb0 833d 1dca 8ebd 2983 e73d 4c76 1ebc
000000a0: e28b 573d 05fc 843e bca6 d53d 0011 df3d
000000b0: 3e68 953d 0e9f 1cbd 894d fb3d 5f24 8c3d
000000c0: 68da 923d a0a3 b13d 5295 fd3d f66d 4f3d
000000d0: ba9d b63c 98a0 f9bb a477 9abc d0ea a03d
000000e0: b75f 1abd 408c 753b bd22 6f3e 6b7a 113e
000000f0: e293 e13c 9fa6 273e 0781 d4bd bd3e cabc
00000100: 5a3f f63d 9c2e a0bb 45e2 003d 7dd7 e53d
00000110: 447c 163d b007 88bc ff0b c13d 4947 82bb
00000120: 1151 643c 203c 3dbe 0260 a3bc b6ab 97bd
00000130: 98d7 053e 15ca 08bd f761 cbbc 6f9d 8cbd
00000140: d31f 1bbe a412 03bd 7d08 49bd 588d 13bc
00000150: f955 e3bd 940e 023d ec38 463d 2551 1e3c
00000160: 1f83 d1bd afda c03c ca49 99bd 09af 1cbd
00000170: 78c2 243e 1800 0a3d eee4 963d 8187 843d
00000180: 7b0f 0ebe b332 4f3d 0660 293c e866 413d
00000190: 6356 15bc da77 f63c 5467 c5bd 5559 08be
000001a0: 7c6a 043e c9ba d6bd 15af 183e d6f8 463c
000001b0: c04a ebbd ccef 453e 6c1c 643e f3e5 fc3d
000001c0: 7441 463e 2c26 a6bc fc98 0c3e 941e 9ebd
000001d0: 48d5 1f3d 9f2e d33d 7539 a33c c771 523d
000001e0: a512 543b d2cf b8bc 792b 6a3d dee4 59bc
000001f0: 67ff 27bd 48c2 cdbc 6cf3 313e 93ee 253d
00000200: cf13 933d cd44 0f3c 9b1a 82bd 3dec 9ebc
00000210: 2b78 fe3c 15b3 dd39 5e7b 453b 2c4e 5e3d
00000220: 11ad 48bd c317 d2bb 9078 d4bd e86e eebd
00000230: 5d40 673c a825 1fbd 5d86 68bd a27c cb3d
00000240: 578c 643e 169a 04bd 3183 203d 3eb4 353d
00000250: 469a 123d 7dd2 78bc da15 383d 8514 2e3d
00000260: 7b30 833d 83b0 fcbc cc21 adbc fe1e ab3c
00000270: 16c3 1abd 3c62 6c3d 2d65 5e3d df64 613d
00000280: 12cc 2c3e 29e2 6c3d 494e 813d 0752 073e
00000290: 7f79 70bc e49d 703d ea80 e73c f98a d13d
000002a0: 7629 fbba c83a 6e3d 9edd e73d 8806 303e
000002b0: 60c5 0dbd 226a bcbd 276f ad3d 403e ecbd
000002c0: 1c5e 6e3c de69 543d ebae 3bbd d235 3cbd
000002d0: 3a2f 383e 1b53 46bd 0dc4 7cbe f61a 0f3d
000002e0: 5af4 f0bc 7b6d 5a3c 1050 10bd a035 a6bd
000002f0: 8a39 503d 5c66 4c3e c520 5bbd ddde a83c
00000300: 3f30 5e3b 1198 3d3d ef36 ed3d 48a6 b43c
00000310: ef18 62bd 6f36 c73d 7c48 65bd 4d0b fa3b
00000320: 2b95 233d cebf 26bb 9572 163d f23b 84bd
00000330: 2430 143d 89de 62bd aa77 183e c39c 893d
00000340: 4ce7 1e3d 5904 76bd 11b9 b83b 68dc 4b3e
00000350: b5b5 093d 7242 663d 3191 ab3d 293f 7ebd
00000360: c35b 883d b597 b83c ec45 c23b 4093 a63d
00000370: ca04 903c a311 703d 51f7 46bd b503 e13b
00000380: 813c 77bd f386 a83c 1704 5abd 762a cebc
00000390: edfb 453e d786 503d 9668 823d 1661 0b3d
000003a0: 9072 00bd 6e0a 233d 0fbc 573d 93c7 60bb
000003b0: 5cc6 71bc 6230 c93c da0d 38bd 3bfb d0bd
000003c0: 234e 0cbc ab8e 91bd 118b cf3d bd18 99bc
000003d0: c875 593d b088 853d c973 383d 9334 673a
000003e0: 7e1c 933d f79b 26bc e171 2fbd 73c9 fb3d
000003f0: 9107 8e3c d271 fcbd 666d 2a3d 93b1 af3c
0.12669659 -0.18826784 0.031664822 -0.008693826 0.020167084 -0.05038167 0.03037485 0.16093734
0.01860061 0.007047457 0.13171728 -0.08430519 0.06696249 0.041934777 0.0723884 0.13656577
-0.021137606 0.040563643 -0.013415617 0.031152746 -0.012741477 0.038898546 -0.029825512 0.026468715
0.2843872 0.06713477 0.08586589 0.09767202 -0.036372293 0.08207633 0.07242775 0.04040903
-0.026798796 0.101598 0.0334698 0.070187934 0.064300865 -0.06972144 0.11304314 -0.009671759
0.052623637 0.25973526 0.10432193 0.10891914 0.07295273 -0.038237624 0.12270648 0.06842875
0.07170564 0.08673787 0.12381996 0.050641976 0.022292007 -0.007618021 -0.018855877 0.07857287
-0.037688937 0.0037467629 0.23353095 0.14206855 0.027536336 0.16372155 -0.103761725 -0.02468812
0.12023802 -0.004888369 0.031465787 0.11222742 0.036739603 -0.016605228 0.09426116 -0.003975783
0.013935343 -0.18479967 -0.019943241 -0.07405798 0.13070524 -0.033395845 -0.024826987 -0.068659656
-0.15148859 -0.0320002 -0.04908036 -0.009005867 -0.11100382 0.031752184 0.04839413 0.009662901
-0.102300875 0.023541776 -0.07484777 -0.038252864 0.16089809 0.033691496 0.073678836 0.06471158
-0.13873093 0.05058546 0.010337835 0.04721728 -0.0091148345 0.030086447 -0.09638849 -0.13315327
0.12931246 -0.10484845 0.14910538 0.012144288 -0.11488867 0.19329756 0.22276467 0.12348547
0.19360906 -0.020281874 0.13730234 -0.07720676 0.03902176 0.10311627 0.019924859 0.051378038
0.0032359746 -0.022560034 0.057170365 -0.013299195 -0.041015055 -0.025117055 0.17378014 0.040510725
0.071815126 0.008744431 -0.06352731 -0.019399757 0.03106316 0.0004228583 0.0030133347 0.05427377
-0.048993174 -0.006411524 -0.10374558 -0.116422474 0.0141144665 -0.03885427 -0.056768764 0.09935881
0.2231916 -0.03237351 0.039187614 0.044361345 0.035791658 -0.015186903 0.044942714 0.042500038
0.06405731 -0.030845886 -0.02113428 0.020888802 -0.037783705 0.05771087 0.054295707 0.05502784
0.16874722 0.05783287 0.0631376 0.13214885 -0.014677404 0.058744326 0.028259713 0.10231585
-0.0019162137 0.058161527 0.11321567 0.17189991 -0.03461206 -0.09199931 0.08468466 -0.11535311
0.014548805 0.051858775 -0.04582111 -0.045949765 0.17986766 -0.0484191 -0.24684162 0.03493782
-0.02941339 0.013331766 -0.035232604 -0.08115697 0.050836124 0.19960922 -0.05349805 0.020614082
0.0033903269 0.0462876 0.115827434 0.022051945 -0.05519956 0.09727179 -0.05597733 0.0076307417
0.03993718 -0.0025443914 0.036730368 -0.06456746 0.036178723 -0.055388007 0.14889398 0.06719353
0.0387948 -0.06006274 0.005637296 0.19908297 0.033620555 0.05621571 0.083773024 -0.062071953
0.06658127 0.022533277 0.0059287455 0.081335545 0.017580409 0.05861057 -0.048575703 0.006866897
-0.060360435 0.020572161 -0.053226557 -0.025166731 0.19334383 0.050909843 0.063676044 0.034028135
-0.031359255 0.03980487 0.05266958 -0.0034298643 -0.014756765 0.024559204 -0.044935085 -0.102041684
-0.008563551 -0.0710729 0.10133947 -0.018688554 0.05309084 0.06520212 0.045032296 0.0008819785
0.07183169 -0.010169021 -0.042833213 0.12294283 0.017337592 -0.12326397 0.041608237 0.021446979

rnn.bias_ih_l0 f4 [68]
00000000: ce22 2c3e 7d0b ba3e 6b48 283e 47cc 4b3e
00000010: 87fe efbc 2ef6 293e 7c00 533e 86b6 3f3e
00000020: 2e96 ea3c 3767 913e 38f3 0d3b 0212 0c3e
00000030: 8997 433e 695a 683e d1d4 3abd 7be1 8e3e
00000040: eaf4 483e 20bf 423e 767d 6a3e 37f4 513e
00000050: eeb0 823e 5372 8b3e 56b1 0d3e de3b 353e
00000060: 992c 893e 7499 c83d bf40 3c3e 6fc5 403d
00000070: 59cb 4c3e 0ff7 7e3e aea9 363e 7445 823e
00000080: dc40 633e d030 633e f8d6 5dbd b025 f83c
00000090: cb66 993d 44d3 d6bd f713 a13d 41f1 8cbb
000000a0: 3eac fabc 09c0 483d d30b eabb 55e3 873d
000000b0: b14c 5d3d c3dc 06bd 4dff 163d f0b9 ab3c
000000c0: 6891 05bd 93cd b4bd aeaf 053e 5c08 a63e
000000d0: f368 e23e 5483 d63e 3a76 e03e 510f 933e
000000e0: 77b2 b93e 7de6 c03e d635 bb3e 0816 883e
000000f0: 2b64 c13e 080c 673e aa49 a03e 5627 ca3e
00000100: b857 a53e aacf d73e 293d ba3e 89c2 a33e
0.16810152 0.3633689 0.16433875 0.19902144 -0.029296173 0.16597816 0.20605654 0.18721971
0.028636064 0.2839906 0.0021659862 0.13678744 0.19100775 0.22690739 -0.045613114 0.27906403
0.19624677 0.19018221 0.22899422 0.20503317 0.25525612 0.2723566 0.1383718 0.17698619
0.26791838 0.09794894 0.18384074 0.047063287 0.19999446 0.24898933 0.17838165 0.25443614
0.2219271 0.22186589 -0.05416009 0.030291408 0.07490309 -0.104895145 0.07865136 -0.0043012206
-0.03059971 0.049011264 -0.007142523 0.06635157 0.054028217 -0.03292538 0.036864568 0.020962685
-0.032609373 -0.08828273 0.13055298 0.32428253 0.44220695 0.4189707 0.438402 0.28722623
0.3626897 0.3767585 0.3656451 0.26579309 0.37771735 0.22563183 0.313062 0.39483136
0.32293487 0.42150623 0.36374786 0.31984356

rnn.bias_hh_l0 f4 [68]
00000000: ec21 2c3e a00c ba3e 8d48 283e 45cc 4b3e
00000010: 28d1 f1bc 01f6 293e 5b01 533e dac3 3f3e
00000020: 5a96 ea3c 6c67 913e 640a 0e3b 4914 0c3e
00000030: c997 433e d65b 683e e0ea 3abd 33e1 8e3e
00000040: 46f0 483e 22bb 423e ad7d 6a3e 47f2 513e
00000050: ffb1 823e 0972 8b3e f3b0 0d3e f23a 353e
00000060: 4227 893e 1399 c83d 9940 3c3e 9dbe 403d
00000070: 3dd2 4c3e 00f7 7e3e f286 363e b158 823e
00000080: f218 633e 45e2 653e 0103 843d 71fb 833d
00000090: 80df 2abc a8ca 86bb 76da 03bd 8cb3 febc
000000a0: 492f 8abd b084 a73d 9122 de3c 71ea 9b3c
000000b0: a75f 313d a1c1 9ab9 8d21 4d3d 8a0e 633d
000000c0: 6137 223c 8440 cbbd d47b f73c b108 a63e
000000d0: eb68 e23e 1e84 d63e 8476 e03e 8a0f 933e
000000e0: 0fb3 b93e 73e6 c03e 8f5d bb3e 1016 883e
000000f0: f662 c13e 770b 673e 6e48 a03e 0f28 ca3e
00000100: 9d57 a53e d0cf d73e 023d ba3e f982 a33e
0.16809815 0.36337757 0.16433926 0.19902141 -0.029518679 0.1659775 0.20605986 0.18727055
0.028636146 0.28399217 0.0021673674 0.13679613 0.1910087 0.22691283 -0.04563415 0.27906188
0.19622907 0.19016698 0.22899504 0.20502578 0.25526425 0.2723544 0.13837032 0.17698267
0.26787764 0.097948216 0.18384017 0.047056783 0.20002075 0.2489891 0.17824915 0.2545829
0.22177485 0.22449596 0.064458854 0.06444443 -0.010429263 -0.004113514 -0.032190762 -0.031091474
-0.067473 0.08179605 0.027116092 0.019032689 0.04330411 -0.00029517434 0.050080825 0.055433787
0.009900899 -0.09924415 0.030210413 0.32428506 0.4422067 0.41897672 0.4384042 0.28722793
0.36269423 0.3767582 0.36594817 0.26579332 0.37770814 0.22562967 0.3130526 0.39483687
0.32293406 0.42150736 0.3637467 0.31935862

FC.weight f4 [7, 17]
00000000: 83fc d13f 6d2f 0bc0 3208 cbbe 5ae0 013f
00000010: 3bf0 e0bd 24cc 97be 4319 183f 9b3f 94be
00000020: 5b65 673e ad19 1fbe 8d80 013f 790b 5e3f
00000030: be60 e4be 615d b03e fc12 96be 6382 b63e
00000040: d397 88be d366 cfbe fa73 c23e da95 8fbe
00000050: 7ba1 0cc0 3b46 0abf a4d6 4abc ea89 193f
00000060: 3726 8ebe 8dd2 d33c bc7d b2bf 2874 e33d
00000070: 752a 3bbe c95b 68bf 05a4 f63e 378f b2be
00000080: 95bc 09bf bc9d ef3e 8a65 cfbe 98b9 e73e
00000090: 55ee bfbe f1e0 2c3f 9fa0 5f3f 74e1 ed3f
000000a0: 2b11 5e3e 2229 e7bd aac7 063e 5ae1 9a3f
000000b0: 2668 1bbf c092 233f 337a 42bf c9c2 473f
000000c0: 72f7 12bf 69f1 8ebf 33a6 583e 00ed 9abe
000000d0: 77fa 3d3e 8951 3ebf 96aa 8e3e c64f b0be
000000e0: 3ead 1dbf 63ae cb3e effb a4be 6e44 85bc
000000f0: 7b53 d03e f949 cd3c cbd4 0dbe 5f74 d2be
00000100: bf43 c7bf ecee 0840 d023 49bf 9cf6 98be
00000110: ada5 13bf d72e 113f c20f 3dbf 2b95 1a3f
00000120: 2139 953e 5d7e 2cbc 7402 06c0 0b74 9abe
00000130: 9a39 4e3f 4698 09bf e60f 463f 648e 57bf
00000140: 2009 07bf 9609 d73a 88ae e5be da8c 9a3f
00000150: e182 65bf 8b8f 743d 6da2 bb3e ec90 0f40
00000160: 6b72 8f3e 2771 c93e 1e65 c8bd 5faa 353f
00000170: b17c 093d 2516 e6bf 28aa 853d 4541 203f
00000180: 447a 59be 5e48 443e ca29 abbe 0b60 b9be
00000190: 0cdb 013f 47c6 62bf 50a4 e9be ab00 543f
000001a0: 4e42 1fbf a5fe 213f 4fa4 61be 29c2 4ebf
000001b0: 1a50 0f3f ef82 82be 0526 923e 48de bebe
000001c0: 696b a1bf 217d 483f 661b 0440 41f7 8a3e
000001d0: 8f72 11bf 1cf7 1a3f 6330 083f
1.6405185 -2.1747696 -0.3965469 0.5073296 -0.1098332 -0.29647934 0.59413546 -0.28954777
0.22597258 -0.15537138 0.5058678 0.86736256 -0.44605058 0.34446242 -0.2931136 0.35646352
-0.26678333 -0.40508136 0.37979108 -0.28044015 -2.197356 -0.54013413 -0.012380276 0.59976065
-0.2776353 0.025857234 -1.3944621 0.111061394 -0.18277915 -0.90765053 0.48172012 -0.3487489
-0.5380338 0.4680003 -0.40507156 0.45258784 -0.3748652 0.67530733 0.87354463 1.8584428
0.21686237 -0.11287142 0.13162103 1.2100022 -0.6070579 0.638958 -0.7596771 0.78031594
-0.5740882 -1.1167423 0.2115715 -0.30258942 0.18552576 -0.7434316 0.27864522 -0.34435862
-0.6159247 0.39781484 -0.3222346 -0.016267981 0.4068869 0.025059687 -0.13850705 -0.4110441
-1.556755 2.1395826 -0.7857027 -0.29875648 -0.57674676 0.56712097 -0.7385217 0.6038386
0.29145148 -0.010528174 -2.0938997 -0.3016666 0.80556643 -0.53747976 0.7736801 -0.84201646
-0.527483 0.0016406055 -0.4485972 1.2074234 -0.8965283 0.059707206 0.3664736 2.2432203
0.2801698 0.3934414 -0.097849116 0.7096309 0.03356618 -1.7975508 0.06526595 0.62599593
-0.21238047 0.19168231 -0.3343032 -0.36206087 0.50724864 -0.885838 -0.45633173 0.8281352
-0.6221055 0.6327918 -0.22035335 -0.80765015 0.559816 -0.2549052 0.28544632 -0.37278962
-1.2610904 0.7831593 2.0641723 0.27141765 -0.5681543 0.6053331 0.5319883

FC.bias f4 [7]
00000000: 8847 a3be 503b 55be 52c0 8fbe 3a0f 9dbe
00000010: 368b e3be c7cc e1bd 547e 0abe
-0.31890512 -0.20823407 -0.28076416 -0.3067568 -0.44442147 -0.11025386 -0.13524753
