data/parameters/parameters-15.pt (torch_old, 30840 bytes, 6 tensors)

rnn.weight_ih_l0 f4 [68, 89]
0	0xbf270ecb	-0.6525695
1	0x3d0a3b2f	0.033747848
2	0x3da3c8b8	0.079972684
3	0x3de04581	0.10950757
4	0x3df461a0	0.11932683
5	0x3e3e6dc8	0.18596566
6	0x3ea59098	0.3233688
7	0x3d2af4e9	0.04173747
8	0x3d90cb35	0.07070009
9	0x3d0cb76a	0.034354605
10	0x3d5ea3d2	0.05435545
11	0x3d17df8f	0.037078436
12	0xbddaae34	-0.10677758
13	0x3d5f7376	0.05455347
14	0xbd375307	-0.044756915
15	0x3d5255f2	0.051351495
16	0x3eb69949	0.35663822
17	0xbec469ed	-0.38362065
18	0x3cfbf1a1	0.030754866
19	0x3d875943	0.06608822
20	0xbdc57d27	-0.096430115
21	0x38cc92dc	9.754833e-05
22	0x3e2ddedc	0.16979545
23	0xbcae3fe3	-0.021270698
24	0xbd5c6f81	-0.053817276
25	0x3e5f7068	0.21820223
26	0x3dd188a8	0.10231143
27	0x3d1df622	0.03856481
28	0x3e5cfeb3	0.21581535
29	0x3de66324	0.11249378
30	0x3e82ea7a	0.25569516
31	0x3db4aa2f	0.088215224
32	0xbd38d8e8	-0.045128733
33	0xbd2816df	-0.041037437
34	0xbdd71725	-0.10502461
35	0xbd8b25e2	-0.06794335
36	0x3cf0f1fd	0.029412264
37	0x3de60276	0.11230938
38	0x3e9b98fb	0.30390152
39	0xbdf445c3	-0.119273685
40	0x3baedc0b	0.0053362898
41	0x3c1573c2	0.009121837
42	0x3df85274	0.12125102
43	0x3de2ea72	0.11079873
44	0x3c9b2d0b	0.018942377
45	0x3e24fbeb	0.16111724
46	0x3e2252c7	0.1585189
47	0xbc533c24	-0.012892757
48	0xbc67ae3b	-0.014140661
49	0xbd3d2a74	-0.046183065
50	0xbb047e73	-0.0020216971
51	0x3d5f4dc5	0.054517526
52	0xbd3563a5	-0.04428448
53	0x3d642286	0.055696987
54	0x3c9c783a	0.019100297
55	0xbc62e428	-0.013848342
56	0xbd01d1c2	-0.03169418
57	0xbd001d00	-0.031277657
58	0xbc31b37e	-0.010846017
59	0xbc20d522	-0.00981644
60	0x3e0a988f	0.13534759
61	0x3d5b0368	0.053470045
62	0xbcb73192	-0.022362504
63	0x3d7100cc	0.05883865
64	0x3d5847e7	0.052802946
65	0xbc87549d	-0.016519839
66	0xbccad9f1	-0.024762126
67	0xbbda938d	-0.0066704215
68	0x3e38a37b	0.18031113
69	0x3d715818	0.058921903
70	0x3d91bf6d	0.0711659
71	0x3d1bcad9	0.038035247
72	0x3ca2af29	0.019858913
73	0x3db5430d	0.088506795
74	0x3cd00bc6	0.025396239
75	0x3e25c2ee	0.16187641
76	0x3caa700c	0.020805381
77	0x3bc93468	0.0061402805
78	0x3c6b2ee0	0.014354438
79	0x3d1acce4	0.037793055
80	0x3d1d18ef	0.038353857
81	0xba81b6b5	-0.000989637
82	0xbd230f07	-0.039809253
83	0x3d9c1ef2	0.0762309
84	0x3ddd0bc5	0.107932605
85	0x3dcbd7a9	0.09953243
86	0x3d23aad8	0.03995785
87	0x3d574a22	0.052560933
88	0x3d92cc3a	0.071678594
89	0x3d239152	0.03993351
90	0xbeeef08a	-0.46667892
91	0x3d8ed52f	0.06974255
92	0x3dccc90c	0.09999284
93	0x3d5541cf	0.052064713
94	0x3e4e74da	0.20161763
95	0x3de9fe0b	0.11425408
96	0xbad9689a	-0.001658696
97	0xbe226d56	-0.15862021
98	0xbe34516d	-0.17609186
99	0x3e2e8bd1	0.17045523
100	0x3e656ca4	0.22404724
101	0xbd452c51	-0.048137967
102	0x3da2e11a	0.07953091
103	0xbd8b5085	-0.06802467
104	0x3e0d5ad2	0.13804176
105	0x3e672928	0.22574294
106	0xbea3ef74	-0.32018626
107	0x3d66e67a	0.056372143
108	0x3d9549f7	0.07289498
109	0xbdf8a7a8	-0.12141353
110	0xbc890f78	-0.016731009
111	0xbe12d6cb	-0.1433975
112	0x3cb3648e	0.021898534
113	0x3e013d02	0.12620929
114	0xbe0258bb	-0.1272916
115	0x3e089c34	0.13340837
116	0x3e04bbc8	0.12962258
117	0x3e8919f9	0.26777628
118	0x3de5073f	0.11183023
119	0x3e716049	0.23571886
120	0xbda8832d	-0.08228145
121	0xbd8db342	-0.06918956
122	0x3d8da22f	0.069157
123	0xbe029929	-0.12753738
124	0x3ce4a5fa	0.027911175
125	0xbd387b95	-0.045039732
126	0xbde03fc2	-0.10949661
127	0x3e4f885d	0.20266862
128	0xbcbf8154	-0.023377098
129	0xbe0d5bf9	-0.13804616
130	0x3d90bfb8	0.070678174
131	0x3d397250	0.045275033
132	0x3dccbf01	0.099973686
133	0x3b8e2545	0.004337939
134	0xbe11db69	-0.14243855
135	0xbc3a77c8	-0.011381097
136	0x3e47c7aa	0.1950976
137	0x3c413384	0.011792067
138	0x3c677e46	0.014129227
139	0x3a20c03d	0.00061321614
140	0xbdeca944	-0.11555722
141	0xbc370c9b	-0.011172439
142	0xbb8e8cb8	-0.004350271
143	0x3cbb989e	0.022899922
144	0xbc54f2de	-0.012997357
145	0xbbb9b77d	-0.0056676255
146	0x3c3bec75	0.01146995
147	0x3b6a80b2	0.0035782275
148	0x3bbc4989	0.0057460708
149	0xbdcf70f2	-0.101289645
150	0xbda0266f	-0.078198306
151	0x3d6534a0	0.05595839
152	0x3d419027	0.047256615
153	0x3b7b1d19	0.0038316904
154	0xbd6c334f	-0.05766612
155	0x3cbb9d6f	0.022902219
156	0x3cbcc1cf	0.023041634
157	0x3d702d4a	0.05863694
158	0x3e4787ef	0.19485448
159	0x3cd29727	0.02570684
160	0xbc9c5f4d	-0.019088412
161	0xbdcfe14b	-0.10150393
162	0x3db01eec	0.08599648
163	0xbc339075	-0.010959734
164	0x3cc320dd	0.023819381
165	0x3e240871	0.16018845
166	0xbca5ff98	-0.020263478
167	0x3bec5af2	0.00721299
168	0x3ca4e0d6	0.020126741
169	0x3d5715ad	0.052510906
170	0x3ccb70bd	0.024834031
171	0x3d4f7947	0.05065277
172	0x3daf9e92	0.08575167
173	0x3c8f7693	0.017512595
174	0xbd4e0f98	-0.05030784
175	0xbca5b27a	-0.020226706
176	0xbd3a7dab	-0.045530003
177	0x3dc3741a	0.09543629
178	0xbec1f79c	-0.37884223
179	0x3ebdf9f3	0.3710476
180	0x3dd98390	0.10620797
181	0x3d2e7e7d	0.042601097
182	0xbea00197	-0.31251213
183	0x3e57d108	0.21075833
184	0x3b0596b8	0.0020384025
185	0x3cc17941	0.023617389
186	0x3dd3e734	0.10346833
187	0x3d35ac36	0.044353686
188	0x3e51dc40	0.20494175
189	0xbf3ed33f	-0.74541086
190	0x3eb48569	0.35258034
191	0x3d6a2e66	0.057173155
192	0xbdaf70c8	-0.08566433
193	0x3e130427	0.14357053
194	0x3de91459	0.11380834
195	0xbe96a5e2	-0.29423434
196	0x3db7722a	0.08957322
197	0x3de3da99	0.111256786
198	0xbea6ab9f	-0.32552812
199	0x3b9c492e	0.004769466
200	0x3ea4c558	0.3218181
201	0xbe9bfdeb	-0.30467162
202	0x3e076025	0.1322027
203	0x3e8e0418	0.27737498
204	0x3db52beb	0.08846267
205	0x3d776fd6	0.06040939
206	0xbdf4fe05	-0.11962513
207	0x3e2f5ac3	0.17124467
208	0x3e32c94d	0.17459603
209	0xbe3c08e1	-0.18362762
210	0x3d25606d	0.040375162
211	0x3d2954a9	0.041340504
212	0x3d87f5d6	0.06638686
213	0x3be5adc3	0.0070092394
214	0x3e0d4b23	0.13798194
215	0x3cfdaf3f	0.030967353
216	0x3da73275	0.08163921
217	0xbd048246	-0.0323508
218	0x3c9734d9	0.018457817
219	0x3d7bc4c1	0.061466936
220	0x3c327e96	0.010894438
221	0x3bfb6ad1	0.0076726456
222	0x3e107cb5	0.14110072
223	0x3e236abb	0.15958683
224	0x3c67421a	0.014114881
225	0xbcfac36f	-0.030610768
226	0x3b8c7d19	0.0042873737
227	0xbdb30802	-0.08741762
228	0x3e20d0f7	0.15704714
229	0xbdffe543	-0.124949
230	0xbd112e2d	-0.035444427
231	0x3c84c38e	0.016206529
232	0xbc9110bf	-0.01770818
233	0xbce96d00	-0.028494358
234	0xbcb3a3d7	-0.02192871
235	0x3db2d267	0.08731537
236	0xbd0651c0	-0.032792807
237	0xbd145d09	-0.036221538
238	0x3d95f2b4	0.073216826
239	0xbd7774d4	-0.06041415
240	0xbd3e9474	-0.046528295
241	0xbcb99eb0	-0.022658676
242	0x3c224cbe	0.009905992
243	0x3e3cdd97	0.18443905
244	0xbd2b7cd7	-0.041867103
245	0xbd2834ed	-0.0410661
246	0xbd942347	-0.07233291
247	0xbc0a3a68	-0.008436777
248	0x3dcef17a	0.10104652
249	0x3d960835	0.07325784
250	0x3e749ad7	0.23887192
251	0xbc80c7f5	-0.015720347
252	0x3d6d4876	0.057930432
253	0xbd7945cd	-0.060857583
254	0x3c99ce99	0.018775271
255	0x3d81bd02	0.063348785

rnn.weight_hh_l0 f4 [68, 17]
0	0xbdd61744	-0.10453656
1	0x3dfd878b	0.123793684
2	0xbd2e72e3	-0.042590033
3	0x3e24c3b8	0.16090286
4	0x3da56bf0	0.08077228
5	0xbdd3fc37	-0.103508405
6	0xbcb4bc26	-0.022062372
7	0xbbc87fe6	-0.0061187623
8	0x3d0c8eeb	0.034315985
9	0x3de08d02	0.10964395
10	0x3d9ef038	0.07760662
11	0xbe0c6c2f	-0.13713144
12	0xbc3c9092	-0.011509078
13	0xbcf16435	-0.029466728
14	0xbbbc0bc9	-0.0057387096
15	0xbc329a43	-0.010901037
16	0x3b13ca31	0.0022550935
17	0xbcf86c22	-0.030325
18	0x3c5ccd14	0.013476629
19	0x3e514d2e	0.20439598
20	0xbdb223bb	-0.08698221
21	0x3c8e4f4d	0.017371798
22	0xbcb3c24e	-0.021943238
23	0xbda218f5	-0.079149164
24	0xbcca445f	-0.024690805
25	0xbe0fcbb5	-0.14042552
26	0x3d1d8638	0.03845808
27	0xbd12e42a	-0.035862125
28	0x3d1f42a1	0.0388819
29	0x3ce1c7db	0.027561119
30	0x3c31cada	0.010851586
31	0xbd93162a	-0.07181962
32	0xbd9afc92	-0.07567705
33	0x3b6f8f00	0.003655374
34	0x3c8a0a9f	0.016850768
35	0xbcd2ca90	-0.025731355
36	0x3d43c08e	0.047791056
37	0x3cffe7b1	0.031238409
38	0xbcededc9	-0.029044049
39	0x3ccb4223	0.02481181
40	0x3d7dac3b	0.06193183
41	0xbd303c14	-0.043026045
42	0x3da8a6be	0.082349285
43	0xba0ed06e	-0.00054479286
44	0xbcbe6b48	-0.023244515
45	0xbd7a9f9a	-0.061187364
46	0xbd4d98b5	-0.05019446
47	0xbc448c5d	-0.011996356
48	0xbdd37403	-0.10324862
49	0x3d6a72dd	0.05723845
50	0xbd0cadea	-0.034345545
51	0xbceb7824	-0.028743811
52	0xbc8c3b7c	-0.017118208
53	0x3d08ee4c	0.033430383
54	0x3d896fa3	0.06710746
55	0xbd277a31	-0.040888015
56	0xbddcef27	-0.10787802
57	0x3cfd8585	0.030947456
58	0xbdeab1dd	-0.11459706
59	0x3df27361	0.11838413
60	0xbb44c2f2	-0.0030023423
61	0x3d7816d0	0.06056863
62	0xbd85a74f	-0.06526052
63	0xbc98fa0f	-0.018673925
64	0x3b363229	0.0027800894
65	0x3dd83b3a	0.105581716
66	0xbb224552	-0.0024760556
67	0xbd1e8542	-0.038701303
68	0x3bad0e61	0.005281255
69	0x3cf193a7	0.029489351
70	0xbd7a04bc	-0.06103967
71	0xbd0e2b4c	-0.03470926
72	0xbd10de57	-0.03536829
73	0xbd9a828c	-0.07544431
74	0x3cd886b3	0.026431417
75	0xbdf3c3ce	-0.11902581
76	0xbd32e8dc	-0.043679103
77	0x3db2b325	0.08725575
78	0x3d1c4ab7	0.03815719
79	0xbd2d553f	-0.042317625
80	0x3ca5e403	0.020250326
81	0xbcc49002	-0.02399445
82	0x3e0617bd	0.13094993
83	0xbd9b367f	-0.07578754
84	0x3e03bbeb	0.12864654
85	0x3de46005	0.11151127
86	0x3e0fc47a	0.14039794
87	0xbde19474	-0.11014643
88	0xbce5d19a	-0.028054047
89	0x3d48e43c	0.049045786
90	0xbe6765dc	-0.2259745
91	0x3d98d8b3	0.07463207
92	0x3a8df835	0.0010831418
93	0xbc39d49a	-0.011342192
94	0xbd79b361	-0.060962085
95	0xbd5c6f55	-0.053817112
96	0x3d8bcf15	0.06826607
97	0x3e6235a7	0.22090779
98	0xbd75f8d9	-0.060051773
99	0x3cb78b79	0.022405373
100	0xbd13b0a8	-0.036057144
101	0xbd532290	-0.051546633
102	0xbd63563b	-0.055502158
103	0x3cd1c05c	0.02560442
104	0x3cc8d2e3	0.024514621
105	0x3d5e25fb	0.05423544
106	0xbd1ac9be	-0.037790053
107	0xbdcec37f	-0.10095882
108	0x3c8a66ac	0.01689466
109	0xbd4fef46	-0.0507653
110	0x3e083e9e	0.13305137
111	0xbd530a64	-0.05152358
112	0x3c2af7ec	0.010435086
113	0xbd515938	-0.051110476
114	0xbc589c06	-0.013220793
115	0x3c84d311	0.016213926
116	0x3d8c9356	0.068640396
117	0x3d863e4d	0.06554852
118	0xbc08867a	-0.008332843
119	0x38a09639	7.657376e-05
120	0x3c82ca18	0.015965506
121	0xbc0bdaf8	-0.008536093
122	0xbd1b24e7	-0.03787699
123	0xba53eb48	-0.0008084071
124	0xbd1a4f89	-0.037673507
125	0xbd3b54c1	-0.045735124
126	0xbe6ecf5e	-0.23321292
127	0xbd099083	-0.033585083
128	0x3d094401	0.03351212
129	0x3d7c9e7a	0.061674573
130	0x3bfaa4f1	0.007649057
131	0xbdc429d7	-0.09578293
132	0x3d72781c	0.059196576
133	0xbd83fe1a	-0.064449504
134	0xbd0cff7f	-0.034423348
135	0x3cd319b2	0.025769088
136	0xbd4203f7	-0.047367062
137	0xbe04c6a0	-0.12966394
138	0x3dc1a02c	0.094543785
139	0xbd03f59c	-0.032216653
140	0xbdc9962f	-0.09843098
141	0xbe17ccfe	-0.14824292
142	0x3da7c94b	0.081926905
143	0xbd4632b3	-0.048388194
144	0x3e0cfead	0.13769026
145	0x3d063afd	0.0327711
146	0x3bd65476	0.0065408302
147	0xbd1df2e0	-0.0385617
148	0xbe49c650	-0.19704556
149	0xbccbd451	-0.024881514
150	0xbdc2cbb8	-0.095115125
151	0xbd50b708	-0.050955802
152	0x3cb08d1f	0.021551667
153	0xbdbbb0ca	-0.09164579
154	0xbd20b644	-0.039236322
155	0x3dcbab59	0.09944791
156	0x3dfe2425	0.12409238
157	0xbd446465	-0.047947306
158	0xbdc5e61c	-0.096630305
159	0x3d975cff	0.073907845
160	0xbe1f276f	-0.15542386
161	0x3e3453e8	0.17610133
162	0xbd24af03	-0.040205967
163	0x3da4b8e4	0.080430776
164	0xbd751384	-0.059833065
165	0xbdbe4692	-0.09290804
166	0x3cc61451	0.02417961
167	0x3d9f1235	0.077671446
168	0x3d41fb20	0.047358632
169	0xbc889d7a	-0.016676653
170	0xbd89403d	-0.067017056
171	0x3d3a72fd	0.045519818
172	0x3d997053	0.07492127
173	0xbd291624	-0.04128088
174	0xbde645aa	-0.11243756
175	0x3d314042	0.04327417
176	0xbd36a342	-0.04458929
177	0xbe01c9a5	-0.12674578
178	0x3e674a51	0.22586943
179	0xbd9d832e	-0.07691036
180	0x3e2b0cec	0.16704148
181	0x3d8b9825	0.06816129
182	0xbda7eb95	-0.081992306
183	0x3d83b52c	0.0643104
184	0x3d01f63d	0.03172897
185	0x3d2c5c4f	0.04208022
186	0xbdef9bfe	-0.11699675
187	0xbd51f51d	-0.05125915
188	0xbc6cdb92	-0.0144566465
189	0x3db87810	0.09007275
190	0x3ba8f1a5	0.0051557594
191	0xbd5fe53b	-0.05466197
192	0xbdfe4cbd	-0.124169804
193	0x3d26c7b5	0.0407178
194	0xbd7cb277	-0.061693635
195	0x3da0cf69	0.0785206
196	0x3d0a9643	0.033834707
197	0x3e3702c7	0.17872153
198	0xbdd1b23f	-0.10239076
199	0xbdbbfd06	-0.0917912
200	0xbc5d30af	-0.013500377
201	0x3d0c30b8	0.03422615
202	0x3d310ab0	0.043223083
203	0xbd022ef6	-0.031783067
204	0xbda2f5f5	-0.07957069
205	0x3e373410	0.17890954
206	0xbd806b29	-0.06270439
207	0x3dde17c1	0.108443744
208	0xb9dc00b0	-0.00041962182
209	0xbcaa52e1	-0.020791473
210	0xbc545fb9	-0.012962275
211	0xbd8536db	-0.065046035
212	0x3e34aa21	0.17643024
213	0x3c9b60eb	0.018967113
214	0x3d968187	0.07348924
215	0xbb111b4c	-0.0022141514
216	0xbdd6c52a	-0.10486825
217	0x3dd3e4ab	0.10346349
218	0x3e0f65f8	0.14003742
219	0xbcad26c1	-0.021136643
220	0xbd0b61ab	-0.03402869
221	0xbd7c94ea	-0.061665453
222	0xbc2d9074	-0.010593522
223	0x3e0fb919	0.14035453
224	0x3d777c41	0.060421232
225	0xbc1edee6	-0.009696698
226	0xbe02e8c6	-0.12784109
227	0xbad617ac	-0.0016333959
228	0xbdc9af45	-0.09847883
229	0x3d91683b	0.070999585
230	0xbd527baf	-0.051387485
231	0x3d07a190	0.033113062
232	0xbc8140e3	-0.01577801
233	0xbd4f5c77	-0.05062529
234	0x3cf84dd2	0.030310545
235	0x3e107f86	0.14111146
236	0xbd133799	-0.035941694
237	0x3b82025c	0.0039675664
238	0xbd887cc6	-0.06664424
239	0x3de6676a	0.112501934
240	0x3d8cf74e	0.06883107
241	0x3d82d983	0.06389143
242	0x3d4497d0	0.047996342
243	0x3c0a794d	0.008451772
244	0x3d695dcb	0.056974214
245	0x3e1222bf	0.14271067
246	0x3ddafbb3	0.10692539
247	0xbdaa2f60	-0.08309817
248	0x3d314778	0.04328105
249	0xbdd5b9e3	-0.10435846
250	0x3d886174	0.06659213
251	0xbd380a52	-0.044931717
252	0x3e4af87a	0.19821349
253	0xbd467df7	-0.048459973
254	0xbd350a43	-0.04419924
255	0xbc0ce5b0	-0.008599684

rnn.bias_ih_l0 f4 [68]
0	0x3e43826e	0.19092724
1	0x3ddf4fe5	0.109039105
2	0x3d264c78	0.04060027
3	0x3e996512	0.29959923
4	0x3e0caf97	0.13738857
5	0x3da2add0	0.07943308
6	0x3e86713a	0.2625826
7	0x3bc66044	0.006053956
8	0x3e38b7a0	0.18038797
9	0x3e8d78f2	0.27631336
10	0x3d9c6109	0.076356955
11	0x3e162b8f	0.14665054
12	0x3e87a9fa	0.2649687
13	0x3e2bf068	0.16790926
14	0x3e111c91	0.14171053
15	0x3e06d69c	0.13167804
16	0x3e6a8988	0.22904027
17	0x3e3d4acb	0.18485563
18	0x3e90c37b	0.2827414
19	0x3e0303b9	0.12794389
20	0x3e5aa391	0.21351458
21	0x3e0ffbfd	0.1406097
22	0x3e6de617	0.23232304
23	0x3df5c89b	0.12001153
24	0x3e4a0d04	0.19731528
25	0x3e835ca4	0.25656617
26	0x3e4dfaf1	0.20115258
27	0x3e31fe53	0.17382173
28	0x3dac5af9	0.08415789
29	0x3e3c4352	0.18385056
30	0x3e7d42bb	0.24732487
31	0x3e57eee8	0.21087229
32	0x3d9681fd	0.07349012
33	0x3e5d7d03	0.2162972
34	0xbd9bfc08	-0.076164305
35	0xbd87d3e0	-0.06632209
36	0x3c701128	0.014652528
37	0xbd6e85bd	-0.05823301
38	0xbc98759b	-0.018610766
39	0x3d6b96ac	0.05751674
40	0x3e19c7ab	0.15017574
41	0x3b9abb89	0.004722063
42	0x3cb1fbd1	0.02172652
43	0xbd0fbac5	-0.035090227
44	0xbbfde810	-0.0077486113
45	0x3d0d6249	0.03451756
46	0xbd2a5884	-0.04158832
47	0xbc2e4230	-0.0106358975
48	0xbd459695	-0.04823931
49	0x3b8e4ba8	0.004342515
50	0xbd030f1b	-0.031996828
51	0x3ee09958	0.43866992
52	0x3ec65ed4	0.38744223
53	0x3e903dd7	0.2817218
54	0x3ed0197d	0.40644446
55	0x3e6f5d58	0.23375452
56	0x3ec67de9	0.38767937
57	0x3ebe5015	0.37170473
58	0x3eacbcb6	0.33737725
59	0x3ea4d991	0.3219724
60	0x3ecb879b	0.39751896
61	0x3e9d2031	0.30688623
62	0x3e7e273b	0.24819653
63	0x3ec2a0c0	0.38013268
64	0x3e98ad1f	0.2981958
65	0x3ee7ba3b	0.4525927
66	0x3eaa1140	0.33216286
67	0x3eb802ad	0.3593954

rnn.bias_hh_l0 f4 [68]
0	0x3e43826e	0.19092724
1	0x3ddf4fe5	0.109039105
2	0x3d264c87	0.040600326
3	0x3e996513	0.29959926
4	0x3e0caf9c	0.13738865
5	0x3da2adce	0.07943307
6	0x3e86713a	0.2625826
7	0x3bc66045	0.0060539567
8	0x3e38b781	0.18038751
9	0x3e8d78f5	0.27631345
10	0x3d9e3451	0.07724822
11	0x3e162b7d	0.14665027
12	0x3e87a9f9	0.26496866
13	0x3e2bf067	0.16790925
14	0x3e111c73	0.14171009
15	0x3e06d6a1	0.13167812
16	0x3e6a8987	0.22904025
17	0x3e3d4acd	0.18485565
18	0x3e90fed1	0.2831941
19	0x3e0303ba	0.1279439
20	0x3e5aa393	0.21351461
21	0x3e0ffc30	0.14061046
22	0x3e6de618	0.23232305
23	0x3df5c89a	0.12001152
24	0x3e4a0d00	0.19731522
25	0x3e835a78	0.2565496
26	0x3e4dfae4	0.20115238
27	0x3e322c91	0.17399813
28	0x3dac5ade	0.08415769
29	0x3e3c434e	0.1838505
30	0x3e7d44bb	0.2473325
31	0x3e57eee8	0.21087229
32	0x3d968202	0.07349016
33	0x3e5d782b	0.21627872
34	0x3b6845a6	0.0035441904
35	0x3e12ec18	0.14347875
36	0x3d079e10	0.033109725
37	0xbbf347c6	-0.0074243275
38	0xbd8c3da2	-0.06847693
39	0x3a46cb7b	0.00075834215
40	0x3c535081	0.012897612
41	0xbcca116d	-0.024666512
42	0x3d1f3296	0.038866602
43	0xbcb25b00	-0.021771908
44	0xbcb974bf	-0.022638677
45	0x3bfc4d5e	0.0076996526
46	0x3d0dabb5	0.03458758
47	0x3bdfe855	0.006833116
48	0xbce076e6	-0.027400445
49	0x3da72dd0	0.08163035
50	0xbbe0e92b	-0.0068637333
51	0x3ee0995a	0.43866998
52	0x3ec65ed4	0.38744223
53	0x3e903dd7	0.2817218
54	0x3ed0197f	0.40644452
55	0x3e6f5d5c	0.23375458
56	0x3ec67ddd	0.387679
57	0x3ebe5016	0.37170476
58	0x3eacbcb7	0.33737728
59	0x3ea4d98e	0.3219723
60	0x3ecb879b	0.39751896
61	0x3e9d2031	0.30688623
62	0x3e7e26db	0.2481951
63	0x3ec2a0c1	0.3801327
64	0x3e98ad20	0.29819584
65	0x3ee7ba3b	0.4525927
66	0x3eaa1140	0.33216286
67	0x3eb802ac	0.35939538

FC.weight f4 [7, 17]
0	0x401ea2c7	2.4786851
1	0xbeb986c1	-0.36235622
2	0xbddd7648	-0.10813576
3	0x3e72793c	0.2367906
4	0x3e205503	0.1565743
5	0xbe7cdcc4	-0.2469359
6	0xbec60488	-0.38675332
7	0xbe828d70	-0.25498533
8	0x3ce86f16	0.028373282
9	0x3ec92caf	0.39291903
10	0x3fe0ec76	1.7572162
11	0xbf1f179e	-0.6214541
12	0xbe9c7e7e	-0.30565256
13	0x3e78a66a	0.24282232
14	0x3ed6ff75	0.41991773
15	0xbe2ced12	-0.1688731
16	0x3ea5749a	0.32315522
17	0xbedefc0a	-0.43551666
18	0x3fd491de	1.6607015
19	0x3f0de535	0.5542787
20	0xc013b1a9	-2.3077185
21	0xbdd1a7d1	-0.102370866
22	0xbf08570f	-0.5325784
23	0xbf16734f	-0.58769697
24	0xbf089a98	-0.5336089
25	0xbf3f4dfc	-0.7472837
26	0x3f048e3d	0.5177954
27	0xbe4246a6	-0.18972263
28	0x3db58e49	0.08865029
29	0xbec2b24e	-0.3802666
30	0x3ed70cab	0.42001852
31	0x3f0ad272	0.54227364
32	0xbec432cf	-0.38320014
33	0x3e317b38	0.1733216
34	0xbe6a95cc	-0.22908705
35	0xbe6e427c	-0.2326755
36	0x3e932ab1	0.28743508
37	0x3e89b1f2	0.26893574
38	0x3e00a10c	0.12561435
39	0xbeecc725	-0.46245685
40	0xbece9257	-0.40346023
41	0xbe0a4357	-0.1350225
42	0xbef49de8	-0.47776723
43	0x3eda010b	0.4257892
44	0xbe91b19a	-0.28455812
45	0x3ec8efcc	0.3924545
46	0x40089fd8	2.134756
47	0xbf565fe9	-0.837401
48	0x3f31d911	0.6947184
49	0x3ff3697e	1.9016569
50	0x3ec6276e	0.38701957
51	0xbeafd0d3	-0.34339008
52	0xbf01024e	-0.5039414
53	0x3ee92a16	0.45539922
54	0x3f033614	0.5125439
55	0x3e40894b	0.18802373
56	0x400f766d	2.2416031
57	0xbed33a72	-0.41255528
58	0xbef51f1f	-0.47875306
59	0xbf0b4bda	-0.54412615
60	0x3ef32b81	0.47494128
61	0xbe73a4f2	-0.2379339
62	0x3ec9929d	0.3936967
63	0xbee7910b	-0.45227847
64	0xbe93ef22	-0.2889338
65	0x3f0b12d6	0.54325616
66	0xbecf4086	-0.40478915
67	0xbfbfa242	-1.4971392
68	0xbf0a5bc7	-0.5404629
69	0xbe961b1a	-0.29317552
70	0xbffff9fc	-1.9998164
71	0x3ef84fdc	0.48498428
72	0x3d85c31b	0.06531354
73	0xbec9eb60	-0.3943739
74	0xbf2489b1	-0.642726
75	0xbe9c23d6	-0.3049609
76	0x3d15ef84	0.036605373
77	0xbfead8da	-1.8347428
78	0xbec1e93d	-0.3787326
79	0x3f45ab3c	0.7721441
80	0xbea9698f	-0.33088347
81	0x3f1dcea4	0.61643434
82	0x3f23f349	0.640431
83	0xbea2947f	-0.3175392
84	0x3eaace88	0.33360696
85	0xbeff3e55	-0.49852243
86	0xbead8229	-0.33888367
87	0x3f0da2ae	0.55326355
88	0x3f5e50fd	0.8684233
89	0xbe1cc812	-0.15310696
90	0xbeb924cd	-0.3616089
91	0xbf13d679	-0.57749134
92	0xbeccbe30	-0.39988852
93	0x3e21141a	0.15730324
94	0x3f2bebdb	0.6715676
95	0xbeaf59b6	-0.34248132
96	0x3e22a46e	0.15883037
97	0xbf156ae1	-0.5836621
98	0xbda46cb5	-0.08028547
99	0xc03a4489	-2.910433
100	0xbf004b8a	-0.50115263
101	0x3f3e1eaf	0.7426557
102	0xbea88d9b	-0.32920536
103	0xbeb09491	-0.34488347
104	0x3ece2fea	0.4027093
105	0x3ea573ed	0.32315007
106	0x3e8c9708	0.27458978
107	0xbec6f5e0	-0.38859463
108	0x3fdeba41	1.740059
109	0x4010c481	2.2619936
110	0xb9ca7f08	-0.00038623088
111	0x3efd0f11	0.49425557
112	0xbe89fec1	-0.26952174
113	0x3f09f538	0.538898
114	0xbe82895c	-0.25495422
115	0x3f2517cd	0.6448944
116	0x3f2c6556	0.67342126
117	0xbf0a5732	-0.540393
118	0x3ec3b3c8	0.382231

FC.bias f4 [7]
0	0xbf0cffc3	-0.5507776
1	0xbebf6bf8	-0.3738706
2	0xbebeadf0	-0.3724208
3	0xbe91708b	-0.28406176
4	0xbe9fa98a	-0.31184036
5	0xbef12122	-0.4709559
6	0xbde6cf76	-0.11270039
