data/parameters/parameters-2.pt (torch_old, 30840 bytes, 6 tensors)

rnn.weight_ih_l0 f4 [68, 89]
0.08813251 0.09870608 -1.7725e-41 3.4231e-41 3.1917e-41 2.2725e-41 6.3319e-41 0.0010517157
0.0048642755 0.01212712 0.012637671 0.08496318 0.06903045 0.0021647217 -0.007897841 0.031201137
0.10291495 0.04216119 0.03604622 0.04906062 0.08311147 1.07e-42 0.08526203 0.08199878
0.16537221 0.17736146 0.17908333 0.13753496 0.16104181 0.15587668 0.15993856 0.0017495838
2.0926e-41 -0.0016366108 0.0008349363 0.0015369183 -0.0010699056 -0.0006698478 -9.055431e-05 1.4459e-41
-4.364e-41 -2.4804e-41 6.837e-42 2.6712e-41 3.71e-42 -1.5518e-41 -1.662e-42 6.693e-42
-1.7307e-41 -6.452e-42 -1.752e-41 -3.9774e-41 2.1793e-41 2.4083e-41 -2.5841e-41 2.9635e-41
2.0354e-41 -4.452e-42 5.8929e-41 -1.526e-42 1.1185e-41 0.036326695 0.025167499 0.024944777
0.027907753 0.028301278 0.016596153 0.029233053 -0.0015154541 0.012276095 -0.0016137941 -0.0003059117
0.012989315 0.0064601484 0.00075167994 -3.9193e-41 2.7489e-41 -1.1411e-41 2.593e-41 -8.6857e-41
-1.2546e-40 -4.415e-42 0.03632673 0.025168108 0.024945363 0.027908823 0.02830093 0.016593339
0.029233074 0.061289832 0.119954444 -4.6453e-41 3.2168e-41 1.1973e-41 -1.9323e-41 2.8812e-41
-0.00019988262 0.004523628 0.002031989 0.011063779 0.05559052 0.09980325 0.008424818 0.0020348197
0.050242934 0.0714705 0.042262148 0.048017994 0.06633834 0.05128427 -2.4638e-41 0.11073682
0.055686403 0.16975339 0.1770934 0.15730157 0.16978215 0.15877032 0.161488 0.1606312
-0.0004433798 2.7257e-41 0.005421314 -0.00039698844 0.0012736876 0.005727047 0.0021376368 0.018027473
2.2178e-41 1.9748e-41 -1.29068e-40 -2.0975e-41 -3.2973e-41 2.829e-42 -1.6034e-41 2.3905e-41
1.8138e-41 -3.4326e-41 -2.843e-42 7.1825e-41 -4.4194e-41 -1.5367e-41 9.948e-42 3.4738e-41
4.71964e-40 2.542e-42 2.6769e-41 2.501e-42 -4.6799e-41 2.2456e-41 0.026986685 0.03588759
0.026852047 0.024683518 0.02495387 0.02491486 0.019864075 0.01688747 -0.002648514 0.002176407
-0.0018448132 0.017920861 0.018391788 -0.0005375899 2.1549e-41 1.8606e-41 1.8472e-41 3.2959e-41
-9.052e-42 -2.222e-42 -2.8849e-41 0.026986245 0.035881944 0.026851607 0.02468255 0.024953965
0.024914864 0.01986404 0.07255878 0.10422702 -1.0545e-41 1.9219e-41 -8.4556e-41 -1.344e-42
-2.2387e-41 -0.00016304081 0.0023990788 0.005541211 0.0045747324 0.06864112 0.08445045 0.011347944
0.0056404737 0.046526622 0.04178727 0.057613898 0.049965244 0.021034895 0.08151259 -2.0085e-41
0.07138489 0.08208967 0.14731875 0.16771814 0.14716607 0.17605911 0.15863097 0.16196175
0.14303276 -0.00031506445 8.913e-41 1.6972343e-05 0.001396377 0.008366203 0.023801366 0.0008080758
0.009466858 8.583e-42 -8.18e-42 2.0774e-41 2.1353e-41 1.1844e-41 -2.856e-41 1.524e-41
1.2225e-41 2.0465e-41 -4.3373e-41 7.968e-42 -5.6209e-41 -3.4388e-41 -8.58888e-08 -2.1147e-41
-8.11307e-27 -2.3787e-41 -1.0957e-41 2.055e-41 3.3341e-41 4.8796e-41 -5.5753e-41 0.024666596
0.029986428 0.032134734 0.023911182 0.026477786 0.020415172 0.022717046 0.015223662 0.011859782
-0.002191534 0.000364074 0.014299353 0.011419721 0.0005784899 2.7859e-41 2.4971e-41 3.3365e-41
00000000: d17e b43d 6a26 ca3d 6931 0080 6c5f 0000
00000010: f958 0000 593f 0000 82b0 0000 b9d9 893a
00000020: 8064 9f3b d4b0 463c 3c0e 4f3c 2d01 ae3d
00000030: d65f 8d3d 01de 0d3b f265 01bc 8799 ff3c
00000040: 13c5 d23d 36b1 2c3d 34a5 133d caf3 483d
00000050: 5936 aa3d fc02 0000 dc9d ae3d faee a73d
00000060: 5557 293e 3e9e 353e 9f61 373e f7d5 0c3e
00000070: 25e8 243e 239e 1f3e efc6 233e 4a52 e53a
00000080: 553a 0000 8c83 d6ba a0df 5a3a 6c72 c93a
00000090: 133c 8cba ba98 2fba fae7 bdb8 4e28 0000
000000a0: a779 0080 2545 0080 0f13 0000 764a 0000
000000b0: 580a 0000 422b 0080 a204 0080 a812 0000
000000c0: 3f30 0080 fc11 0080 d730 0080 e06e 0080
000000d0: c03c 0000 2243 0000 0948 0080 9c52 0000
000000e0: bd38 0000 690c 0080 45a4 0000 4104 0080
000000f0: 2e1f 0000 4dcb 143d 122c ce3c fd58 cc3c
00000100: cd9e e43c 15d8 e73c a8f4 873c 287a ef3c
00000110: 34a2 c6ba ad21 493c f285 d3ba c662 a0b9
00000120: 23d1 543c a7af d33b 630c 453a 416d 0080
00000130: a14c 0000 cf1f 0080 4848 0000 1ff2 0080
00000140: bb5d 0180 4f0c 0080 56cb 143d 592d ce3c
00000150: 385a cc3c 0ba1 e43c 5ad7 e73c c1ee 873c
00000160: 337a ef3c 0c0b 7b3d adaa f53d 7e81 0080
00000170: ac59 0000 6021 0000 dd35 0080 5150 0000
00000180: 9597 51b9 f13a 943b 1e2b 053b da44 353c
00000190: e3b2 633d a565 cc3d 3f08 0a3c 9c5a 053b
000001a0: 89cb 4d3d 205f 923d 131b 2d3d 84ae 443d
000001b0: 65dc 873d 740f 523d ae44 0080 fcc9 e23d
000001c0: 6d17 643d d5d3 2d3e f957 353e aa13 213e
000001d0: 5fdb 2d3e b094 223e 1c5d 253e 817c 243e
000001e0: 6e75 e8b9 fb4b 0000 47a5 b13b e322 d0b9
000001f0: ddf1 a63a f4a9 bb3b 9817 0c3b 5aae 933c
00000200: d33d 0000 0d37 0000 ca67 0180 783a 0080
00000210: ea5b 0080 e307 0000 b22c 0080 a342 0000
00000220: 9032 0000 b05f 0080 ed07 0080 38c8 0000
00000230: 327b 0080 d62a 0080 bb1b 0000 d660 0000
00000240: a523 0500 1607 0000 9f4a 0000 f906 0000
00000250: 7582 0080 993e 0000 2e13 dd3c defe 123d
00000260: d3f8 db3c 1735 ca3c 0f6c cc3c 401a cc3c
00000270: fcb9 a23c 9757 8a3c b192 2dbb 0da2 0e3b
00000280: a9cd f1ba c5ce 923c 60aa 963c 0ced 0cba
00000290: 123c 0000 de33 0000 7e33 0000 e05b 0000
000002a0: 3c19 0080 3206 0080 6b50 0080 4212 dd3c
000002b0: f2f8 123d e7f7 db3c 0f33 ca3c 426c cc3c
000002c0: 421a cc3c e9b9 a23c b399 943d fa74 d53d
000002d0: 651d 0080 9335 0000 b5eb 0080 bf03 0080
000002e0: 683e 0080 eff5 2ab9 dd39 1d3b 0c93 b53b
000002f0: a3e7 953b b793 8c3d 5cf4 ac3d baec 393c
00000300: b9d3 b83b b392 3e3d 2129 2b3d 8dfc 6b3d
00000310: 5ba8 4c3d 5f51 ac3c 13f0 a63d fd37 0080
00000320: 3e32 923d a11e a83d bada 163e 4ebe 2b3e
00000330: b4b2 163e d748 343e 2870 223e 4dd9 253e
00000340: 2e77 123e 3c2f a5b9 75f8 0000 d45f 8e37
00000350: a306 b73a 6612 093c 15fb c23c 0dd5 533a
00000360: e11a 1b3c ed17 0000 cd16 0080 e939 0000
00000370: 863b 0000 0421 0000 9d4f 0080 7c2a 0000
00000380: 1422 0000 0c39 0000 e878 0080 3616 0000
00000390: b09c 0080 dc5f 0080 de71 b8b3 f33a 0080
000003a0: 27b2 2094 4f42 0080 8b1e 0080 4939 0000
000003b0: f15c 0000 0688 0000 6b9b 0080 9a11 ca3c
000003c0: 19a6 f53c b69f 033d 62e1 c33c f1e7 d83c
000003d0: b83d a73c 1919 ba3c ab6c 793c 884f 423c
000003e0: d79f 0fbb 2fe1 be39 d547 6a3c c819 3b3c
000003f0: cda5 173a a94d 0000 9c45 0000 025d 0000

rnn.weight_hh_l0 f4 [68, 17]
-0.0020611137 -0.001670963 0.00055856246 -0.012776424 0.01682242 0.011373391 0.00043614808 -0.0053049577
0.0032802962 0.004599358 0.0023917737 0.04120321 0.009183821 -0.0018349731 -0.0086969435 0.005959134
0.014700251 0.0060158 -0.008469615 0.007982016 -0.023040054 0.011849899 0.016717732 -0.005240088
-0.00063426077 0.008059703 0.002486698 0.0030792688 0.050962042 0.0148737 0.002111946 -0.012711164
0.010537386 0.004109278 0.007870059 -0.0025181288 0.0017100222 -0.016332828 0.014112656 0.01573808
0.005351983 -0.0029968275 0.0033359036 0.0030388415 0.0016099557 0.044643044 -0.0016779758 0.004990549
-0.0031051438 0.0021106512 0.011970925 0.0005340389 0.00229557 -0.0036896148 -0.009521006 0.012749534
0.015738219 0.005096656 -0.0049149627 0.0075921635 0.0048867934 -0.0053428956 0.04217805 -0.0022236293
0.003391431 -0.0060100174 0.0046380423 0.012249981 0.0068984856 -0.010714691 0.0038112437 -0.026129814
0.0014571395 0.023085283 -0.010736789 -0.0011212096 0.009328996 0.006944373 -0.0054484406 0.05263922
0.012356158 -0.0035171902 -0.0037493554 0.008835023 0.007639481 0.0038574233 0.00106172 -0.001237863
-0.012428559 0.017332066 0.005651895 0.004666398 -0.0018658865 0.007580274 0.008129461 0.00402206
0.042183857 0.005140179 -0.0013018708 -0.013485436 0.0021152268 0.0100886775 -0.0032764634 -0.0106490245
0.0013870164 -0.019274037 0.011797232 0.016409332 -0.0060191965 -0.0078056855 0.0033779943 0.008435999
-0.0005812543 0.04711905 0.017003743 -0.0067456677 -0.0070409756 0.0055689346 0.011811641 0.0019569753
0.00271188 -0.0027117685 -0.014195705 0.015644135 0.012915592 0.002131335 -0.0035287482 0.0056540123
0.004232092 4.2058182e-05 0.044518836 0.005644949 -0.001651458 -0.0065301657 0.0024759267 0.022082083
-0.0021362624 -0.004145446 0.00060835795 -0.0126359165 0.010296794 0.013445038 -0.0056233997 -0.0063784015
0.0050635776 0.006292956 -0.0039494876 0.036350936 0.0041018077 -0.0046308655 -0.000930271 0.0013538386
0.01988326 0.0025485752 -0.005640092 0.003461436 -0.018036995 0.017420778 0.015382102 -0.001068795
-0.007012927 0.008043892 0.0057195793 -0.0006684114 0.049270086 0.007217644 -0.00030216636 -0.00755655
0.0023264934 0.020908952 0.0054548373 -0.00527259 0.0043879645 -0.02151115 0.00663998 0.01915623
-0.0065146247 8.9136985e-05 0.009006939 0.003299236 -0.0017281058 0.046504553 0.0096020205 0.0007767726
-0.0066377553 0.0100755105 0.0069706477 -0.0022235496 -0.0012260941 -0.00033512872 -0.006105087 0.0062519736
0.0056801545 -0.00029287048 -0.0026284892 0.0006691715 0.0021276355 0.0036049683 0.016281432 0.0023555718
-0.000772072 -0.0025784536 0.0016810184 0.0050231433 0.0056588794 -0.00751653 0.0050789593 -0.027417904
0.010346059 0.014494637 -0.013537765 0.0041725836 0.012210392 0.014411031 -0.0038805825 0.056788534
0.008256736 -0.0117465295 -0.010546787 0.011314887 0.0126279835 0.0063767317 -0.0045615863 0.0040876763
-0.025559992 0.01971203 0.019541796 0.0009210162 -0.0025892484 0.008868721 0.0038677233 -0.00054706
0.056061473 0.01328412 0.0010889231 -0.007622262 0.0055299015 0.01921166 0.0036713143 -0.0041044913
0.0037504209 -0.014227131 0.012342221 0.014634651 0.00012062597 -0.004926001 0.0049888836 0.0030452101
-0.0010538924 0.04031366 0.003706426 0.003604964 -0.004705447 0.0046117394 0.011494641 -0.00057507196
00000000: c013 07bb 3704 dbba 7e6c 123a 3554 51bc
00000010: 2ccf 893c 7657 3a3c ceaa e439 36d5 adbb
00000020: 3dfa 563b 36b6 963b 4ebf 1c3b b2c4 283d
00000030: bd77 163c 7b83 f0ba a07d 0ebc d744 c33b
00000040: 52d9 703c 3020 c53b 24c4 0abc 00c7 023c
00000050: 7fbe bcbc 1426 423c a0f3 883c 0bb5 abbb
00000060: 8544 26ba d80c 043c dff7 223b 8fcd 493b
00000070: 93bd 503d d2b0 733c 9368 0a3b 7c42 50bc
00000080: 00a5 2c3c 1fa7 863b 6cf1 003c 3107 25bb
00000090: d322 e03a 6ccc 85bc c538 673c 25ed 803c
000000a0: b05f af3b 6c66 44bb 2d9f 5a3b 4d27 473b
000000b0: 2605 d33a a0db 363d 86ef dbba c287 a33b
000000c0: ab7f 4bbb da52 0a3b b321 443c befe 0b3a
000000d0: 4671 163b 77cd 71bb fefd 1bbc 6ce3 503c
000000e0: 70ed 803c d901 a73b b20d a1bb afc7 f83b
000000f0: 6521 a03b 7513 afbb e4c2 2c3d 4fba 11bb
00000100: c542 5e3b aeef c4bb b8fa 973b 25b4 483c
00000110: b10c e23b ac8c 2fbc 0fc6 793b 310e d6bc
00000120: 7dfd be3a 591d bd3c 5be9 2fbc 8df5 92ba
00000130: a5d8 183c 9f8d e33b d588 b2bb 399c 573d
00000140: 7c71 4a3c a980 66bb bfb7 75bb c6c0 103c
00000150: 9d54 fa3b d3cc 7c3b 6929 8b3a ca3f a2ba
00000160: 28a1 4bbc fafb 8d3c 8833 b93b 95e8 983b
00000170: c390 f4ba f263 f83b 6e31 053c 7ccb 833b
00000180: fbc8 2c3d f26e a83b 89a3 aaba 05f2 5cbc
00000190: 9e9f 0a3b fb4a 253c efb9 56bb 3f79 2ebc
000001a0: 8ccc b53a 96e4 9dbc 2d49 413c dd6c 863c
000001b0: ae3c c5bb d6c6 ffbb 5761 5d3b 2537 0a3c
000001c0: 515f 18ba e8ff 403d 6f4b 8b3c c30a ddbb
000001d0: fcb7 e6bb 9c7b b63b 9d85 413c 9940 003b
000001e0: ccb9 313b edb7 31bb 1a95 68bc 2128 803c
000001f0: eb9b 533c dead 0b3b 9242 67bb 4b45 b93b
00000200: 5cad 8a3b a167 3038 6259 363d 44f9 b83b
00000210: bc75 d8ba 00fb d5bb 2843 223b 7ce5 b43c
00000220: 8900 0cbb 85d6 87bb 367a 1f3a e006 4fbc
00000230: e2b3 283c 9448 5c3c 7f44 b8bb e901 d1bb
00000240: 5eec a53b 2435 ce3b b46a 81bb b8e4 143d
00000250: 7568 863b 84be 97bb 6edd 73ba 4973 b13a
00000260: 38e2 a23c ff05 273b 85d0 b8bb 42d9 623b
00000270: 52c2 93bc 05b6 8e3c 3605 7c3c cf16 8cba
00000280: b2cc e5bb 87ca 033c 4f6b bb3b 5438 2fba
00000290: 6ecf 493d fc81 ec3b 156c 9eb9 f09c f7bb
000002a0: 1578 183b 4049 ab3c 7ebe b23b b1c5 acbb
000002b0: eac8 8f3b 2738 b0bc 3094 d93b 87ed 9c3c
000002c0: a278 d5bb 0eef ba38 d791 133c ff37 583b
000002d0: 9c81 e2ba 8f7b 3e3d cb51 1d3c 54a0 4b3a
000002e0: 8781 d9bb c113 253c 086a e43b f9b8 11bb
000002f0: e4b4 a0ba 37b4 afb9 2f0d c8bb 5bdd cc3b
00000300: 9720 ba3b 698c 99b9 bb42 2cbb 576b 2f3a
00000310: cd6f 0b3b 5541 6c3b a360 853c f05f 1a3b
00000320: e064 4aba 46fb 28bb 9e55 dc3a 2e99 a43b
00000330: 1f6e b93b 394d f6bb 666d a63b 839b e0bc
00000340: 8482 293c ea7a 6d3c 80cd 5dbc 2bba 883b
00000350: 190e 483c 3f1c 6c3c 5f51 7ebb 189b 683d
00000360: 4347 073c 8474 40bc 6ecc 2cbc 1362 393c
00000370: 9ae5 4e3c e7f3 d03b 5c79 95bb eaf1 853b
00000380: 3063 d1bc 207b a13c 1e16 a03c 5a70 713a
00000390: 61b0 29bb 1d4e 113c a179 7d3b 9368 0fba
000003a0: b7a0 653d a3a5 593c 32ba 8e3a 2bc4 f9bb
000003b0: 2d34 b53b c561 9d3c 6f9a 703b f87e 86bb
000003c0: 9fc9 753b ea18 69bc 0737 4a3c 2dc6 6f3c
000003d0: 93f8 fc38 4b6a a1bb ca79 a33b 2692 473b
000003e0: c322 8aba f01f 253d 82e7 723b 4241 6c3b
000003f0: 2630 9abb 131e 973b 0554 3c3c 6dc0 16ba

rnn.bias_ih_l0 f4 [68]
0.1868334 0.18123886 0.17678216 0.16670401 0.17587757 0.17689037 0.1767715 0.16995484
0.17582767 0.18275984 0.19191353 0.08940996 0.15825225 0.17705543 0.17281865 0.1807819
0.18948093 0.10607913 0.08846559 0.09965522 0.07792874 0.0708455 0.08731313 0.094357006
0.089998946 0.104436055 0.10144336 0.101646245 0.031165391 -0.057667684 0.09670999 0.086798646
0.09951937 -0.058903128 -0.0011662524 0.0021764669 0.0011771274 -0.005325613 -0.004996286 0.038640477
0.020819135 -0.010681099 0.013673941 -0.021915508 -0.0020503642 0.09334467 0.010547722 0.019830529
-0.0048990087 0.01770039 -0.027919983 0.20900723 0.20077762 0.2020414 0.17969047 0.18259205
0.19228274 0.19504035 0.19312777 0.19203538 0.20932053 0.20958787 0.112176195 0.17485291
0.20992808 0.1801174 0.19592726 0.19725053
00000000: 4151 3f3e ae96 393e 6206 353e 75b4 2a3e
00000010: 4019 343e c022 353e 9703 353e a408 2e3e
00000020: 2b0c 343e 6525 3b3e fb84 443e 921c b73d
00000030: e10c 223e 054e 353e 5ff7 303e e41e 393e
00000040: 4a07 423e 0440 d93d 722d b53d 0918 cc3d
00000050: 1a99 9f3d 7217 913d 3ad1 b23d 3f3e c13d
00000060: 5e51 b83d 92e2 d53d 89c1 cf3d e82b d03d
00000070: 904e ff3c f334 6cbd e30f c63d 7dc3 b13d
00000080: d0d0 cb3d 6844 71bd f0dc 98ba 0ea3 0e3b
00000090: d749 9a3a 7b82 aebb e2b7 a3bb 7a45 1e3d
000000a0: e48c aa3c c7ff 2ebc aa08 603c 2788 b3bc
000000b0: 675f 06bb 7e2b bf3d 5ad0 2c3c a273 a23c
000000c0: dd87 a0bb 6900 913c 73b8 e4bc fe05 563e
000000d0: a698 4d3e f1e3 4e3e c700 383e 69f9 3a3e
000000e0: c4e5 443e a8b8 473e 49c3 453e eca4 443e
000000f0: 1f58 563e 349e 563e a2bc e53d a40c 333e
00000100: 63f7 563e b270 383e 28a1 483e 0bfc 493e

rnn.bias_hh_l0 f4 [68]
0.18683559 0.18123561 0.17678253 0.16670108 0.1758738 0.17689233 0.17676839 0.16995595
0.1758312 0.18275982 0.19191325 0.08940962 0.15825228 0.17705786 0.17281608 0.18078263
0.1894802 0.10608123 0.08846556 0.09965408 0.07792874 0.07084623 0.087312154 0.094357006
0.090003274 0.104431376 0.10144336 0.10164596 0.0311653 -0.057665788 0.09671007 0.0867986
0.09952011 -0.058903184 -0.0011676211 0.002176621 0.0011771978 -0.005325602 -0.0049962928 0.03863967
0.020819055 -0.010681101 0.013673944 -0.021915486 -0.0020503623 0.09334674 0.010547344 0.019830426
-0.0048992056 0.017700221 -0.027919509 0.2090001 0.20076934 0.20204175 0.17968316 0.18259163
0.19229186 0.19505265 0.19312857 0.19203743 0.20931958 0.20958531 0.112176076 0.17485309
0.2099313 0.18011686 0.19592106 0.19725013
00000000: d451 3f3e d495 393e 7b06 353e b0b3 2a3e
00000010: 4318 343e 4323 353e c602 353e ef08 2e3e
00000020: 180d 343e 6425 3b3e e884 443e 641c b73d
00000030: e30c 223e a84e 353e b3f6 303e 151f 393e
00000040: 1907 423e 1e41 d93d 6e2d b53d 7017 cc3d
00000050: 1a99 9f3d d417 913d b7d0 b23d 3f3e c13d
00000060: a353 b83d 1ee0 d53d 89c1 cf3d c22b d03d
00000070: 5f4e ff3c f632 6cbd ee0f c63d 77c3 b13d
00000080: 33d1 cb3d 7744 71bd dd0a 99ba a4a5 0e3b
00000090: 344c 9a3a 6382 aebb f1b7 a3bb a144 1e3d
000000a0: b98c aa3c c9ff 2ebc ae08 603c 1b88 b3bc
000000b0: 5f5f 06bb 932c bf3d c4ce 2c3c 6b73 a23c
000000c0: 8489 a0bb 0e00 913c 74b7 e4bc 1f04 563e
000000d0: 7a96 4d3e 08e4 4e3e ddfe 373e 4df9 3a3e
000000e0: 28e8 443e e2bb 473e 7fc3 453e 76a5 443e
000000f0: df57 563e 889d 563e 92bc e53d b00c 333e
00000100: 3bf8 563e 8e70 383e 889f 483e f0fb 493e

FC.weight f4 [7, 17]
0.2864511 -0.603698 0.47691113 0.45937318 0.17436019 -0.43169647 0.23887394 -0.5275037
0.75876915 0.5468881 -0.45154193 -0.25788623 0.3584366 0.59110636 -0.49310628 -0.7563647
-0.57946384 -0.5471834 0.16777448 -0.5753445 0.53831375 0.5446965 -0.17360783 0.6569759
-0.42306158 -0.7697822 0.15006875 0.03487958 -0.24936981 -0.3214546 -0.38838673 0.39145815
-0.57658356 1.2331296 -0.4491632 0.51379883 -0.56243086 0.3561184 -0.47240025 -0.36867034
-0.5139526 0.36302474 0.4530604 0.40942082 -0.46575832 -0.25195345 -0.09970042 -0.63768744
-0.5132046 0.5442768 -0.2729851 -0.5336528 -0.53552705 0.48948395 0.35347518 -0.38353586
0.6345209 -0.5663109 -0.45107004 -0.35876083 -0.5303381 -0.27124044 -0.24498965 -0.32370138
0.502146 0.3857114 0.55567217 -0.15206127 0.6373871 0.45657253 -0.5356927 -0.45323426
-0.69019276 0.5510557 0.64350826 0.3822984 0.13689265 -0.5036114 -0.62361604 -0.25607896
0.773023 0.11178867 0.5205081 -0.16795714 -0.116941 0.32281157 0.6872599 0.4084869
0.038906645 0.6670385 -0.4935476 0.20062234 0.4434411 -0.046249736 -0.8191762 0.9654779
-0.2665469 -0.51038873 0.6926785 -0.4899071 0.55240065 -0.18171127 0.51490635 -0.491095
0.38988262 -0.5824649 -0.3425972 -0.43258938 -0.5136211 0.4758066 -0.4724169 0.39384547
0.47404093 -0.2391407 -0.11998364 -0.6248903 0.4875883 -0.41506368 -0.1910053
00000000: b8a9 923e f48b 1abf b22d f43e f632 eb3e
00000010: 7a8b 323e 5207 ddbe 5f9b 743e 7c0a 07bf
00000020: b23e 423f dc00 0c3f 8130 e7be aa09 84be
00000030: 0185 b73e bf52 173f 6d78 fcbe 1ea1 41bf
00000040: be57 14bf 3614 0cbf 13cd 2b3e c749 13bf
00000050: eece 093f 3b71 0b3f 40c6 31be 932f 283f
00000060: 879b d8be 7210 45bf 9fab 193e e4dd 0e3d
00000070: cd5a 7fbe b395 a4be a0da c6be 346d c83e
00000080: fb9a 13bf 31d7 9d3f b8f8 e5be 5288 033f
00000090: 78fb 0fbf 2755 b63e 72de f1be 5cc2 bcbe
000000a0: 6692 03bf 61de b93e 88f7 e73e 9b9f d13e
000000b0: e077 eebe 0b00 81be bc2f ccbd 7c3f 23bf
000000c0: 6061 03bf b955 0b3f b4c4 8bbe 789d 08bf
000000d0: 4d18 09bf a49d fa3e b3fa b43e d05e c4be
000000e0: f66f 223f c0f9 10bf a7f2 e6be 80af b7be
000000f0: 3dc4 07bf 07e0 8abe 91de 7abe 30bc a5be
00000100: a48c 003f f77b c53e 8840 0e3f f3b5 1bbe
00000110: cd2b 233f e0c3 e93e 2823 09bf 520e e8be
00000120: 79b0 30bf fd11 0d3f f5bc 243f 9ebc c33e
00000130: 962d 0c3e adec 00bf 4da5 1fbf c81c 83be
00000140: d6e4 453f 75f1 e43d 0540 053f f5fc 2bbe
00000150: c37e efbd 8f47 a53e 44f0 2f3f 3225 d13e
00000160: 935c 1f3d 09c3 2a3f 45b2 fcbe f16f 4d3e
00000170: b60a e33e 5d70 3dbd 88b5 51bf 8f29 773f
00000180: d678 88be d6a8 02bf 6153 313f 1ad5 fabe
00000190: 216a 0d3f 8512 3abe e7d0 033f ce70 fbbe
000001a0: b29e c73e 6b1c 15bf e668 afbe 5b7c ddbe
000001b0: ac7c 03bf ec9c f33e a1e0 f1be 1da6 c93e
000001c0: 7eb5 f23e 4de1 74be fcb9 f5bd d0f8 1fbf
000001d0: 2ca5 f93e 3a83 d4be e596 43be

FC.bias f4 [7]
-0.34901515 -0.40425646 -0.3448312 -0.37780848 -0.37429553 -0.42309147 -0.3572534
00000000: 1db2 b2be b4fa cebe b78d b0be 1d70 c1be
00000010: aaa3 bfbe 729f d8be ebe9 b6be
