data/parameters/parameters-26.pt (torch_old, 30842 bytes, 6 tensors)

rnn.weight_ih_l0 f4 [68, 89]
0	0xbdc32111	-0.09527791
1	0x3bf56ab9	0.007489529
2	0x3de00b1b	0.10939618
3	0xbe547340	-0.2074709
4	0x3d88a822	0.06672694
5	0x3dc892e3	0.097936414
6	0x3e20c2f5	0.1569937
7	0xbd0dd43d	-0.034626234
8	0x3da103f4	0.07862082
9	0x3d6dd50a	0.058064498
10	0xbde030e4	-0.10946825
11	0x3dcff3b3	0.10153904
12	0x3c07d91e	0.008291511
13	0x3c567fb0	0.0130919665
14	0x3cd36ad3	0.025807774
15	0x3dd709cb	0.10499915
16	0x3e34690c	0.17618197
17	0xbec12859	-0.37726095
18	0x3d7d19a7	0.061792042
19	0xbdcb43d7	-0.09925049
20	0xbde463ec	-0.11151871
21	0x3c1a28b7	0.009409121
22	0xbcfdceea	-0.030982453
23	0xbd166046	-0.036712907
24	0x3e2197cf	0.15780567
25	0x3e120fe4	0.14263874
26	0x3e2340d5	0.159427
27	0xbc90e306	-0.017686378
28	0x3d9d9b96	0.07695691
29	0x3e002a02	0.12516025
30	0x3e86fcc9	0.26364735
31	0xbdc2bad3	-0.0950829
32	0x3e05de9a	0.13073197
33	0x3dd3d0e2	0.103425756
34	0xbcec9495	-0.028879443
35	0xbd71d7c0	-0.059043646
36	0xbe1cdd24	-0.15318733
37	0xbdb7cd0b	-0.08974656
38	0x3d4edc82	0.05050326
39	0x3ba7d48d	0.0051217736
40	0x3de275a8	0.110575974
41	0x3e09c06f	0.13452314
42	0x3a0e1026	0.00054192764
43	0x3d2fbdbd	0.042905558
44	0xbd9e2560	-0.077219725
45	0x3cb9f9ec	0.02270218
46	0x3e3deaaf	0.18546556
47	0x3d7a8de5	0.061170477
48	0xbe47677d	-0.19473071
49	0xbd4da4c6	-0.05020597
50	0x3c5150e8	0.012775637
51	0xbd66ecbb	-0.056378108
52	0xbd49882d	-0.049202133
53	0xbc4ac7e5	-0.01237676
54	0x3cd9be78	0.02658008
55	0xbd901fb5	-0.07037298
56	0x3cfdd130	0.030983537
57	0x3ba1c21a	0.004936469
58	0xbc04dec3	-0.008109751
59	0xbcb9089e	-0.022587117
60	0x3df4ed43	0.119593166
61	0xbd1d8477	-0.038456406
62	0xbd469561	-0.048482303
63	0x3e003509	0.12520231
64	0x3d21eb6f	0.039531168
65	0x3ba3bb7a	0.004996714
66	0x3d77fc20	0.06054318
67	0x3d79e1fe	0.06100654
68	0x3c0d32ed	0.008618099
69	0x3d9968eb	0.07490715
70	0x3cc7a356	0.024369877
71	0xbc3b4ebd	-0.011432347
72	0xbcd75043	-0.026283389
73	0xbcd038c8	-0.0254177
74	0xbc1a2a93	-0.009409565
75	0x3c34d026	0.011035955
76	0x3c9bc55e	0.01901501
77	0x3ca41413	0.020029103
78	0x3c677294	0.014126439
79	0x3c5b02ec	0.013367396
80	0x3d38b399	0.045093153
81	0x3beeddef	0.00728964
82	0xbd1aebe1	-0.037822608
83	0x3cd9d5dc	0.026591234
84	0x3c8fd88d	0.017559314
85	0x3e3d2ba0	0.18473673
86	0xbdc56737	-0.09638827
87	0xbd4fe47e	-0.050755017
88	0x3cd2ab03	0.02571631
89	0xbecdaadd	-0.4016942
90	0x3e4ce6b9	0.20009889
91	0x3daeeb05	0.0854092
92	0x3d1d7220	0.038438916
93	0x3bd207f2	0.0064096386
94	0x3debdeb1	0.115170844
95	0x3da146eb	0.07874855
96	0xbecb6c1d	-0.3973092
97	0x3de5e17c	0.11224648
98	0x3d86e73c	0.06587073
99	0x3be3f538	0.0069567226
100	0x3e0e9ce4	0.13927037
101	0x3d1999e1	0.037500266
102	0x3e291d57	0.16515099
103	0xbdd268d7	-0.10273903
104	0xbd863ba0	-0.06554341
105	0x3e2c8d68	0.16850817
106	0xbdde8d59	-0.10866804
107	0x3d913842	0.070908085
108	0x3d04a19b	0.03238068
109	0xbe4c8fca	-0.19976726
110	0x3d352891	0.04422814
111	0x3e9bb909	0.30414608
112	0xbe6a1b06	-0.22861871
113	0xbec2a1cf	-0.38014075
114	0x3e3ef474	0.18647939
115	0x3e7a881e	0.24465987
116	0x3d9c86c9	0.07642896
117	0x3ebaf799	0.36517027
118	0x3e42ba87	0.19016467
119	0x3ea11b9f	0.31466386
120	0x3dcfa626	0.10139112
121	0x3d7935b4	0.06084223
122	0xbba5945c	-0.005053086
123	0xbd83eeef	-0.06442057
124	0x3d0c7cc8	0.03429869
125	0x3c15497a	0.009111756
126	0x3cc06f77	0.02349065
127	0xbd39f67e	-0.04540109
128	0xbd1f9f8e	-0.038970523
129	0x3dcd7449	0.10031945
130	0x3d57d0c7	0.05268934
131	0x3c876f52	0.016532574
132	0xbdc7cc07	-0.09755712
133	0xbdfbf799	-0.12303085
134	0x3c04c3c2	0.008103313
135	0x3e089709	0.13338865
136	0xbe1b04db	-0.15138571
137	0xbd303414	-0.043018416
138	0xbca67e10	-0.020323783
139	0xbd15db1d	-0.036585916
140	0xbd8d7fd7	-0.06909149
141	0x3ce3feb1	0.027831407
142	0x3d93b0a8	0.07211429
143	0xbd32a892	-0.043617792
144	0xbd7466e2	-0.05966843
145	0xbd2ea35c	-0.04263626
146	0xbd4bc3dd	-0.049747337
147	0xbd8a780d	-0.06761179
148	0xbdaa998d	-0.08330069
149	0x3e319475	0.17341788
150	0x3dbef745	0.09324507
151	0xbc18dca4	-0.009329949
152	0xbb980a7e	-0.0046399226
153	0xbc5e8385	-0.013581161
154	0xbd5f00c5	-0.054444093
155	0x3c563e72	0.013076412
156	0x3c5100ac	0.012756508
157	0x3e178789	0.14797796
158	0x3d9a75ca	0.07541998
159	0x3da676a4	0.08128098
160	0x3dcf3620	0.101177454
161	0x3db6a41a	0.08918019
162	0x3d9b79b3	0.07591572
163	0x3d6927c4	0.05692269
164	0x3e47dd13	0.19517927
165	0x3cac8e2c	0.021063887
166	0xbb7b440a	-0.0038340115
167	0x3d3e0e74	0.046400502
168	0x3d505125	0.050858635
169	0x3c78b266	0.015179252
170	0x3c8b1c57	0.016981287
171	0xbe637b0c	-0.22214907
172	0x3b7306b7	0.003708286
173	0xbcf15182	-0.029457811
174	0x3c50f80f	0.012754454
175	0xbdacf093	-0.084443234
176	0xbd70f2d8	-0.058825344
177	0xbd137da0	-0.036008477
178	0x3e1da3a2	0.15394452
179	0xbc871230	-0.016488165
180	0x3ca33323	0.019921845
181	0xbdae2258	-0.08502644
182	0x3e3113ca	0.17292705
183	0x3d5e8451	0.054325406
184	0xbe131a0a	-0.14365402
185	0xbd1f21f2	-0.038850732
186	0x3e7ae5a8	0.2450167
187	0x3d90ff4c	0.07079944
188	0xbd943563	-0.07236745
189	0x3d16f15a	0.036851265
190	0x3dc8094e	0.097674
191	0xbe34fe48	-0.17675126
192	0x3dae12b6	0.084996626
193	0x3e25832d	0.16163321
194	0xbe687ac6	-0.22703084
195	0xbdd95af1	-0.10613049
196	0xbe04dcba	-0.12974826
197	0xbd6f1db4	-0.058377936
198	0x3dbcef16	0.092252895
199	0xbe254f47	-0.16143523
200	0xbee4b807	-0.44671652
201	0x3e930fc0	0.28722954
202	0x3e111a64	0.14170223
203	0x3e927604	0.28605664
204	0x3e4b18ca	0.19833675
205	0x3e87cfed	0.26525822
206	0x3ea1ff3d	0.31640044
207	0x3e3ae0a8	0.18249762
208	0xbf25c7f6	-0.6475824
209	0xbd7ce342	-0.061740167
210	0x3de60731	0.112318404
211	0x3d85c88e	0.065323934
212	0x3c2063a6	0.009789383
213	0x3de149e1	0.110004194
214	0xbcd0af29	-0.025474148
215	0xbb770cd4	-0.0037696855
216	0x3de89073	0.113556765
217	0xbd8aece0	-0.067834616
218	0x3da64acd	0.08119736
219	0x3de3f1c1	0.11130095
220	0x3e1f8682	0.15578654
221	0xba51ed5a	-0.00080080854
222	0x3dca8a04	0.09889606
223	0xbe247e4d	-0.16063805
224	0xbdc73e25	-0.0972865
225	0xbe03241d	-0.12806745
226	0x3c1e3622	0.009656461
227	0x3c86250a	0.016375083
228	0xbd9e2c6f	-0.07723319
229	0xbcbe6c73	-0.023245072
230	0x3e916eb3	0.2840477
231	0xbc1ff713	-0.009763497
232	0x3c8f8e68	0.01752396
233	0x3d3e5456	0.046467148
234	0x3cc444b0	0.023958534
235	0x3cebb697	0.028773589
236	0x3ca91d6b	0.02064391
237	0x3d63caed	0.055613447
238	0xbcec3eb8	-0.0288385
239	0xbbd652be	-0.0065406254
240	0x3b7eb356	0.0038864217
241	0xbaa54ae2	-0.0012610818
242	0x3ce5c971	0.028050156
243	0x3c888d3e	0.016668912
244	0x3d0cc1df	0.034364577
245	0x3d85b56b	0.06528743
246	0x3d827602	0.063701645
247	0x3d138a3b	0.0360205
248	0xbc5827bd	-0.013193068
249	0xbc5196e4	-0.012792323
250	0x3cb42850	0.021991879
251	0xbcb02d26	-0.021505903
252	0x3e6f9000	0.23394775
253	0x3d6ce1d5	0.057832558
254	0x3d1f6b22	0.03892053
255	0x3ca0b278	0.01961635

rnn.weight_hh_l0 f4 [68, 17]
0	0x3d4ae44b	0.049534123
1	0x3ddcd19d	0.10782168
2	0xbd76aa6d	-0.060221124
3	0xbca396a8	-0.0199693
4	0xbb02dd39	-0.0019968285
5	0xbd8fbdcb	-0.07018622
6	0x3da0d65f	0.07853388
7	0x3d64820a	0.055788077
8	0xbd317339	-0.043322776
9	0xbcf24bcd	-0.02957716
10	0xbe6a5a14	-0.22885925
11	0xbbf880a5	-0.007583695
12	0xbe1eaf3d	-0.15496536
13	0xbb512c05	-0.0031917107
14	0xbe1cffdd	-0.15331979
15	0xbd5fb47a	-0.054615475
16	0x3dd51073	0.10403528
17	0xbd869440	-0.06571245
18	0x3e31175e	0.1729407
19	0x3bb5acca	0.0055442797
20	0xbd28051a	-0.04102049
21	0x3caa4912	0.020786796
22	0xbc2947fc	-0.010332104
23	0x3d600e99	0.05470142
24	0xbe08c076	-0.13354668
25	0x3d42c938	0.04755518
26	0x3d440042	0.04785181
27	0xbb1194e0	-0.002221398
28	0xbe84a8ae	-0.25909942
29	0x3c431ace	0.011908246
30	0xbc3a0e57	-0.011355958
31	0x3d56c142	0.0524304
32	0x3a9fdab9	0.0012195922
33	0x3d7581d8	0.05993828
34	0x3caff6ff	0.021480082
35	0x3d3f3554	0.046681717
36	0xbd43dc71	-0.04781765
37	0xbca84076	-0.02053855
38	0xbd89f195	-0.06735531
39	0x3cf1aa0d	0.029500032
40	0x3dd215ed	0.10258088
41	0x3cd191b5	0.025582174
42	0xbd8f2038	-0.06988567
43	0xbda99861	-0.08281017
44	0xbd4e0ba0	-0.050304055
45	0x3e185417	0.14875828
46	0x3bda2850	0.0066576377
47	0xbde26da0	-0.110560656
48	0x3c184129	0.009292879
49	0x3ddcc278	0.107792795
50	0x3b491da7	0.003068784
51	0x3c9c696e	0.019093242
52	0x3de28517	0.11060541
53	0xbd7bd4d8	-0.06148228
54	0xbe96b6ef	-0.29436442
55	0x3e0e80e5	0.13916357
56	0x3d15d965	0.036584277
57	0xbcaaa59b	-0.02083092
58	0x3e56e9e8	0.20987666
59	0x3cb036c8	0.021510497
60	0xbd0a5f2a	-0.03378216
61	0x3c0e92dd	0.008702007
62	0x3c2ddfed	0.01061247
63	0xbcb07580	-0.021540403
64	0x39d18007	0.00039958974
65	0x3dbc1167	0.09183007
66	0xbe1e153f	-0.15437792
67	0x3e073518	0.13203847
68	0x3bc3e4e9	0.005978216
69	0x3d98e2b7	0.074651174
70	0xbcc9f621	-0.024653496
71	0xbcfb7910	-0.030697376
72	0x3d92108f	0.071320646
73	0xbd411300	-0.04713726
74	0xbd2c2f4d	-0.042037297
75	0xbce6f74b	-0.02819409
76	0x3d109d05	0.035305995
77	0x3e06b01d	0.1315312
78	0xbd73eb04	-0.0595503
79	0x3d92909f	0.071564905
80	0x3c5f626a	0.013634304
81	0xbdea87fe	-0.1145172
82	0x3d87566a	0.06608279
83	0x3cd1bfce	0.025604155
84	0x3d0fce06	0.03510859
85	0xbd89fbef	-0.06737506
86	0x3df12d59	0.117762275
87	0x3b7ce9b7	0.0038591453
88	0x3a88f5b6	0.0010449204
89	0xbde08f6e	-0.10964857
90	0xbd83733f	-0.06418466
91	0xbd9e5cb2	-0.07732524
92	0xbe1298ce	-0.14316103
93	0x3da5328a	0.0806628
94	0x3d6976cc	0.05699806
95	0xbc6eeddf	-0.01458308
96	0x3e1c7b0b	0.15281312
97	0x3d81f096	0.06344716
98	0x3dc78022	0.09741236
99	0x3e13a43f	0.14418124
100	0x3d589a4d	0.052881528
101	0x3e0da1fe	0.13831326
102	0xbd9462d7	-0.07245415
103	0xbd2b7eac	-0.04186885
104	0xbda0c527	-0.07850104
105	0xbd613b2e	-0.05498808
106	0x3cdb0fc1	0.02674091
107	0xbdc1b31b	-0.0945799
108	0xbe02a7fe	-0.12759396
109	0xbcf4bfc5	-0.0298766
110	0xbdd5460f	-0.10413753
111	0x3d067678	0.032827824
112	0xbd984b33	-0.07436218
113	0x3e0bc010	0.13647485
114	0xbd91730e	-0.07102023
115	0x3d982e00	0.07430649
116	0x3d1b874b	0.037970822
117	0xbcb05e3d	-0.021529311
118	0xbc8ab264	-0.016930766
119	0x3d56ab11	0.052409235
120	0x3d920bb7	0.07131141
121	0x3d167fb2	0.036742873
122	0xbe2ae9a6	-0.16690692
123	0x3dc59d66	0.09649162
124	0x3a87225d	0.0010309924
125	0xbcc667f6	-0.024219494
126	0x3e1eab73	0.1549509
127	0x3e0ebe6a	0.13939825
128	0x3da8ca7e	0.08241747
129	0x3d8c688c	0.06855878
130	0xbd90e480	-0.07074833
131	0x3d8b0984	0.06788924
132	0xbde61e32	-0.11236228
133	0xbc7ad288	-0.015308984
134	0xbdcf636f	-0.10126387
135	0x3e11b5fe	0.14229581
136	0x3dbb01a3	0.091311716
137	0x3dae64ca	0.08515318
138	0x3ce52a45	0.027974257
139	0xbe00d3cc	-0.12580794
140	0x3dc30777	0.09522908
141	0xbc956b59	-0.018239664
142	0xbda3b206	-0.0799294
143	0x3e258966	0.16165695
144	0x3cf2bfed	0.029632533
145	0x3e15b6e3	0.14620547
146	0x3d17f262	0.03709639
147	0xbdbf3aa7	-0.09337359
148	0x3d67fbd5	0.05663665
149	0xbc4ec324	-0.012619767
150	0x3d724c86	0.05915501
151	0xbdede7c9	-0.11616475
152	0x3d60a98d	0.054849196
153	0x3b898618	0.0041968934
154	0xbb6b9c3b	-0.0035951275
155	0xba51a666	-0.00079975126
156	0xbbe18e4f	-0.0068834196
157	0x3daf86c2	0.08570625
158	0xbd5bc00f	-0.05364996
159	0x3cfe1dad	0.03102001
160	0x3b27a766	0.0025581955
161	0x3de3972f	0.1111282
162	0x3df2bb20	0.118520975
163	0xbdbf5f83	-0.09344389
164	0x3d61a41f	0.05508816
165	0x3ba5b111	0.0050565084
166	0xbe0151ad	-0.12628813
167	0x3e0a0cc6	0.13481435
168	0x3bde44b1	0.006783091
169	0x3deb2b23	0.11482837
170	0x3dbcd9e6	0.09221248
171	0x3d125eed	0.03573506
172	0x3c4b1999	0.01239624
173	0x3c16ff3e	0.009216128
174	0xbd868532	-0.06568374
175	0xbcc0affc	-0.023521416
176	0x3cac8b9e	0.021062668
177	0x3ca23666	0.01980133
178	0xbe4058c4	-0.18783861
179	0x3dbb8bfa	0.09157558
180	0xbd0e019e	-0.03466951
181	0xbcea1e0e	-0.028578784
182	0xbd246262	-0.040132888
183	0xbd9c2dfe	-0.0762596
184	0xbd6b38f7	-0.057427373
185	0x3de2235b	0.110419
186	0x3da015c6	0.07816653
187	0xbd816592	-0.06318201
188	0x3e183c94	0.14866859
189	0xbd12fa6f	-0.035883363
190	0xbd3c270a	-0.045935668
191	0xbb507e3f	-0.003181353
192	0xbcc05651	-0.023478659
193	0xbc6de8c8	-0.014520831
194	0x3d4617ba	0.04836247
195	0xbdb717fb	-0.08940121
196	0xbd9c08dd	-0.07618878
197	0x3d68d55e	0.056844108
198	0xbd6d2e6f	-0.05790561
199	0xbcf2b596	-0.029627603
200	0xbcea6a70	-0.028615206
201	0xbd791079	-0.060806725
202	0x3e2cfffe	0.16894528
203	0x3d3c344b	0.045948308
204	0x3db76f73	0.08956804
205	0xbab10338	-0.0013504988
206	0x3c7d8766	0.015474176
207	0x3da7cedb	0.081937514
208	0x3da76035	0.08172647
209	0x3d3e1662	0.046408065
210	0x3be32fd8	0.0069331937
211	0x3dbf2ef4	0.093351275
212	0x3d7b8aa2	0.061411507
213	0x3d8f7a31	0.07005728
214	0xbd804f8c	-0.06265172
215	0x3c3d1414	0.0115404315
216	0x3e5748eb	0.2102391
217	0xbe1ccebd	-0.1531324
218	0xbd2b3361	-0.041797046
219	0xbc84e3f5	-0.01622198
220	0x3cd39f87	0.025832905
221	0xbc46bfa3	-0.012130651
222	0x3d8919e7	0.066943936
223	0x3dd22021	0.10260034
224	0x3b3b5d0d	0.0028589398
225	0x3d568cf6	0.052380525
226	0xbc4c9eef	-0.012489065
227	0xbd8a9da7	-0.06768351
228	0xbdee489e	-0.116349444
229	0x3dcb7962	0.09935261
230	0x3e1c96de	0.15291926
231	0x3db74569	0.08948786
232	0x3cf0b62d	0.029383743
233	0xbe0af801	-0.13571168
234	0xbd81e6b0	-0.06342828
235	0x3d8a0594	0.06739345
236	0xbda63485	-0.08115486
237	0x3cdad3e7	0.026712371
238	0xbd82774c	-0.0637041
239	0xbd02663e	-0.031835787
240	0x3d849c64	0.06475142
241	0xbe1cc192	-0.15308216
242	0x3c3eb0c6	0.011638826
243	0x3c23747b	0.009976502
244	0x3c37682b	0.011194269
245	0x3d98c1b5	0.07458822
246	0xbb5d8417	-0.0033800656
247	0x3ce8fbad	0.02844032
248	0xbd146378	-0.036227673
249	0x3d1f3b29	0.03887478
250	0x3d142900	0.036171913
251	0xbd02dd73	-0.03194947
252	0x3e1a5692	0.15072086
253	0xbdb69d26	-0.089166924
254	0x3ce874b0	0.028375953
255	0x3c922e30	0.01784429

rnn.bias_ih_l0 f4 [68]
0	0x3d65b212	0.056078024
1	0x3de1d2e9	0.11026556
2	0x3e108062	0.14111474
3	0x3df59e02	0.11993028
4	0x3e381afe	0.17979047
5	0x3de22437	0.11042064
6	0x3db1e6b5	0.08686582
7	0x3e923521	0.2855616
8	0x3e9adb2b	0.30245337
9	0x3e16ef04	0.14739615
10	0x3d4b6a05	0.049661655
11	0x3dcedfa1	0.101012476
12	0x3e002126	0.12512645
13	0x3e1201fe	0.14258572
14	0x3e2a6e7b	0.16643707
15	0x3de27bf2	0.11058797
16	0x3e2c833b	0.16846935
17	0x3e80efef	0.25183055
18	0x3e84396f	0.25825068
19	0x3e4ca100	0.19983292
20	0x3e778f50	0.24175763
21	0x3e45375f	0.19259404
22	0x3e26e608	0.16298687
23	0x3e07ce76	0.13262352
24	0x3e6e203f	0.23254488
25	0x3e3ad54a	0.18245426
26	0x3dadafa6	0.08480768
27	0x3e150da6	0.14555988
28	0x3e8b5235	0.27211156
29	0x3dbc5dec	0.09197602
30	0x3ea1a209	0.31568936
31	0x3e6990d9	0.22809161
32	0x3dcf5486	0.101235434
33	0x3dd9bcc8	0.1063171
34	0x3e1bfcf2	0.1523321
35	0x3dffdbb7	0.12493079
36	0xbcfb8407	-0.030702604
37	0xbdd55d48	-0.104181826
38	0x3dceaa62	0.10091092
39	0x3d85af27	0.06527548
40	0x3d035145	0.032059927
41	0xbc248506	-0.010041481
42	0x3de0935e	0.10965608
43	0xbd285ff2	-0.041107126
44	0xbb3ba0bb	-0.0028629738
45	0xbd88e100	-0.0668354
46	0x3e0865db	0.13320105
47	0xbbd2ea57	-0.006436627
48	0x3d9673c7	0.073463015
49	0xbe00cd14	-0.12578231
50	0x3da6ac5e	0.08138345
51	0x3e825de0	0.25462246
52	0x3eb96006	0.36206073
53	0x3ec305d5	0.38090387
54	0x3eb14e75	0.3463017
55	0x3e80c839	0.25152758
56	0x3e9e8ec9	0.3096831
57	0x3e3c0ea6	0.18364963
58	0x3ebf991d	0.37421504
59	0x3eb9034b	0.36135325
60	0x3e95b3d2	0.29238755
61	0x3eb27768	0.34856725
62	0x3e982f28	0.29723477
63	0x3ea41d24	0.32053483
64	0x3ec68da7	0.38779947
65	0x3ec41150	0.38294458
66	0x3e4bf351	0.19917037
67	0x3e2f76b5	0.17135127

rnn.bias_hh_l0 f4 [68]
0	0x3d65b14c	0.056077287
1	0x3de1d2e9	0.11026556
2	0x3e108088	0.14111531
3	0x3df5a8b5	0.11995069
4	0x3e381af6	0.17979035
5	0x3de22439	0.11042065
6	0x3db1e2f5	0.08685867
7	0x3e923521	0.2855616
8	0x3e9adb2b	0.30245337
9	0x3e16ef03	0.14739613
10	0x3d4b6a08	0.049661666
11	0x3dceda1d	0.101001956
12	0x3e00212b	0.12512653
13	0x3e1201fd	0.14258571
14	0x3e2a6e7a	0.16643706
15	0x3de27bdf	0.11058783
16	0x3e2c8068	0.16845858
17	0x3e80f130	0.2518401
18	0x3e84396f	0.25825068
19	0x3e4cb804	0.19992071
20	0x3e7792ff	0.24177168
21	0x3e4536a2	0.19259122
22	0x3e26e723	0.16299109
23	0x3e07ceaa	0.1326243
24	0x3e6e2040	0.2325449
25	0x3e3ad54a	0.18245426
26	0x3dadafb4	0.08480778
27	0x3e14f907	0.14548121
28	0x3e8b522d	0.27211133
29	0x3dbc6130	0.091982245
30	0x3ea1a209	0.31568936
31	0x3e6990d8	0.2280916
32	0x3dcf496f	0.10121428
33	0x3dd9bf1a	0.10632153
34	0xbbf7a0da	-0.007557017
35	0x3da8b177	0.08236974
36	0xbdaf556c	-0.08561215
37	0xbd41ff28	-0.047362477
38	0x3d905266	0.07046966
39	0xbba8bfa0	-0.0051497966
40	0x3b6d55f7	0.003621457
41	0x3ce7587b	0.028240433
42	0xbdd90676	-0.105969355
43	0xbc26df8f	-0.010185136
44	0xbd298b37	-0.04139253
45	0x3c6c76b9	0.014432603
46	0x3e1cad2e	0.15300438
47	0xbd95d916	-0.073167965
48	0xbd036a41	-0.032083753
49	0xbdb2be1e	-0.08727668
50	0x3de5a4e8	0.11213094
51	0x3e825e8c	0.2546276
52	0x3eb96007	0.36206076
53	0x3ec305d6	0.3809039
54	0x3eb14e75	0.3463017
55	0x3e80c96f	0.25153682
56	0x3e9e8ecb	0.30968317
57	0x3e3c0ec2	0.18365005
58	0x3ebf9922	0.3742152
59	0x3eb9034f	0.36135337
60	0x3e95b3d2	0.29238755
61	0x3eb27766	0.3485672
62	0x3e982f29	0.2972348
63	0x3ea41d22	0.32053477
64	0x3ec68da6	0.38779944
65	0x3ec4114c	0.38294446
66	0x3e4bf426	0.19917354
67	0x3e2f76b7	0.1713513

FC.weight f4 [7, 17]
0	0x3ea89e87	0.32933447
1	0xc0318e3a	-2.7743058
2	0xbe84581c	-0.25848472
3	0xbeda83d4	-0.42678702
4	0x3caacdea	0.02085014
5	0xbe86fdc1	-0.26365474
6	0x3e2f903f	0.1714487
7	0x3ece9f0f	0.40355727
8	0x3e72e70c	0.2372095
9	0x3eeadf56	0.45873517
10	0xbe9e6d47	-0.30942747
11	0x3fe088f8	1.75418
12	0xbeb4aae0	-0.35286617
13	0xbf18cf87	-0.5969166
14	0xbe968eee	-0.29405922
15	0xbf4498ae	-0.7679547
16	0x3f070a42	0.5275003
17	0xbee67b00	-0.45015717
18	0x3f12b0ab	0.57300824
19	0xbefbe2db	-0.49196514
20	0x40204880	2.504425
21	0x3e81b7f0	0.25335646
22	0xbee97974	-0.45600474
23	0x3dc44b92	0.095847264
24	0x3f14d349	0.58134896
25	0x3ee29a16	0.44258183
26	0x3eed842c	0.46389902
27	0xbee0adb0	-0.43882513
28	0xbdd7a723	-0.10529926
29	0x4001a71d	2.0258248
30	0xbf3780ca	-0.7168089
31	0xbf1480a5	-0.58008796
32	0x3f0494f2	0.5178977
33	0x3f019606	0.5061954
34	0xbf2eed1d	-0.68330556
35	0x3ef16c63	0.47153005
36	0xbebe0cb2	-0.3711906
37	0xbec8bf60	-0.39208508
38	0xbe87d28c	-0.26527822
39	0xbeb1b1ed	-0.3470606
40	0xbe73e777	-0.23818766
41	0x3eeaf800	0.45892334
42	0xc01336c8	-2.3002186
43	0x3ec0a1a5	0.37623325
44	0x40059497	2.0871942
45	0xbe4d2cc4	-0.20036608
46	0xbee3959e	-0.44450086
47	0xbf4148b5	-0.7550157
48	0xbed9e147	-0.42554685
49	0x3dcd60ff	0.10028266
50	0x3e94f10f	0.29090163
51	0xbd9037ac	-0.070418686
52	0x3f007a37	0.50186485
53	0xbf0f3c7b	-0.5595166
54	0xbeb6ff0d	-0.35741463
55	0xbebbfcca	-0.367163
56	0xbece2779	-0.4026449
57	0x3d727972	0.05919785
58	0x3f16ca3a	0.58902323
59	0x3f113702	0.5672456
60	0x3efb85f0	0.49125624
61	0xbe8bc863	-0.2730132
62	0xbea81c81	-0.32834247
63	0xbf10d79e	-0.56579006
64	0x404e7f9d	3.226539
65	0xbf03ab76	-0.51433504
66	0x3ef9b23c	0.48768795
67	0x3ebf012b	0.3730558
68	0xbe17d8c2	-0.1482878
69	0x3f21e558	0.63240576
70	0xbedff656	-0.43742627
71	0xbed0c681	-0.40776446
72	0x3e109e4a	0.14122882
73	0xbef40e9a	-0.4766739
74	0x3e3d431b	0.1848263
75	0x3e9e8a4d	0.3096489
76	0x3ee54e7f	0.4478645
77	0x3eb037c4	0.34417546
78	0xbeccdca9	-0.400121
79	0xbe677182	-0.22601894
80	0xbee34837	-0.44391033
81	0xbf2cfb10	-0.6757059
82	0x40051d1f	2.0799024
83	0x3e299212	0.16559628
84	0xc02cee6f	-2.7020528
85	0xbf3adcd5	-0.7299321
86	0x3f0341d6	0.5127233
87	0xbea84706	-0.32866687
88	0xbea62b55	-0.32454935
89	0xbe2c482f	-0.16824411
90	0x4006aa0a	2.1041284
91	0xbda316e5	-0.07963351
92	0xc01ac9d5	-2.4185688
93	0x3ef992ea	0.487449
94	0x3eeedcc9	0.4665282
95	0xbeba3d09	-0.3637469
96	0x3bdc67ef	0.006726257
97	0xbf078718	-0.5294051
98	0xbf1360ba	-0.5756947
99	0xbe92a2cf	-0.28639838
100	0x3e7c5430	0.2464149
101	0x3eee205e	0.4650907
102	0x3d8cb31d	0.06870101
103	0x3f1fa9dd	0.62368566
104	0x400b326b	2.1749523
105	0xbed1bc68	-0.40964055
106	0xbe3f96da	-0.18709889
107	0xbeb658ff	-0.35614774
108	0x3ee17a86	0.4403879
109	0x3ebf35f6	0.37345856
110	0x3f02d8ac	0.51111865
111	0xc013d05e	-2.3095927
112	0xbeaa778d	-0.33294335
113	0xbe39446c	-0.18092507
114	0xbef869a0	-0.48518085
115	0xbf235312	-0.6379863
116	0xbf0c3849	-0.54773384
117	0x3efcafe3	0.4935294
118	0x3e94f33c	0.29091823

FC.bias f4 [7]
0	0xbe8d57a8	-0.2760594
1	0xbf0f9af5	-0.5609582
2	0xbed75a72	-0.42061192
3	0xbe9cb447	-0.3060629
4	0xbe8845c8	-0.2661574
5	0xbe974922	-0.29547983
6	0xbe95c234	-0.29249728
